anomaly_model/1570_model.pt (torch, 18274 bytes, 28 tensors)

encoder.0.weight f4 [32, 6]
000000 65 eb 7b 3e 52 07 da 3d a3 6b c6 bd b7 c7 1d 3f
       0.24601515 0.106459275 -0.09688499 0.61632866
000010 37 01 67 3c 78 92 a0 3e d2 77 b7 bb 2f a1 01 bf
       0.014099411 0.31361747 -0.0055990005 -0.5063657
000020 5a fb a8 be 8d b3 89 bd 2b be df 3d 3e 84 33 3e
       -0.33004266 -0.067237 0.109249435 0.17530915
000030 3e b6 97 be f2 da 41 be a5 b5 88 be 52 cf eb bc
       -0.29631227 -0.18931177 -0.26701084 -0.028785381
000040 f5 a4 a2 be 3f 5c 73 bf eb f9 72 3c f6 81 01 be
       -0.31766477 -0.9506263 0.014830093 -0.12647232
000050 44 84 10 3e de 70 b6 be a3 42 81 3e 1c 0e 3d be
       0.14112955 -0.35632986 0.25246152 -0.18462414
000060 fb 48 34 3d 7b 5e ed bd 16 44 ce 3d bc ce 1b 3e
       0.044014912 -0.11590286 0.1007158 0.15215582
000070 d6 53 30 3f 67 28 8d 3e 15 d9 5b bd c3 1c 55 3e
       0.68877923 0.27569887 -0.053673822 0.20811753
000080 a5 f4 fd be 0d 7e b0 3e d2 ca aa 3d 2c c0 d3 3e
       -0.4960071 0.3447117 0.08339466 0.41357553
000090 c5 c9 d7 bd b0 9c 97 be 1e 97 f4 bd 57 ba 29 be
       -0.10536531 -0.2961173 -0.11942886 -0.1657499
0000a0 22 8f 8a 3e 8c a1 a7 be 90 de c9 3d c0 20 20 bf
       0.27062327 -0.32740438 0.098569036 -0.6254997
0000b0 28 d0 df 3e 94 f1 04 be f1 0c 2f be dd 40 82 bd
       0.43713498 -0.1298278 -0.1709478 -0.06360028
0000c0 73 e2 8c 3d 76 a3 10 be 05 5d ce be 15 88 ec be
       0.06879129 -0.14124855 -0.40305343 -0.46197572
0000d0 56 e1 27 3e 2d 67 ca 3e 13 7d 4c be 59 00 d2 bd
       0.16394553 0.39531842 -0.19969587 -0.102539726
0000e0 1b 5d 06 bd d5 d9 a8 3c 62 33 13 bf 22 17 09 bd
       -0.032803636 0.020611683 -0.5750028 -0.033469327
0000f0 92 a7 81 3d d5 e3 b4 bb ab a3 ed bd 88 3b 4b 3f
       0.063307896 -0.0055203238 -0.11603483 0.7938771
000100 5e 8b 91 3e f8 1f 43 3e 68 01 95 bd 16 8e c9 be
       0.2842664 0.19055164 -0.07275659 -0.39366215
000110 f3 75 ec 3e 10 ee a2 bd ec 75 cd 3d 12 66 29 3f
       0.46183738 -0.07955563 0.100322574 0.6617137
000120 49 9b 27 3d 5e 16 e2 3e 3a bc a4 3e 03 1a 88 3e
       0.040919576 0.4415769 0.32174855 0.26582345
000130 59 b5 c9 3d 72 77 d7 be 6a 90 0e 3e 95 ac e4 3e
       0.098490424 -0.42083317 0.13922277 0.4466292
000140 53 1e 61 be a2 6c 13 3e c8 ec 8b 3e b7 1c 13 3f
       -0.21984224 0.14396909 0.27329087 0.5746569
000150 16 31 21 be 1a 94 88 3c 2e 7e 97 3e e8 c1 da 3e
       -0.15741381 0.016672183 0.29588455 0.42726064
000160 6e 05 95 3e 29 84 36 3e f8 77 8f 3e 2f e2 f2 3e
       0.29105705 0.17823853 0.28021216 0.4743819
000170 10 2b c2 bd 22 5a 09 be c5 00 a9 3e 64 c8 2b 3f
       -0.0948087 -0.13413289 0.330084 0.67102647
000180 65 7c 28 be da 1a 84 be e7 80 a2 be c9 26 3c 3e
       -0.16453703 -0.25801736 -0.3173897 0.1837417
000190 82 d6 79 be 1c 1f c8 be 8b ae 11 3e 76 2c 01 be
       -0.24398234 -0.39086235 0.14226739 -0.12614617
0001a0 6c e5 e5 bd 06 22 6d be 70 cf 3d be 47 57 ac be
       -0.112253994 -0.2315751 -0.18536162 -0.33660337
0001b0 67 ea 2b be 0d 5e 95 3e 4b 81 07 bd 4c a7 6c 3b
       -0.16788636 0.29173318 -0.033082288 0.003611046
0001c0 05 47 be be ce e3 c2 bd 46 b2 be bd a6 3e 6f 3c
       -0.3716356 -0.095161065 -0.09311347 0.014602339
0001d0 19 78 ec be cc cd d4 3e b8 d1 03 3e 2d 8c b1 be
       -0.46185377 0.4156326 0.1287297 -0.34677258
0001e0 bc 57 88 be 5f 9b f9 3d da bf fd 3d 55 08 db 3e
       -0.26629436 0.12187838 0.123901084 0.42779794
0001f0 5e 17 c7 3e d7 e8 9b be 25 29 ef 3e 0b d7 a6 be
       0.38885015 -0.3045108 0.46711078 -0.3258594
000200 8f 0b cd 3d 62 c3 dc 3c 26 e8 97 be e7 ba fc bd
       0.1001197 0.026948635 -0.29669303 -0.12340336
000210 ce 97 17 be da ff b4 be 4c 56 b1 be 36 a8 11 3e
       -0.14804003 -0.3535145 -0.34636152 0.14224324
000220 aa 67 1d 3e 9c 0c b5 3e e8 77 87 be 3d f2 d9 bc
       0.15371576 0.35361183 -0.2645867 -0.026604766
000230 b5 f4 e5 bc 5e 78 79 3f 2d 38 6e be 2f c3 56 bd
       -0.028070787 0.9744929 -0.23263617 -0.052432235
000240 83 8e 0e be 3f f9 86 bd 3b 19 6c 3e 9a 87 b5 be
       -0.13921551 -0.06590509 0.230565 -0.35455018
000250 96 f1 fb be 9c e0 70 be 5b c2 9f 3c f7 2b b5 be
       -0.49207753 -0.23523182 0.019501856 -0.35385105
000260 e1 07 bd 3e b2 b1 86 bd 2e d1 a3 3d 5b 5e ce 3e
       0.36920074 -0.065768614 0.07998882 0.40306363
000270 00 df 0d 3e bc 1e 27 bd 31 82 7d be 55 ed 65 3f
       0.13854599 -0.040800795 -0.24756695 0.89815265
000280 9c c9 37 be f7 c5 58 3e ef 36 80 be 59 f6 ae 3e
       -0.17948002 0.21169268 -0.2504191 0.34172323
000290 97 7c 9c be 0a 22 ec 3e 87 b2 24 3e cf f7 78 3f
       -0.30563805 0.4611972 0.16083728 0.97253126
0002a0 98 be ba be 99 63 1e bd ca d3 af 3d b8 90 72 be
       -0.36473536 -0.038669202 0.085853174 -0.23688018
0002b0 f9 1e 5e 3d 85 2b a8 be 21 ab a1 bd 5b 8d 26 bf
       0.054228757 -0.32845703 -0.078939684 -0.6505944
0002c0 8a 7e a7 3e 5a 3e 0e be dd c5 59 3d 78 4d ce bd
       0.3271373 -0.13890973 0.053167213 -0.1007337
0002d0 3e b3 34 3c 55 d6 72 be d9 35 e7 3e 5e ed 1c be
       0.011029063 -0.23714574 0.4515827 -0.15324923
0002e0 5a 4f 16 3d 0c 63 4d bf 5b 3a b2 3e b5 24 89 be
       0.03669677 -0.8022926 0.34810147 -0.26785818
0002f0 63 16 87 3e 11 7b d5 3e bc cb 4c 3d f3 62 84 3f
       0.26384267 0.41695455 0.049998984 1.0342697

encoder.0.bias f4 [32]
000000 23 03 84 3d f9 38 ac 3c 93 ce 99 3e 45 de 92 3e
       0.06445911 0.02102326 0.30040416 0.28685203
000010 b8 84 35 3e 38 40 4f 3d b7 b8 4c 3d 4e 30 99 bd
       0.1772641 0.050598353 0.049980845 -0.074799165
000020 2d e5 cd be ce 89 63 3e ef 2c a4 3e 4f a6 ec 3c
       -0.4021391 0.22220537 0.32065532 0.028887896
000030 51 78 b7 3d e2 ee 20 3d ae 53 ce bc 6b ef c1 bd
       0.089584954 0.039290316 -0.025186386 -0.094694935
000040 99 77 2f be 74 b7 c1 bd b9 54 93 be 78 ea 73 3d
       -0.17135467 -0.09458819 -0.28775576 0.05954978
000050 18 0c be 3d 19 1f 61 3e 08 6d 99 be e3 ff c3 3e
       0.092796504 0.21984519 -0.29965997 0.38281164
000060 53 01 45 bd 35 d0 12 be 1f 51 1d 3e 0d c1 3c 3e
       -0.048096966 -0.14337237 0.15362976 0.18433018
000070 e0 8a b8 3e 19 af 02 be 02 0c 28 be df 7e a3 be
       0.36043453 -0.12762107 -0.1641083 -0.31932732

encoder.1.weight f4 [32]
000000 f6 2a 74 3f e1 9e 86 3f 6b d8 82 3f 12 b2 51 3f
       0.95378053 1.0517236 1.0222296 0.8191234
000010 59 1d 76 3f 29 aa 97 3f bf 93 8a 3f 5a f1 66 3f
       0.9613853 1.1848804 1.0826339 0.90212023
000020 33 69 56 3f 20 3f 4a 3f c5 d8 74 3f 51 80 7f 3f
       0.8375427 0.7900257 0.95643264 0.9980517
000030 b6 e2 86 3f d8 3b 77 3f 1f 1a 7b 3f be df 7d 3f
       1.0537937 0.9657569 0.9808673 0.9916953
000040 1f 2b 7e 3f 2c 19 85 3f 25 f5 8d 3f 03 87 58 3f
       0.9928455 1.0398307 1.1090437 0.8458101
000050 79 f8 85 3f 1b 23 76 3f 8c 56 5c 3f 70 c4 86 3f
       1.0466453 0.96147317 0.8606956 1.0528698
000060 74 05 7c 3f e7 35 76 3f fd a0 73 3f 6d b6 85 3f
       0.9844582 0.96176 0.95167524 1.0446297
000070 42 63 38 3f 00 15 9f 3f 77 b1 3b 3f b5 97 66 3f
       0.72026455 1.2428284 0.73317665 0.90075237

encoder.1.bias f4 [32]
000000 e3 d8 f3 be d0 a0 1f bf 3f 72 50 be ff 6b 6a 3e
       -0.4762641 -0.62354755 -0.20356081 0.2289276
000010 85 01 f1 3d 0d 03 b4 bd cd 4f 6d ba f9 5f ed bd
       0.11767868 -0.087896444 -0.0009052724 -0.11590571
000020 f9 20 5f be 52 21 6a 3e 3e 78 b6 be 48 4d b1 be
       -0.21789922 0.22864273 -0.35638613 -0.34629273
000030 bd ec d2 3e e2 fa 14 3e 75 ea 0f bf a2 98 af 3c
       0.41196242 0.14548829 -0.5621713 0.021435086
000040 f8 c2 ad 3e 5c 87 41 bd d9 0f ce be e3 c3 11 bf
       0.33937812 -0.04724823 -0.40246466 -0.56939524
000050 80 1b 71 3e f6 de 8f 3d 14 e6 b9 be 12 39 d5 bd
       0.23545647 0.07024948 -0.36308348 -0.10411276
000060 92 20 86 be e8 a0 a6 3a 55 bf a3 3c 29 d8 9e bd
       -0.26196724 0.0012712749 0.019988695 -0.07756073
000070 5c c9 92 3e 26 b0 08 3d 6f cb ce 3e 64 36 89 be
       0.2866925 0.033371113 0.40389583 -0.2679931

encoder.1.running_mean f4 [32]
000000 a5 49 af be 5c a6 57 be b1 20 d0 3f 6b f0 19 3f
       -0.34235874 -0.21059555 1.6259977 0.60132474
000010 28 75 aa bd 0c 93 1f bf 14 42 12 3f 5c 80 03 3e
       -0.08323127 -0.6233375 0.5713208 0.12841934
000020 08 d9 85 bf be b3 29 3e 72 86 20 3e 1e 80 5b bf
       -1.0456858 0.16572472 0.15676287 -0.85742366
000030 3e 90 40 3f 66 6f 53 bf b1 67 39 be d7 01 8d bf
       0.75220096 -0.82591856 -0.18105961 -1.1016186
000040 71 28 b9 3e 95 e5 bf 3e 5b 1b 82 be 68 2c 12 3f
       0.36163667 0.37479845 -0.25411496 0.5709901
000050 d4 6d 1f 3f 99 9c ee 3e 53 86 4f bf 9f ed fb 3e
       0.6227696 0.4660385 -0.8106434 0.49204728
000060 00 4b 62 3e 8f 67 25 bf 2a af e2 bd 2e 86 a7 bf
       0.22098923 -0.6461114 -0.11068566 -1.3087823
000070 99 c9 50 3f 55 40 04 3e 41 70 8e 3f 76 9a db bf
       0.81557614 0.12915166 1.1128007 -1.7156513

encoder.1.running_var f4 [32]
000000 10 c1 78 3d ec 8d c8 3d 23 89 9d 3d f0 f5 74 3d
       0.060730994 0.097926944 0.076921724 0.059804857
000010 65 c8 8b 3e 39 15 64 3d 9c 6c 98 3d 79 3c 36 3e
       0.27301326 0.055684302 0.074425906 0.17796506
000020 04 cd 44 3d 8f 45 43 3e 3e c9 0e 3e b2 a2 97 3d
       0.04804708 0.19069503 0.13943955 0.074040785
000030 1e 10 9e 3d 19 6a f6 3d 80 10 9c 3d f3 d6 18 3e
       0.07717918 0.12031955 0.076203346 0.14925747
000040 6f 07 80 3d 59 6a 14 3d 6e a9 f6 3d 6b 4a 4d 3d
       0.06251418 0.036234234 0.12044035 0.0501198
000050 b7 1c 02 3e 6b 12 f8 3d 24 6b 85 3d 76 32 35 3e
       0.12706266 0.12112888 0.06514576 0.1769503
000060 85 4a 29 3e 11 39 6d 3d df e0 02 3e e2 b6 f7 3d
       0.16532333 0.05791575 0.12781094 0.12095429
000070 6b 12 cf 3c eb 49 2c 3e 72 4e 1a 3d d8 73 83 3d
       0.025277337 0.16825072 0.037672468 0.0641858

encoder.3.weight f4 [16, 32]
000000 dc 30 8f be fc 65 2f 3e df d2 2e 3e 73 56 04 3d
       -0.27966964 0.17128748 0.17072628 0.032309007
000010 55 4b e8 bd 23 f8 bc bc 74 00 90 3c 20 2d 7b 3e
       -0.113424934 -0.02306754 0.017578341 0.24528933
000020 4f 96 f0 3d 37 6d 14 3e de c5 5c 3e 4c 8f 08 bd
       0.11747419 0.14494787 0.21559855 -0.033339784
000030 d3 1b c0 bd f8 60 27 be 3e 20 bb 3d 10 66 18 bd
       -0.09380307 -0.16345584 0.09137009 -0.03720671
000040 f7 71 52 bd 5e a3 42 be 71 13 a2 3d 77 6f 4b 3e
       -0.051378217 -0.19007632 0.079138644 0.19866739
000050 fe 99 1b 3e d8 7b 0b be 90 55 43 bd 5a 47 5d be
       0.15195462 -0.13621461 -0.04768902 -0.2160925
000060 cc 53 37 3d 91 5e 48 3d fb 08 97 be 0f e1 b9 3d
       0.04475765 0.04891831 -0.2949904 0.0907613
000070 74 10 2f be 96 a6 a1 be ad 10 d1 3d 0d b1 fb bd
       -0.1709612 -0.31572407 0.10208259 -0.12289629
000080 97 de 1c 3e 59 e8 0c 3e a7 d6 15 be 0a 02 e5 bd
       0.15319286 0.13760509 -0.14632665 -0.111820295
000090 ac 7a 20 be 16 65 ca 3d 11 f2 45 3e db 02 cd 3d
       -0.15671796 0.09882562 0.19330622 0.1001031
0000a0 2f 62 d4 bd a7 73 04 be 50 4f 12 3e 3f 78 32 3e
       -0.103702895 -0.12934743 0.14288068 0.17428683
0000b0 4a 50 ea bd 8f 36 7f 3d ca dc 9f 3e 3d 52 ae 3d
       -0.11441095 0.06230789 0.31223136 0.085117795
0000c0 8f b1 a3 be c6 e9 87 bc a6 86 89 3e 12 68 a5 3d
       -0.31971404 -0.016590964 0.2686054 0.080764905
0000d0 99 82 b0 bc b8 c9 68 3c 6c f6 bd 3d b7 36 e3 be
       -0.021546649 0.01420825 0.09275517 -0.44377682
0000e0 01 60 a6 3e 40 00 84 3d d1 93 c8 bc c8 69 a1 3d
       0.3249512 0.0644536 -0.024484547 0.07881504
0000f0 05 68 51 3e 7d 1f ea 3c ad d8 a2 3d 3c a9 10 3d
       0.20449837 0.028579468 0.07951484 0.035317644
000100 ed e9 ab 3d 6b c9 04 be e2 a1 aa 3e 9b 21 11 3d
       0.08394227 -0.1296746 0.33326632 0.03543244
000110 09 ab d8 3d 5f 3a 01 3e 0e 85 20 bd 8f 43 1b bd
       0.10579497 0.12619923 -0.03918939 -0.037906226
000120 fc 28 3b bd ad d9 2d be 13 57 58 3e fe f4 1a be
       -0.045693383 -0.16977568 0.21126966 -0.1513252
000130 7b 3b 65 3d 61 e6 64 be 2f 0d a6 3d ed af 98 bd
       0.055964928 -0.22353508 0.08107983 -0.0745543
000140 e0 17 44 bc b8 55 fe bd 33 c5 12 3f 10 73 aa 3d
       -0.011968583 -0.12418693 0.5733215 0.08322728
000150 02 17 b6 3b 88 cc 3b 3e 8d 55 85 bc 8f 52 dc 3d
       0.005556942 0.18339741 -0.016276145 0.10757934
000160 ce c1 06 3d 28 3a c2 3d ae 2f 39 3e ec b2 39 3e
       0.03289967 0.09483749 0.18084595 0.1813466
000170 58 53 2e 3d 7a b8 dc bd 33 f7 39 3e 1d 97 07 3e
       0.04255995 -0.107773736 0.18160705 0.13241239
000180 ea 3c 8e bd 8d bb 05 be 3e c2 0a 3e 34 89 79 3d
       -0.06945212 -0.13059826 0.1355066 0.060921863
000190 f6 0a 24 bd 5a b7 da bd a9 8b 44 3e 07 63 68 be
       -0.040049516 -0.10679503 0.19193901 -0.22694026
0001a0 93 83 86 bc 5c ec a9 bd 74 08 36 be 09 b4 8d 3e
       -0.016420161 -0.08297035 -0.17776662 0.27676418
0001b0 b5 79 97 be 98 d3 f7 be ce 83 f6 be 89 68 05 3e
       -0.29585043 -0.4840362 -0.48147434 0.13028158
0001c0 2f 0b a6 bd 30 3f f4 3d 57 f8 9a bd 4a 1d a6 bd
       -0.08107602 0.119261146 -0.07566898 -0.08111055
0001d0 55 d6 1a 3e fe 9f 7e bd 49 84 ba be 35 2f 99 3d
       0.15120824 -0.0621643 -0.3642905 0.07479707
0001e0 4d 6d 5c 3e 9f a1 00 3d 36 35 9b 3d 04 32 dc 3d
       0.2152607 0.031404134 0.075785086 0.10751727
0001f0 27 91 e8 bd 45 80 be bd 5b 53 5b bd 5d c4 ac 3d
       -0.113558106 -0.09301809 -0.05354629 0.08435891
000200 ad 89 79 3e fc 5c e6 bd 64 66 c6 3c 93 37 cb bd
       0.24368925 -0.11248204 0.024218746 -0.09922709
000210 1f d2 2d 3e 9d 53 63 be f0 f4 61 be 8d 8e f1 3d
       0.16974686 -0.22199865 -0.22066092 0.117947675
000220 2c f8 9b 3d 86 72 db 3d a3 3d f9 3d f2 5f 31 be
       0.076156944 0.10715203 0.121699594 -0.17321756
000230 63 cb 44 be 36 60 e0 3c 40 c5 8f 3d 81 a6 65 be
       -0.19218211 0.027389627 0.07020044 -0.22426797
000240 1a a3 51 be 5e f4 31 3e 85 b8 b6 3d b5 08 77 bd
       -0.20472375 0.17378375 0.08921913 -0.060311038
000250 64 4d 3f 3e db 41 b4 bd 90 4c da bd 4c 10 c2 bd
       0.18681866 -0.088016234 -0.106591344 -0.09475765
000260 ae e0 1c 3e 01 ac 85 3d 66 a1 a7 3e 0a 78 05 bd
       0.15320083 0.06526948 0.32740325 -0.03258518
000270 67 50 b0 3d bc d5 07 3d 19 1c 1e be 36 e0 9b ba
       0.086090855 0.033162817 -0.15440406 -0.0011892382
000280 53 5b be 3d 3c a9 a5 be 33 47 58 be 35 bd 15 bf
       0.092947625 -0.32355678 -0.2112091 -0.5849183
000290 27 8b 27 be 41 a3 82 3d 93 06 23 be 1d fc c8 bc
       -0.16361676 0.063787945 -0.15920477 -0.02453428
0002a0 18 87 d4 be b8 31 4c 3d fb a9 1f be 8e a2 23 3d
       -0.41509318 0.049852103 -0.15592186 0.039949946
0002b0 a6 12 08 be 85 86 6d 3c 03 9e 89 3d e0 bd 70 3c
       -0.13288364 0.014497404 0.067195915 0.014693707
0002c0 f6 05 89 3e 8e d2 0f be 88 6c 2b be 44 94 20 be
       0.2676236 -0.14045164 -0.1674062 -0.15681559
0002d0 e8 95 86 3e 78 ab 22 be 30 4f b8 3d ef 49 00 bd
       0.26286244 -0.15885723 0.08999479 -0.03132051
0002e0 3e 84 4c bd 02 a4 9f 3b 66 c0 25 3e fd a5 12 bd
       -0.049930803 0.004871846 0.16186675 -0.03580283
0002f0 43 c2 67 be f3 3b 8a bd 55 c0 01 3e 37 d1 2b bd
       -0.22632699 -0.06749716 0.12671025 -0.04194757
000300 4f d7 85 be dc 8a cf 3c 65 cd 13 3e f2 1c c1 3d
       -0.2614083 0.025334768 0.1443382 0.09429349
000310 51 c0 61 3e 31 74 42 3e 08 99 5a bd a8 3a f4 3d
       0.22046019 0.18989636 -0.0533686 0.1192525
000320 05 e7 03 3d 91 cd 02 3d d7 7a 7f bd 2d e8 18 3e
       0.03220274 0.031934325 -0.06237301 0.14932318
000330 b0 34 18 bd 4f bf f1 bd 4e 3e 6c be c1 c8 8a be
       -0.03715962 -0.11804067 -0.23070642 -0.27106288
000340 e4 ed 27 3e 4a bc dc 3d 4a 9f e9 3d e2 c6 c8 be
       0.16399342 0.10778101 0.11407335 -0.39214236
000350 12 60 1b be 07 66 8e 3d 46 08 a3 3e 0f 07 e0 3c
       -0.15173367 0.06953054 0.3184225 0.027347116
000360 48 00 b3 be 77 6d cb bd 44 57 76 bd 14 c4 a4 bd
       -0.34961152 -0.09932988 -0.060141817 -0.080452114
000370 dd 22 84 bd dd 5a 3d be bb 98 06 3d c8 a3 16 be
       -0.06451962 -0.18491693 0.0328605 -0.14710915
000380 b0 b0 81 bc 21 11 34 3e 0f 52 8a 3e 46 7e 3c bc
       -0.015831321 0.17584659 0.2701573 -0.011504715
000390 14 b5 12 bc 85 13 0e bf 7e d9 88 be bc bc 2d be
       -0.008954305 -0.55498534 -0.26728433 -0.16966528
0003a0 87 e7 e4 3d ad 51 66 3d 51 40 0c 3e 13 35 3e 3e
       0.11176973 0.056230236 0.1369641 0.18574934
0003b0 75 d6 9f bc 2c d4 b5 3d 80 25 9b bc a3 9a 04 bd
       -0.01951144 0.08878359 -0.01893878 -0.032374036
0003c0 06 24 12 3e d4 7b db bd c1 5e 3a be 85 15 1d be
       0.14271554 -0.10716978 -0.18200208 -0.1534024
0003d0 92 b9 63 bd 51 d2 7e bd e0 db d1 bc c0 f9 eb 3d
       -0.055596896 -0.062212292 -0.02561754 0.115222454
0003e0 c7 25 06 3e c0 81 d0 bd 75 2a dc bc c1 38 ae be
       0.13100348 -0.10180998 -0.026875714 -0.34027675
0003f0 e6 79 cf bd 82 99 46 3e b7 9f 14 3e 8c 5b 94 be
       -0.10130672 0.19394496 0.14514051 -0.28976095

encoder.3.bias f4 [16]
000000 af 4b ce 3d 54 f7 62 bd 1c c8 bc bc 5a ce 4e be
       0.10073029 -0.05541165 -0.023044638 -0.20195904
000010 6f f9 cb 3d 2f 73 c1 3b ea fe 80 bd 83 e1 39 3e
       0.09959685 0.0059036235 -0.06298621 0.18152432
000020 fe 02 3a 3d fa 4e b7 3d 48 b4 63 be 6b e5 43 3e
       0.04541301 0.089506105 -0.2223674 0.19130485
000030 10 f6 85 3b 64 e4 03 be 53 ba 7c bd 8e c4 cd 3c
       0.004088171 -0.12880093 -0.06170113 0.025118139

encoder.4.weight f4 [16]
000000 79 e9 77 3f 16 9a 89 3f 6b bb 68 3f eb bd 82 3f
       0.96840626 1.0750148 0.9091098 1.0214208
000010 f7 b9 42 3f dc db 93 3f 03 cb 80 3f c7 41 84 3f
       0.7606501 1.1551471 1.0061954 1.0332574
000020 0b b6 70 3f 50 aa 5e 3f 82 51 3e 3f f9 97 87 3f
       0.94027776 0.86978626 0.7434312 1.0593253
000030 48 ec 88 3f 24 5e 7e 3f ed ed 84 3f 07 6c 82 3f
       1.0697107 0.993624 1.0385109 1.0189217

encoder.4.bias f4 [16]
000000 27 b6 ce be c6 2a 02 be cc da 85 be 55 eb 70 3d
       -0.40373346 -0.1271163 -0.2614349 0.05881818
000010 1a fd 43 bf 8f 99 77 3e 42 c0 86 bd 94 bc 93 3c
       -0.7655808 0.24179672 -0.06579639 0.018034257
000020 45 48 51 be 19 18 d0 3d 2f d2 5a 3f a9 9d 5f bd
       -0.20437725 0.10160846 0.85476965 -0.054593716
000030 97 d6 83 be 47 27 17 be 2d 6b 44 be 19 70 2c be
       -0.25749657 -0.14761077 -0.1918151 -0.16839637

encoder.4.running_mean f4 [16]
000000 60 6a 78 be 4a 2f 03 be 88 e1 a9 3e 77 9e 04 bf
       -0.24259329 -0.12811008 0.3317988 -0.518043
000010 f9 b0 03 bd f1 c9 c5 be e5 40 d1 bd 45 52 48 bd
       -0.032151196 -0.38630632 -0.10217456 -0.048906583
000020 21 7a 9d bc 77 9d e2 be a9 18 ed 3e d0 2e 1d bd
       -0.019223275 -0.4426076 0.46307877 -0.038374722
000030 00 0e 8a 3e 7c f4 96 bd f9 1b 02 bf 48 18 9a bd
       0.26963806 -0.073708504 -0.5082393 -0.075241625

encoder.4.running_var f4 [16]
000000 90 ad 18 3e f5 33 f8 3e f4 b8 91 3e 70 67 bd 3e
       0.14909959 0.4847714 0.2846142 0.3699298
000010 67 84 a4 3e 90 e7 09 3f d1 95 a9 3e 4b 86 fe 3e
       0.32132265 0.5386896 0.33122113 0.49711832
000020 1e 34 0c 3f de c1 9c 3e 80 45 69 3e f9 94 7b 3e
       0.54767025 0.3061666 0.22780418 0.24568547
000030 99 59 95 3e 78 c7 c4 3e d3 85 3c 3f 16 ac 09 3f
       0.2916992 0.38433433 0.736417 0.5377821

encoder.6.weight f4 [4, 16]
000000 8a 59 5b 3e 34 8e 66 be 87 84 40 bd 8b 0a 27 3e
       0.21420875 -0.22515184 -0.047001388 0.16312616
000010 d2 3e 07 be 03 9b 2e 3e 53 8a 56 3e f8 2d a2 be
       -0.13207558 0.1705132 0.20951204 -0.31675696
000020 7f 95 10 be 58 89 de bd d0 0d 3c 3e 7c 9e 30 be
       -0.14119528 -0.1086604 0.18364644 -0.17247957
000030 56 a7 17 3e 6a 8d f0 3d d6 ec 0b 3d 04 35 6f be
       0.14809927 0.117457226 0.03416141 -0.23360068
000040 bd f3 13 3d ac 91 8e 3e 6d 99 27 3c 08 cf 14 be
       0.03612112 0.27845514 0.010229451 -0.14532101
000050 df 56 2b bd 94 90 73 be 2e 7a 60 be 12 81 8d 3e
       -0.041830894 -0.23785621 -0.21921608 0.27637535
000060 10 e8 0f 3d 8b e7 82 3e e4 7d 1a be d2 6f 11 3e
       0.03513342 0.25567278 -0.15087086 0.14202812
000070 da f9 a7 3e 69 80 b8 ba 7f 95 7b be 39 48 1e 3e
       0.3280781 -0.0014076355 -0.24568747 0.15457238
000080 e8 9e 2f be 7c cc 1b 3d 54 4d aa be 31 dc 97 3e
       -0.17150462 0.03803681 -0.33262122 0.2966018
000090 c4 90 ae 3e 85 9b 72 be b3 4e 67 3e 3c 54 19 3e
       0.34094822 -0.23692138 0.22588615 0.14973539
0000a0 ed 4c e4 3c 87 48 d3 bd 1a a0 59 bd c1 bf 6d 3e
       0.027868712 -0.10316568 -0.0531312 0.2321768
0000b0 c9 55 19 bd c0 69 bc 3e fe 3b 15 be 96 47 1f 3e
       -0.037435327 0.3679943 -0.14573666 0.15554652
0000c0 63 25 9e 3e 9e 2e 2c be bc cd 23 3e cb 22 2f 3e
       0.308879 -0.16814658 0.1599645 0.17103116
0000d0 0e 8b 25 be c0 98 88 be ff 77 a0 bd 8b de bd bd
       -0.16166326 -0.2667904 -0.078353874 -0.09270962
0000e0 f4 00 9f be 8e 96 9e bd 39 c9 e6 3b ee 38 6c be
       -0.31055415 -0.0774356 0.0070430306 -0.23068592
0000f0 b6 e1 ff bd 77 c3 51 3d dd 02 a4 be 99 5b 1e be
       -0.12494223 0.0512118 -0.32033435 -0.15464629

encoder.6.bias f4 [4]
000000 8b 42 28 be f9 9f 82 be 24 27 2c be 42 9a ec 3c
       -0.16431634 -0.25512674 -0.16811806 0.02888215

decoder.0.weight f4 [16, 4]
000000 fa 63 ec 3e 44 cd cf be e5 3a 52 be 4d c9 ed 3d
       0.46170026 -0.40586293 -0.20530279 0.11610661
000010 6f 66 a9 be c5 c9 d2 be 1c a9 ff bd 07 27 04 bd
       -0.33085963 -0.41169563 -0.12483427 -0.032263782
000020 95 5a 04 3e 37 e0 e4 3e 78 7c d2 be 09 04 1d bd
       0.1292518 0.44702312 -0.41110587 -0.038333926
000030 80 c9 46 be d5 08 d3 3d f2 d6 dd 3e 71 7a c7 3e
       -0.19412804 0.10304419 0.43328053 0.38960603
000040 c4 0e 5d 3c 68 ec 7e bd e9 bc d3 be 8e 0a 91 3e
       0.01349229 -0.062237173 -0.41355065 0.28328365
000050 ef 2c 9a 3d 7e e4 49 bc 9f 44 e6 3e 8e ad bf be
       0.07528102 -0.012322543 0.4497423 -0.374371
000060 b8 31 de be af 3b 24 3e 35 06 bf bc 2c fd cd 3e
       -0.43397307 0.16038392 -0.02331839 0.40232217
000070 9e 70 1f be ab 09 80 3c 7b e0 90 be 21 28 26 3c
       -0.15570304 0.01562961 -0.28296265 0.010141403
000080 ec 6b 09 bf 76 95 51 3e 4b dd 5a be 02 03 e1 bd
       -0.536803 0.20467171 -0.21373479 -0.10986902
000090 52 96 c2 3d e6 e4 5a be 25 c5 76 3e 67 aa fe be
       0.095013276 -0.2137638 0.24098642 -0.49739382
0000a0 57 fa ed 3e b9 18 a9 be 6f 21 75 be fd c3 8c be
       0.46480057 -0.33026674 -0.23938535 -0.27493277
0000b0 0d 38 ca be ca f8 c4 be 23 a0 83 3e 0c 8d 91 be
       -0.39495888 -0.3847106 0.25708112 -0.28427923
0000c0 e8 7d e0 be 1a 11 42 bd aa ad b5 3d 57 48 ba be
       -0.4384606 -0.04737959 0.088710144 -0.36383316
0000d0 05 b4 be be a7 3e 0e bf 8f 3c 18 3e 83 dd 7f bd
       -0.3724672 -0.5556435 0.14866851 -0.06246711
0000e0 4d b1 96 3e ee 48 83 be 3b 20 75 3e f6 5f a7 3e
       0.29432145 -0.25641578 0.23938076 0.326904
0000f0 d6 e9 b0 be 4b d2 43 3e 46 ce 28 3f 64 fa d8 be
       -0.34553403 0.19123189 0.6593975 -0.42378533

decoder.0.bias f4 [16]
000000 f5 2a ae 3e 08 cd 5c 3e 29 f1 a3 3d af 52 47 3d
       0.3401715 0.21562588 0.08004982 0.048662838
000010 de 5d c3 3e 2c ab 9f be 44 f4 a1 be 4a d6 b3 3e
       0.38157552 -0.3118528 -0.31631672 0.35124427
000020 62 b2 b0 3d 3d 0f da be b7 40 5b be 2b a8 27 3e
       0.08627774 -0.4258975 -0.21411406 0.16372745
000030 8b 17 89 3c cb d2 5f be 51 44 8e bd 0c 45 74 3e
       0.016734859 -0.21857755 -0.06946624 0.23854464

decoder.1.weight f4 [16]
000000 39 42 84 3f 55 35 4e 3f 3e 93 23 3f 0d cd 6f 3f
       1.033271 0.8055013 0.6389655 0.9367226
000010 0d ec 7a 3f 74 c2 8e 3f ea 42 94 3f 4a d4 54 3f
       0.98016435 1.1153092 1.158292 0.8313643
000020 a0 50 9d 3f 11 ea 77 3f 88 c8 4e 3f ce f6 70 3f
       1.229023 0.9684153 0.80774736 0.94126594
000030 6e 89 55 3f c1 93 40 3f 2f fb 5f 3f 15 fd 84 3f
       0.83412826 0.75225455 0.8749265 1.0389735

decoder.1.bias f4 [16]
000000 d1 f0 ad be cb 42 9a bb a7 16 d5 3e d6 b5 1d bd
       -0.3397279 -0.0047076694 0.41618845 -0.03850349
000010 24 f5 15 3d 95 0c 55 bf 41 28 aa 3d b9 3c 80 3e
       0.036610737 -0.83222324 0.08308459 0.25046328
000020 38 70 9f be f7 b9 04 be c9 bd 82 3e 5a 21 4a bd
       -0.31140304 -0.12961565 0.2553542 -0.049348213
000030 db 06 3b be ff ea b7 be e6 0f 2a be 82 a2 99 bf
       -0.18264334 -0.35921475 -0.16607627 -1.2002718

decoder.1.running_mean f4 [16]
000000 64 24 d3 3e ca 23 b9 3e a9 8c aa 3b 3a cf 12 be
       0.412387 0.36160117 0.0052047563 -0.14336863
000010 a6 35 af 3e ef 96 6b be f4 b9 f2 be fe f5 c0 3e
       0.34220618 -0.23006795 -0.47407496 0.37687677
000020 95 7d dd 3d 1c 00 68 be 90 19 d8 bc 3e 6a b5 3e
       0.108149685 -0.22656292 -0.026379377 0.3543262
000030 0f da 23 3e ed bb 3f bd e5 b3 11 be d9 ae 8f 3e
       0.16001152 -0.04681008 -0.1422878 0.28063086

decoder.1.running_var f4 [16]
000000 52 39 b6 3d 89 4c 08 3d 3c ad 9e 3d 75 70 9e 3d
       0.08897652 0.033276115 0.077478856 0.07736293
000010 55 10 0d 3e 42 cf 36 3e 0e dc 6d 3d 45 5f 33 3d
       0.13775761 0.178525 0.05807119 0.043792028
000020 44 c2 74 3d 0c f5 e4 3d ce 87 7c 3d c5 76 86 3d
       0.05975558 0.111795515 0.06165295 0.06565622
000030 80 87 5f 3d 7c f7 0a 3d 52 46 60 3d 2b a3 b6 3e
       0.054572582 0.033927426 0.054754563 0.35671362

decoder.3.weight f4 [32, 16]
000000 70 73 98 bd 9a 6d 08 3e 55 09 6a 3d 77 6b 1d be
       -0.07443893 0.1332306 0.057137806 -0.15373026
000010 81 8d 08 bd b8 2a b3 3d 84 57 7b be 5d 07 82 3e
       -0.033338074 0.08748382 -0.24545103 0.25396243
000020 7e 70 10 3f 2c f4 ac 3d f4 9f 42 be 79 b9 15 be
       0.5642165 0.084450096 -0.1900633 -0.14621533
000030 32 58 86 be 6b 61 e1 3d 1f e1 07 bc d5 fa d7 bd
       -0.26239163 0.11004909 -0.008293419 -0.10545889
000040 fb 7a 09 3e 4f 7d 0b bd 72 a2 39 bd a4 f3 26 bc
       0.1342582 -0.03405505 -0.045320936 -0.010189924
000050 c1 c3 d1 3d 1d 1e bf 3d 1a ce 22 3d 7a 0e a8 3d
       0.10242415 0.093319155 0.039747335 0.08205886
000060 7d 96 6c 3b 41 1e 21 3c 57 66 58 3c f1 87 41 3d
       0.003610044 0.009833873 0.0132079935 0.047248784
000070 87 f7 3c bd d1 ee 8e bb cf e5 fd 3c fe 1d b9 3f
       -0.046134498 -0.004361965 0.03099337 1.4462278
000080 c3 6b 84 bc 6d de 8b 3d 7a 5e 5a 3e 5a 30 0f 3d
       -0.016164666 0.06829534 0.21325102 0.03495822
000090 14 2c 93 be dd 69 12 3e ab 3c 06 3e ae d9 c1 3e
       -0.28744566 0.14298196 0.1310908 0.3786139
0000a0 8f cc 39 3e 9c b4 ae be 95 08 23 bd 80 b3 b3 bd
       0.18144439 -0.3412217 -0.039803106 -0.08774471
0000b0 64 a9 09 3e b6 23 68 bd 54 18 37 3e fa 6e 51 be
       0.13443524 -0.05667468 0.17880374 -0.2045249
0000c0 a9 80 c8 3d 05 42 9d bd 56 09 84 3e 33 8c 4b 3e
       0.09790165 -0.07678608 0.25788373 0.198777
0000d0 72 08 94 bd cd db 2f be 33 e2 e4 bc 9f fb 32 3b
       -0.07228173 -0.17173691 -0.027939891 0.0027310622
0000e0 7f 69 1c bf fa a1 a5 3e b0 0f 17 3e a9 b7 59 3e
       -0.61098474 0.3235014 0.14752078 0.21261467
0000f0 4c fc 61 3d 2b 45 0c be dc bb ef bc c2 90 81 bd
       0.05517225 -0.1369826 -0.029264383 -0.063264385
000100 3e 0a 3b 3e 3d 7a c2 3d f5 ed 3f be 56 a9 10 bd
       0.18265626 0.09495971 -0.18743117 -0.03531774
000110 f2 a7 ca 3d 38 01 74 be f3 31 ce 3c c5 01 b2 3c
       0.09895314 -0.2382859 0.025170302 0.02172936
000120 52 d5 27 bf a2 30 dd bc b4 2f d0 bd fb 9a 0e 3e
       -0.65559876 -0.027000729 -0.10165349 0.13926308
000130 4d dc 5f bb 1b 90 11 b9 52 32 9b be 24 e4 29 be
       -0.003415841 -0.00013881961 -0.3031183 -0.16590935
000140 cc bb 90 3e bf 90 18 3d 6a c7 71 3d a9 e5 a7 bc
       0.28268278 0.037247416 0.059028067 -0.020495253
000150 03 b0 6b 3c 04 ce 70 3d 79 cf 68 3b 26 fa f5 3d
       0.014385226 0.05879022 0.0035524054 0.12010603
000160 69 d6 c8 bd a4 93 4c 3e e3 26 cd be 86 ae 85 3d
       -0.098065205 0.19978195 -0.4006873 0.06527428
000170 2f 10 35 3e 8a 3b d1 be b4 53 ba be 5f 52 c6 be
       0.17681955 -0.40865737 -0.36391985 -0.3873472
000180 e1 ef 90 be 90 db a2 3c 93 b2 59 3d d1 fc 1a bd
       -0.28308013 0.019880086 0.053148817 -0.03783876
000190 44 48 31 be d4 71 9d be 54 7c 83 3d e2 57 2a be
       -0.17312723 -0.30750906 0.06420198 -0.16635087
0001a0 5c 77 a2 3d a6 46 f0 bd 2d 19 3d 3e 4d 8a da 3d
       0.07932922 -0.11732225 0.18466635 0.1067091
0001b0 ed 93 bc bd fa c8 18 3e b1 96 ad 3e cc 63 1a bf
       -0.09207902 0.14920416 0.3390403 -0.6030853
0001c0 9e 78 c8 3c 1f eb 42 3e 7d 51 58 bd cc 02 63 3e
       0.024471577 0.19035004 -0.05281209 0.22169036
0001d0 6c 4e 36 be 84 13 02 bd 64 ac f3 be 74 3c 17 3e
       -0.17803353 -0.031756893 -0.4759246 0.14769155
0001e0 34 9b 85 bd 06 32 16 3e aa f6 78 be 35 3e 16 be
       -0.06523743 0.1466752 -0.24312845 -0.14672168
0001f0 9d 42 fe 3d 5e 61 51 3e f4 e4 d6 bd 5a 8f 3b 3e
       0.12415049 0.20447299 -0.10492888 0.18316403
000200 54 b2 90 3d 97 45 f0 3d b8 51 3b 3d 50 c9 5f 3d
       0.070652634 0.11732023 0.04573223 0.054635346
000210 23 d2 a7 3e b3 3b 26 bd c1 e5 c1 3e e2 f1 9e 3e
       0.3277751 -0.040584277 0.378706 0.31043917
000220 01 f1 7b be 1d 3d 21 3e 3a 23 1c be 0d ff b6 bd
       -0.24603654 0.15745969 -0.15247813 -0.08935366
000230 80 ce 1a be af 11 a5 3d ff c6 aa bd a7 68 b8 3d
       -0.15117836 0.080600135 -0.08338737 0.09004336
000240 8e 5f fd bd 40 d2 44 bc bb 00 1a be 7a 83 e8 bc
       -0.12371741 -0.012013018 -0.15039341 -0.028383005
000250 57 47 84 bb 77 c6 ca be bb 54 a2 be f5 1b c2 bd
       -0.0040368247 -0.39604542 -0.3170527 -0.09477989
000260 16 2b 7f 3e 67 2e 91 3c f8 ba 1f 3e 5f f3 8e be
       0.2491878 0.017722322 0.15598667 -0.27920052
000270 d8 4f 85 be 30 40 6b 3e da 12 34 3e 4e 2e 6d 3d
       -0.26037478 0.22973704 0.17585316 0.057905488
000280 7c ce 3c ba 9d 9b 98 3e 0b 71 20 be 19 77 da 3d
       -0.00072023994 0.29806224 -0.15668122 0.10667247
000290 31 2b b7 be 63 04 ac 3d 43 a9 01 be 22 24 18 be
       -0.3577514 0.08399274 -0.12662224 -0.14857534
0002a0 9b 39 0d 3e b0 d9 f6 be eb 6c 7d 3c c2 61 2a be
       0.13791506 -0.48212957 0.015467863 -0.16638854
0002b0 b6 a0 90 3c a0 91 f2 3c 90 0e 94 be 36 f6 c3 bc
       0.017654758 0.029610455 -0.2891736 -0.023921113
0002c0 73 00 97 bd f0 08 4f 3e c4 53 7c 3e 6f cf db bd
       -0.073731326 0.20218253 0.24641329 -0.10732924
0002d0 cf 9f 4a 3d ba 9c 41 3e a1 87 6e 3e 21 16 12 be
       0.04946881 0.18907443 0.23293926 -0.14266254
0002e0 ea 98 30 be 76 fc 12 3e 15 51 8e 3e 08 08 91 3e
       -0.17245832 0.14354119 0.27796236 0.2832644
0002f0 a1 81 83 3e 63 d4 91 3d b1 6e 30 3e 28 5b 8d 3e
       0.25684837 0.07120588 0.17229725 0.2760861
000300 ea 31 21 3e 42 b4 92 bd 1d ca 01 3e 3b b1 34 bc
       0.15741697 -0.07163288 0.12674756 -0.011028583
000310 22 e1 b7 be f9 9b 0f bf e8 d1 08 3e 6b 25 7e 3d
       -0.3591395 -0.5609737 0.13361323 0.062047403
000320 86 43 9a bc ce 12 f2 b9 e1 d8 76 3d b0 c0 a6 3c
       -0.018831026 -0.00046171847 0.060265426 0.020355552
000330 ad f8 b2 3d bc 7a fb 3d 49 9c 14 bd e8 cb 2d bf
       0.087388374 0.12279269 -0.036281858 -0.6788926
000340 b1 aa 0c be a9 99 a9 3c 6c a5 d4 bc 10 80 1d 3f
       -0.13736989 0.020703154 -0.025957786 0.6152353
000350 c8 76 db 3d 81 53 80 3d fa b3 48 be 2d 95 eb bd
       0.10716015 0.06265927 -0.19599906 -0.115030624
000360 32 16 52 3e 1f 95 e8 bd 28 59 24 bd 02 0a 36 be
       0.2051628 -0.113565676 -0.04012409 -0.17777255
000370 82 87 ef bd ba 8c 6d 3e 9d e3 24 3e 49 c9 90 bd
       -0.11695768 0.23198214 0.16102453 -0.07069642
000380 74 ee 4d 3d cb c9 49 be 25 e7 44 be 5d 1f 2c 3e
       0.050276235 -0.19705884 -0.192288 0.16808839
000390 0b 18 b3 3e 6d 2f 90 be 65 0b d2 3d cb 3d 92 3c
       0.3497928 -0.28161183 0.102560796 0.01785173
0003a0 ed d0 2d 3e 5e e8 1c bf e6 ab 93 3d 0d 43 ba 3e
       0.1697423 -0.61292064 0.072105214 0.3637928
0003b0 19 ad 8b bc 57 4f 8f bd d0 08 38 3d fc 21 13 be
       -0.017050313 -0.06997555 0.04493028 -0.14368433
0003c0 49 ee bc 3d 71 47 3e 3d 80 6d f2 bc 4f f4 2b bf
       0.09225137 0.04645485 -0.02959323 -0.6716966
0003d0 42 c2 39 bd ba 60 43 3e e1 43 84 3c 13 c6 fe 3d
       -0.045351274 0.19079867 0.016145648 0.124401234
0003e0 b5 97 c8 bd 88 eb 5b bd 24 14 d1 bd 93 2b ae bc
       -0.09794561 -0.053691417 -0.1020892 -0.021261012
0003f0 00 57 56 3e d5 c5 07 bd 54 10 56 be 1a 99 5a 3e
       0.20931625 -0.03314765 -0.20904666 0.21347466

decoder.3.bias f4 [32]
000000 31 f3 b5 3d 01 9c db bc ef b7 6c 3e 7a 89 bb bd
       0.08884276 -0.026807787 0.2311704 -0.09157081
000010 b9 0c 5f 3e 1e 82 0b be fa 2b 36 3e 66 04 fa bd
       0.21782197 -0.13623855 0.17790213 -0.1220787
000020 4b 59 6a 3e 6c 42 38 be c1 27 34 be 6b 5f 11 be
       0.22885625 -0.17994088 -0.1759329 -0.14196555
000030 ed b8 ed 3d fc 18 95 3e 0c 9f 92 be 22 b6 c4 3c
       0.116075374 0.29120624 -0.28636968 0.024012629
000040 5f 38 24 3e 38 10 05 be 7c f7 92 be ed f8 40 3b
       0.16037129 -0.12994468 -0.2870444 0.0029445246
000050 8c 3c 7f 3d 54 83 86 3e 45 35 64 3e 68 7b 3a 3e
       0.0623136 0.2627207 0.22285946 0.18211138
000060 c6 b5 6a 3e 98 31 b7 bc d5 22 81 3d 42 55 1f 3e
       0.22920904 -0.022362515 0.06305472 0.15559867
000070 c7 a8 07 be 3d 09 47 3e 81 a4 64 bd fc c9 79 3e
       -0.13247977 0.19437118 -0.055820946 0.24393457

decoder.4.weight f4 [32]
000000 1a 06 b0 3f 95 7b a0 3f f5 94 b4 3f 63 10 b6 3f
       1.3751862 1.2537714 1.4107958 1.4223751
000010 1f 75 97 3f 8e 98 8b 3f e0 e8 97 3f 1b 65 b4 3f
       1.1832618 1.0905931 1.1867943 1.4093355
000020 7a 79 af 3f 05 61 9a 3f 16 1a a5 3f e4 e8 56 3f
       1.3708947 1.2060858 1.2898586 0.8394911
000030 37 b5 d2 3f 0b ff 92 3f 5f 7d 9a 3f 88 7e 9c 3f
       1.6461552 1.1484083 1.206951 1.2226114
000040 70 9e 84 3f 70 ed c4 3f 2d c9 96 3f c8 1e b7 3f
       1.0360851 1.538496 1.1780144 1.4306269
000050 8b 47 89 3f 25 92 a1 3f 4c 59 ca 3f 01 d0 ab 3f
       1.0724958 1.2622725 1.5808501 1.3422853
000060 de 06 98 3f 98 71 ca 3f 54 4b bb 3f 3f 75 94 3f
       1.1877096 1.5815916 1.4632363 1.1598281
000070 7d 3c 93 3f e2 ae 92 3f 79 4d 9b 3f d4 28 b2 3f
       1.1502835 1.145962 1.2133018 1.391871

decoder.4.bias f4 [32]
000000 56 76 28 3e b4 75 2a 3e 57 5c bd 3e da 3b b9 be
       0.16451392 0.16646463 0.36984512 -0.36178476
000010 d8 5b 0f bf bf 72 da be 37 f2 88 be 61 d9 0e bf
       -0.5599952 -0.4266567 -0.26747295 -0.55800444
000020 f6 b3 ee 3e 81 ad 16 bf 77 6a 1f bf 22 16 dd bc
       0.46621674 -0.58858496 -0.6227183 -0.026988093
000030 a1 21 fc be 56 cb cf 3e b3 b1 90 3e 21 2e b5 be
       -0.49244407 0.4058482 0.28260574 -0.35386756
000040 49 3d 8c bb f3 30 15 bf 74 5e e7 be ee 79 73 3e
       -0.0042797667 -0.58277816 -0.4518925 0.23776981
000050 bc a2 d6 be cd 13 f7 be 70 a3 27 bf c8 77 62 be
       -0.4192103 -0.48257294 -0.6548376 -0.22116005
000060 51 5b 10 bf d2 e9 d8 3e 28 6c fa be e6 ea cc be
       -0.5638934 0.4236589 -0.48910642 -0.40022963
000070 3a 2e 0d bf ba c8 16 bf 91 0b 32 be ea 2a ba 3e
       -0.5514866 -0.58900034 -0.17387225 0.36360866

decoder.4.running_mean f4 [32]
000000 61 e2 bf 3d 98 20 2a be 28 a6 ff 3e 23 ad e8 3d
       0.0936935 -0.16613996 0.49931455 0.11361148
000010 24 e4 0a 3d 55 d3 01 be e5 d6 9e 3e 98 e6 bd be
       0.033908978 -0.12678273 0.31023327 -0.37089992
000020 64 fb 0b 3f 40 f6 d3 be a9 18 0a bf a7 98 81 3e
       0.54680467 -0.4139881 -0.5394388 0.25311777
000030 19 d5 9f 3e 98 d5 a2 3e f7 7c 31 be f6 f6 62 be
       0.31217268 0.31803584 -0.17332827 -0.2216452
000040 2e 1d 3c be a6 c0 9b be 07 77 fb be c1 ee 0e 3e
       -0.18370506 -0.30420417 -0.49114248 0.13958265
000050 06 cc 1e bd 0f 1e 8a 3d bb 96 a3 3e 33 e4 c4 3d
       -0.03876879 0.067440145 0.31950936 0.09613838
000060 6f 8e a7 3e ee 08 34 3e c0 07 38 3d 2c 39 c2 bd
       0.32725856 0.17581531 0.044929266 -0.09483561
000070 75 4e 4f be 14 04 4b 3c cd 22 07 3c 1c 06 d7 3d
       -0.20244773 0.012391109 0.008248043 0.10499212

decoder.4.running_var f4 [32]
000000 60 73 93 3e a6 59 0b 3f 3b 7a 75 3e 8d 8b b9 3e
       0.28798962 0.5443367 0.23972408 0.3623928
000010 fc 00 6b 3e c2 60 c7 3d 49 0f 7b 3e 15 bc a5 3e
       0.22949594 0.09735252 0.2451755 0.32370058
000020 93 57 80 3e d8 f3 3d 3e e2 b5 d3 3d 0d 45 4b 3e
       0.25066814 0.1855005 0.10337426 0.1985056
000030 d0 12 e6 3e 91 72 02 3e 0f 8f 98 3e ee 26 ed 3d
       0.44936228 0.12739016 0.29796645 0.11579691
000040 0b 3e 52 3e 2c df 48 3f f9 44 97 3e 44 91 2d 3e
       0.2053148 0.78465533 0.2954481 0.16949946
000050 61 3e 14 3e 27 9b 4c 3f d9 ab 33 3e be bb 3b 3e
       0.1447692 0.79924244 0.17546023 0.18333337
000060 bd 0b 16 3f 77 8a 30 3e 2d 71 e9 3e c3 49 b1 3e
       0.5861166 0.1724032 0.4559416 0.34626588
000070 07 a2 31 3e 7a ec cf 3d eb 70 43 3e 45 5b eb 3e
       0.17346965 0.10152526 0.19086044 0.4596807

decoder.6.weight f4 [6, 32]
000000 2a c4 af 3e b4 44 0d bf cb d5 9e be ad 07 e3 3d
       0.3432935 -0.5518296 -0.31022486 0.110854484
000010 62 51 a7 3e fc 26 7e be 0b 1e 03 be c0 f8 3e be
       0.32679278 -0.24819559 -0.12804429 -0.18649578
000020 47 69 20 bd 16 ea f6 be fd 05 3a be cf 75 b2 3e
       -0.0391629 -0.48225468 -0.18166347 0.34855506
000030 c0 63 ab bf 5f 15 77 3e 7e 8d 7f bd ec d0 18 3f
       -1.3389816 0.24129246 -0.062390797 0.5969379
000040 25 cb f5 bd 62 59 d5 be a4 25 d5 be 28 fb 38 3e
       -0.12001637 -0.41669756 -0.4163028 0.18064559
000050 b9 98 af 3e 18 1d 37 bf a1 86 6c 3d b9 f1 04 3f
       0.34296206 -0.7152877 0.05774558 0.5193134
000060 1f c1 70 be a5 92 ba bd 9d 09 a0 bf c0 ee f3 3e
       -0.2351117 -0.091100015 -1.2502934 0.4764309
000070 11 4b 61 bf 00 a8 f1 3e ca ca 31 3f a4 51 0f bf
       -0.8800517 0.47198486 0.69450057 -0.5598395
000080 9b dd 4e 3e c2 ab 29 3d 75 ce 4e be b7 2a 84 3e
       0.20201723 0.041423567 -0.20195945 0.2581384
000090 5c fd 7c bb c3 da 4a be c2 83 b9 be 94 bf 43 bf
       -0.0038603162 -0.19810013 -0.36233336 -0.764642
0000a0 bb 27 36 bf 92 12 ea 3e 76 0f 01 bf 24 47 79 3e
       -0.71154374 0.45717293 -0.50414217 0.24343544
0000b0 20 10 b5 3e b0 40 ce bd 9b 4d 0c bf 23 ba 69 bd
       0.35363865 -0.10070932 -0.54805917 -0.05706228
0000c0 56 a7 14 be 98 0d 87 3f 23 19 48 bf 33 94 96 be
       -0.14516959 1.0551023 -0.78163356 -0.29409942
0000d0 10 01 26 bf 30 58 11 be d1 f7 c4 be af 40 e0 3e
       -0.6484537 -0.14193797 -0.3847032 0.4379935
0000e0 6e 63 85 be c9 4f 47 3f 63 14 d1 3e e5 e3 c0 be
       -0.2605242 0.7785612 0.40835866 -0.3767387
0000f0 69 49 17 3e a0 ff 83 3e 48 2e 4d 3e 91 81 c5 3e
       0.14774098 0.25780964 0.20037186 0.38575414
000100 29 fb 16 bf b5 91 f6 3d c3 c4 bf be fd 7e 59 bf
       -0.5897699 0.1203951 -0.37454805 -0.84959394
000110 bf cf 80 bf 13 76 51 3e 62 66 fd 3e 3a 15 7a be
       -1.0063399 0.20455198 0.49492174 -0.2442216
000120 1a 89 2b 3e 7b fc 4a bf 0b 8d 35 bf ee 90 9a bd
       0.16751519 -0.79291505 -0.7091834 -0.075471744
000130 c9 0f 7b 3f 9c 64 dd 3e 03 3e 39 be 88 88 30 3e
       0.9807096 0.4324082 -0.18090062 0.17239583
000140 af 8d 8a 3e 3c 73 5a bf 23 e6 cd bd 56 95 18 3f
       0.2706122 -0.85332084 -0.10053661 0.5960287
000150 0d c4 0e 3e 00 7d 00 bf c0 4c 91 3f 90 45 c9 3e
       0.13941975 -0.50190735 1.1351547 0.39310884
000160 29 91 3d bf d3 13 bf be dd ca 13 3f 40 76 ed be
       -0.7404962 -0.37319812 0.5773142 -0.4637928
000170 5a a9 0b 3f f8 92 53 bf 4c 57 15 3e 5d d5 05 3f
       0.54555285 -0.8264613 0.14584082 0.5227869
000180 ac 64 02 3f e0 6a a0 bc b2 fc d5 3e 41 9b 3e 3f
       0.50934863 -0.019582212 0.41794354 0.7445565
000190 cc bd 4d 3f b4 27 37 bd 21 f1 88 be ae 11 2a 3f
       0.8036773 -0.0447156 -0.26746467 0.6643323
0001a0 de 19 bb 3e 4c 81 3a 3f ca bf 7a 3f 9e 29 41 be
       0.36543173 0.7285354 0.97948897 -0.18863532
0001b0 02 0d fc be 6f 88 fa be 6b d7 16 be 61 c2 94 be
       -0.49228674 -0.48932216 -0.14730613 -0.2905455
0001c0 38 44 ac be 67 0e 32 3f 85 27 1f 3f 71 c1 2a bf
       -0.33645797 0.69553226 0.62169677 -0.6670142
0001d0 b5 ea 9d be d8 3f 16 3f 2e 07 87 bf 30 7a b6 be
       -0.3084313 0.5869117 -1.0549066 -0.35640097
0001e0 d6 ae 4b 3f 6d 95 a6 3e 21 e9 b9 be 63 47 d9 3e
       0.79563653 0.32535878 -0.36310676 0.42437276
0001f0 66 93 cd be c7 b8 c8 3e bd f7 80 be e2 06 d8 be
       -0.4015152 0.39203474 -0.2518901 -0.4219275
000200 6f a4 e8 bc b4 08 3a be a7 03 0e 3f 4a 41 56 3e
       -0.02839872 -0.18167382 0.55474323 0.20923343
000210 3f e3 01 be a4 dd 3c bf 05 6a a9 be 85 0e 44 3f
       -0.12684344 -0.73775697 -0.330887 0.76584655
000220 d2 d8 b1 3e 88 36 6e 3e de cf 06 3e 6e bd 1f bd
       0.34735733 0.2326299 0.13165233 -0.038999014
000230 f7 56 d7 bd 31 9c a5 be 52 0b bf 3e e6 85 0b be
       -0.10514634 -0.32345727 0.37313324 -0.13625297
000240 1b 66 d0 be db 52 31 bd d8 a6 d7 3d 5c f5 9b 3c
       -0.407029 -0.043291908 0.1052987 0.019037895
000250 26 64 6a 3e d5 e4 86 3e be c9 2a be 03 3a 83 be
       0.22889766 0.2634646 -0.16678521 -0.25630197
000260 54 f6 cd 3e 8c d7 8c be fb cc b2 be d1 ad be be
       0.40226996 -0.275082 -0.34922013 -0.37241986
000270 68 97 18 be ef a7 b8 be 53 f4 09 3d ae a4 3e be
       -0.14901507 -0.36065623 0.03368027 -0.18617508
000280 9d 8a c9 3d dd 35 ac 3e 08 f5 93 3d 60 05 41 3d
       0.098408915 0.33634844 0.072244704 0.047124267
000290 a4 20 06 3e 2f 97 13 bd 58 52 b0 3d a1 e3 63 bc
       0.13098389 -0.03603285 0.08609456 -0.013909251
0002a0 55 b3 10 be 60 3f 82 bc a7 7b 09 3e a0 35 b1 bd
       -0.1413091 -0.01589936 0.13426076 -0.08652806
0002b0 67 2a 02 3f ef 09 27 be 8c 5e fd bd 2b d3 e1 be
       0.5084595 -0.16312383 -0.12371549 -0.4410642
0002c0 ee 96 88 bd 5c b8 85 3e 13 9d 29 3b 98 a2 08 be
       -0.066694126 0.26117218 0.0025880977 -0.13343275
0002d0 11 f3 1d 3c 4c d6 92 3e 61 5c 0c be 12 6b 78 be
       0.009640471 0.2867912 -0.13707115 -0.24259594
0002e0 4c 79 82 3d cc fa e7 3b 3a 24 13 3f ad 01 eb bd
       0.06370792 0.007079458 0.5747715 -0.11474929
0002f0 a8 f1 b3 3e aa 5a 62 bc 12 59 32 be f1 68 06 3e
       0.35145307 -0.013815561 -0.1741679 0.1312597

decoder.6.bias f4 [6]
000000 f5 e2 ab 3e c8 36 2e 3e 3a 4c 95 3d 0d 91 42 be
       0.33571592 0.17013085 0.0728993 -0.19000645
000010 cb 1c 2f bd 20 99 94 bd
       -0.04275207 -0.07255769
