anomaly_model/746_model.pt (torch, 18238 bytes, 28 tensors)

encoder.0.weight f4 [32, 6]
0	0xbed3aef1	-0.41344407
1	0xbda2fd76	-0.079585
2	0x3e44a3ed	0.19203158
3	0x3ea39bab	0.31954703
4	0x3ea12a0d	0.31477395
5	0x3deaa872	0.1145791
6	0xbd06f5be	-0.0329492
7	0xbe829aa4	-0.25508606
8	0x3eebdd98	0.460675
9	0x3e744e73	0.23858051
10	0x3f015900	0.5052643
11	0x3e81ba4a	0.2533744
12	0x3e73ff7a	0.23827925
13	0x3e213bca	0.15745464
14	0x3dd181a2	0.102298036
15	0x3e0e6788	0.13906682
16	0x3f1b692d	0.6070736
17	0xbc640ad5	-0.013918598
18	0x3e70b1dc	0.23505348
19	0xbdea522d	-0.11441455
20	0x3e869866	0.26288146
21	0xbdbf65c9	-0.09345586
22	0xbe1e1bc4	-0.15440279
23	0x3ed58d14	0.41709197
24	0x3de8fddd	0.113765456
25	0xbeda9a65	-0.4269592
26	0xbe64dc88	-0.22349751
27	0x3ed92027	0.42407343
28	0x3d098319	0.03357229
29	0xbdf486cc	-0.11939773
30	0x3def099b	0.11671754
31	0x3dca297c	0.09871194
32	0xbef7a6c3	-0.48369417
33	0x3da29b38	0.07939762
34	0xbd8b88b1	-0.06813181
35	0x3edef299	0.43544462
36	0x3e788eb9	0.24273194
37	0x3dff3933	0.12462082
38	0xbed3949c	-0.41324317
39	0x3c22d0a4	0.009937439
40	0xbb47e89c	-0.0030503636
41	0xbe474685	-0.19460495
42	0xbcd6a148	-0.026199952
43	0xbee1160a	-0.43962127
44	0xbd6bc9ba	-0.05756543
45	0x3ee49d8f	0.44651458
46	0xbe7a74d5	-0.2445863
47	0x3e73fedf	0.23827694
48	0xbea507ef	-0.32232615
49	0x3cb103b0	0.021608204
50	0x3ec34e6e	0.38145775
51	0xbe00c61a	-0.1257557
52	0xbe8ebc79	-0.27878168
53	0x3d88f757	0.06687801
54	0x3e1e68db	0.15469687
55	0xbe87435c	-0.2641858
56	0x3cfbd32c	0.030740343
57	0x3e9c2b3e	0.3050174
58	0xbe545ba9	-0.2073809
59	0x3ed76ee0	0.42076778
60	0x3dadfa1b	0.084949695
61	0xbe09fbb5	-0.13474925
62	0xbe8dc2dc	-0.27687728
63	0x3e7fc6f9	0.24978246
64	0x3e67f164	0.22650677
65	0xbf1e66fd	-0.618759
66	0x3ed2c63c	0.41166866
67	0x3ec0ad7b	0.37632355
68	0xbea9d1ea	-0.33167964
69	0x3da64214	0.08118072
70	0xbe73d56a	-0.2381188
71	0x3e0a788f	0.13522552
72	0xbe9f1e37	-0.3107774
73	0xbe599c88	-0.21251118
74	0x3de4df73	0.11175432
75	0xbdc75378	-0.09732717
76	0xbe860cf9	-0.26181772
77	0xbf2ecf13	-0.6828472
78	0xbc972bc0	-0.018453479
79	0xbe9f3d63	-0.31101522
80	0xbef01727	-0.46892664
81	0xbe27224d	-0.16321678
82	0x3ee5eaaa	0.44905597
83	0xbed6184c	-0.41815412
84	0xbc1ef393	-0.009701627
85	0x3ed7083b	0.41998467
86	0x3e390411	0.18067957
87	0xbf1948eb	-0.5987689
88	0x3eb2b64a	0.349047
89	0x3e3a5b43	0.18198876
90	0xbe9380df	-0.28809258
91	0xbeb28ed0	-0.34874582
92	0xbeaba0c1	-0.33521083
93	0xbed0d15b	-0.40784726
94	0x3e85001f	0.25976655
95	0x3da0285f	0.078202
96	0x3e1d0acd	0.15336151
97	0x3ecf530e	0.40493053
98	0xbc59cdea	-0.013293723
99	0x3df12af7	0.11775773
100	0xbc964d90	-0.018347532
101	0x3e9ffc55	0.31247202
102	0xbea4ea38	-0.32209945
103	0xbea23fd7	-0.3168933
104	0xbe24c671	-0.16091324
105	0xbec223a2	-0.3791781
106	0xbe1db842	-0.1540232
107	0xbd47f39e	-0.048816316
108	0xbe895173	-0.26819953
109	0xbe00a75d	-0.12563844
110	0xbdcf7d85	-0.10131363
111	0xbd27df76	-0.040984593
112	0x3d40c0a8	0.04705873
113	0x3f03b379	0.5144573
114	0x3f00d2c4	0.503216
115	0x3e9a3ccf	0.30124518
116	0x3e366b65	0.17814405
117	0xbe83839c	-0.25686347
118	0x3e2444b4	0.16041833
119	0x3e5cc968	0.21561205
120	0x3ed11384	0.40835202
121	0x3ead939d	0.33901682
122	0xbe7ed34e	-0.24885294
123	0x3d00b5ab	0.031423252
124	0x3e0fdee7	0.14049874
125	0xbec70d2b	-0.38877234
126	0x3e612e10	0.21990228
127	0xbedd68b3	-0.43243942
128	0xbda491cd	-0.08035622
129	0x3ea3859c	0.31937873
130	0x3de2205f	0.110413305
131	0x3e2dd1af	0.16974519
132	0xbe150a05	-0.14554603
133	0xbdded10d	-0.10879717
134	0x3e636de0	0.22209883
135	0xbdf20f24	-0.11819294
136	0x3f1b9d3e	0.6078681
137	0x3e9cefb5	0.30651632
138	0xbed89b78	-0.42306113
139	0xbe887918	-0.26654887
140	0x3ec8eb97	0.3924224
141	0xbe4dc2c0	-0.20093822
142	0x3e1964c6	0.14979848
143	0x3eaa82f7	0.33303043
144	0xbc50703c	-0.012722071
145	0xbe575ef6	-0.21032318
146	0xbeddaaf8	-0.432945
147	0xbb26c07d	-0.0025444322
148	0xbec7939e	-0.3897981
149	0x3e94cce9	0.29062584
150	0xbd919127	-0.07107764
151	0xbe226032	-0.15857008
152	0x3deaa366	0.11456947
153	0x3d99ad87	0.07503801
154	0xbd843a7f	-0.0645647
155	0x3c8efb27	0.017453743
156	0x3e071330	0.13190913
157	0xbe83f342	-0.25771528
158	0x3e843d00	0.2582779
159	0x3ebc6a5c	0.36799896
160	0xbcfac3ee	-0.030611005
161	0xbc872119	-0.016495274
162	0x3ea6d4b3	0.32584152
163	0xbee0b903	-0.43891153
164	0x3e9b5324	0.3033687
165	0xbe5f0f72	-0.21783236
166	0xbe51f417	-0.20503269
167	0xbc917c1e	-0.017759379
168	0x3dd5b279	0.104344316
169	0x3e189ad3	0.14902811
170	0x3f247680	0.64243317
171	0x3e7d5fb0	0.24743533
172	0xbe5b0291	-0.21387698
173	0xbca8057d	-0.02051043
174	0x3ef98aae	0.48738617
175	0x3e19cbf5	0.1501921
176	0x3e03522f	0.1282432
177	0xbe2b4c88	-0.16728413
178	0xbe232259	-0.15931071
179	0x3d00bcc3	0.031430017
180	0x3e61a613	0.22036009
181	0xbeddd46b	-0.43326125
182	0xbe3cb9c5	-0.1843024
183	0x3ba9ad42	0.0051781246
184	0x3ae6f3ad	0.0017620228
185	0x3e284fc5	0.1643668
186	0x3eda0c16	0.42587346
187	0x3d57f19e	0.05272066
188	0x3e5f8bb7	0.2183064
189	0x3e99810f	0.29981276
190	0x3d526533	0.051366042
191	0xbeff1bfe	-0.49826044

encoder.0.bias f4 [32]
0	0xbe97f988	-0.29682565
1	0xbcd94d92	-0.026526246
2	0xbe3274df	-0.17427395
3	0x3edb5fe6	0.42846602
4	0x3e80ec7b	0.2518042
5	0x3d0a00de	0.033692233
6	0x3ee77e6f	0.4521365
7	0x3e2e42b4	0.17017633
8	0x3d7b8332	0.061404414
9	0xbd3d91dd	-0.046281684
10	0xbd86f88a	-0.06590374
11	0x3ea43d8c	0.32078207
12	0xbda45c8c	-0.080254644
13	0x3ec53b14	0.38521636
14	0xbc90ce6e	-0.017676558
15	0xbe8ca895	-0.27472368
16	0x3e952457	0.29129288
17	0x3e3ccecc	0.18438262
18	0xbd5342ad	-0.05157726
19	0x3eb49889	0.35272625
20	0x3e525770	0.20541167
21	0x3e5b88ea	0.21438947
22	0x3ee9f6a4	0.45695984
23	0xbc0ba927	-0.008524216
24	0x3d2e4bde	0.04255282
25	0x3ec45288	0.38344216
26	0x3c414207	0.011795527
27	0x3dde734d	0.10861836
28	0xbe9cded6	-0.3063876
29	0x3f06f358	0.52715063
30	0xbe2a2961	-0.16617347
31	0x3e823afc	0.25435627

encoder.1.weight f4 [32]
0	0x3f48554b	0.78255147
1	0x3f8262b8	1.0186377
2	0x3f806aa4	1.0032544
3	0x3f83d7ec	1.0300269
4	0x3f857b81	1.0428315
5	0x3f888448	1.0665369
6	0x3f79a1d8	0.9751258
7	0x3f81036b	1.0079168
8	0x3f835a2a	1.0261891
9	0x3f750465	0.9570983
10	0x3f91c079	1.1386863
11	0x3f4c8061	0.7988339
12	0x3f6f2b49	0.9342542
13	0x3f9659a9	1.1746112
14	0x3f755441	0.95831686
15	0x3f60d135	0.87819225
16	0x3f604d72	0.8761817
17	0x3f512c20	0.81707954
18	0x3f6b5d9e	0.91939723
19	0x3f7911b3	0.9729263
20	0x3f7e1c3d	0.9926184
21	0x3f827dc4	1.0194631
22	0x3f49d976	0.78847444
23	0x3f6f777a	0.9354168
24	0x3f8a812d	1.0820671
25	0x3f7e8765	0.99425346
26	0x3f7edd90	0.9955683
27	0x3f65e5a0	0.89803505
28	0x3f819e06	1.012635
29	0x3f7b7f5c	0.9824121
30	0x3f65d7a1	0.8978215
31	0x3f858dba	1.0433877

encoder.1.bias f4 [32]
0	0xbdc5cede	-0.096585974
1	0x3d256a86	0.04038479
2	0xbeb21e3f	-0.347887
3	0xbe9bcc6a	-0.30429393
4	0x3eadd817	0.33953926
5	0x3f3653f9	0.7122188
6	0xbe56cfea	-0.2097775
7	0x3e942a6f	0.28938624
8	0xbe58f6a1	-0.21187831
9	0x3e639507	0.22224818
10	0x3ea32336	0.318628
11	0xbd61218c	-0.054963633
12	0x3e01794c	0.12643927
13	0xbd889561	-0.06669117
14	0x3e9e1aa6	0.30879706
15	0xbd4a7764	-0.049430266
16	0x3ebfe20e	0.37477154
17	0xbe97253f	-0.29520604
18	0xbe5db988	-0.21652806
19	0xbf386cc0	-0.7204094
20	0x3d30acae	0.04313343
21	0x3cd4f072	0.02599356
22	0xbc0c8e83	-0.008578899
23	0xbed5ca14	-0.41755736
24	0x3e6557a5	0.22396715
25	0x3e173f43	0.14770226
26	0xbe06128b	-0.13093011
27	0xbded264e	-0.11579572
28	0xbe6fcff2	-0.23419169
29	0xbf134f7e	-0.5754317
30	0xbe98097e	-0.29694742
31	0xbf0a5ec1	-0.54050833

encoder.1.running_mean f4 [32]
0	0xbe006202	-0.12537387
1	0x3ccffcac	0.025389038
2	0x3e2cd10b	0.16876619
3	0xbe88087f	-0.26568982
4	0xbe3d33ef	-0.18476842
5	0xbf926562	-1.143719
6	0x3eba120c	0.36341894
7	0xbf5e3188	-0.8679433
8	0x3e996c46	0.2996542
9	0xbf9d789d	-1.2302433
10	0x3f1e7d22	0.6190969
11	0xbef24b4b	-0.4732307
12	0x3f89980d	1.0749527
13	0x3f88a99c	1.0676761
14	0x3f20364e	0.6258286
15	0xbdecaa6a	-0.115559414
16	0xbe8b790e	-0.27240795
17	0x3ec54037	0.38525555
18	0xbf49f783	-0.788933
19	0x3e75c916	0.2400249
20	0x3f1a037a	0.60161555
21	0xbf05f00f	-0.52319425
22	0x3f330543	0.69929904
23	0x3e121514	0.14265853
24	0xbf88a029	-1.0673877
25	0x3eacabc4	0.33724797
26	0xbe5e16ba	-0.21688357
27	0x3d135a17	0.03597459
28	0xbe18b5f6	-0.14913163
29	0x3eb033c9	0.3441451
30	0xbf5371c8	-0.8259549
31	0x3f4f61ab	0.81008404

encoder.1.running_var f4 [32]
0	0x3bb849bc	0.005624024
1	0x3c0cf769	0.008603909
2	0x3b6c0d64	0.0036018724
3	0x3b4c0ef9	0.0031136854
4	0x3c9fc60d	0.019503618
5	0x3b412983	0.0029474206
6	0x3b9d80a8	0.004806597
7	0x3ca58bc4	0.020208247
8	0x3b8dff7c	0.0043334346
9	0x3c0a5b2f	0.008444591
10	0x3b59e011	0.0033245126
11	0x3c9e8583	0.019350773
12	0x3bef9d42	0.0073124478
13	0x3c3c7444	0.011502329
14	0x3c963d23	0.0183397
15	0x3c5c5424	0.013447795
16	0x3c8bb115	0.017052213
17	0x3c3e2548	0.011605568
18	0x3b4ddc83	0.0031411953
19	0x3c6703a3	0.014099988
20	0x3c866658	0.016406223
21	0x3cad5b1f	0.021161614
22	0x3b0c778c	0.002143356
23	0x3c567cdf	0.013091295
24	0x3ba77ad5	0.0051110783
25	0x3b348878	0.0027547162
26	0x3c05b50d	0.008160842
27	0x3cc1ed10	0.02367261
28	0x3b8cd53a	0.0042978795
29	0x3be95ffc	0.007122038
30	0x3cacb61e	0.021082934
31	0x3b827730	0.0039814934

encoder.3.weight f4 [16, 32]
0	0x3dea4151	0.11438239
1	0x3e40e17e	0.18836018
2	0x3dbfadd0	0.09359324
3	0x3cf75108	0.030190006
4	0x3e8d9318	0.27651286
5	0xbe1485b5	-0.1450413
6	0xbea2daf0	-0.3180766
7	0xbe34eae4	-0.17667729
8	0xbd837725	-0.064192094
9	0xbd336047	-0.04379299
10	0x3dbcb497	0.09214132
11	0xbe2a41f9	-0.16626729
12	0xbe17a7d2	-0.14810112
13	0xbdb511a5	-0.08841256
14	0xbe5401e9	-0.20703854
15	0xbd7cabcb	-0.061687272
16	0x3cc4ed83	0.024039036
17	0x3dd3bbc2	0.10338546
18	0xbe82d759	-0.25554922
19	0xbea613f5	-0.324371
20	0xbd0b9c5b	-0.03408466
21	0x3bc56f28	0.0060252137
22	0xbe74c783	-0.23904233
23	0xbdd50744	-0.104017764
24	0x3d56440b	0.052310985
25	0x3ce088ce	0.027408984
26	0x3e02de1a	0.12780038
27	0xbe31b29b	-0.17353289
28	0xbe3986ce	-0.1811783
29	0xbd4acfa0	-0.049514413
30	0x3e0e6815	0.13906892
31	0x3d7bed24	0.06150545
32	0x3e1e5093	0.15460424
33	0xbdef800d	-0.116943456
34	0xbd83034c	-0.06397113
35	0x3d83e2cd	0.06439743
36	0xbdac2eb2	-0.08407344
37	0x3e03c3fa	0.12867728
38	0xbe4abf1f	-0.1979947
39	0xbecc6669	-0.39921883
40	0x3b8fa978	0.004384216
41	0xbdf6a292	-0.120427266
42	0x3e46e483	0.19423108
43	0x3de3254a	0.11091097
44	0xbe3d9f0e	-0.18517706
45	0xbd69038a	-0.05688814
46	0x3e634d33	0.22197418
47	0xbce4e758	-0.027942345
48	0x3d9dd7e4	0.077071935
49	0x3e6ed8b5	0.23324855
50	0x3eac8347	0.33693907
51	0x3d120927	0.03565326
52	0xbe4c869c	-0.19973224
53	0xbda5193c	-0.08061454
54	0x3e013605	0.12618263
55	0x3e602955	0.21890767
56	0xbe02c2e6	-0.1276966
57	0xbe05a2b4	-0.13050348
58	0xbe441bf5	-0.1915129
59	0x3e2a2a1b	0.16617624
60	0x3d4d806c	0.0501713
61	0xbde11429	-0.10990173
62	0xbe71338d	-0.23554821
63	0xbe1d7833	-0.15377884
64	0x3da9c9f9	0.08290476
65	0x3e0be8a8	0.1366297
66	0x3db2cc00	0.08730316
67	0xbe16b1f7	-0.14716326
68	0xbe12bcd2	-0.14329842
69	0xbd132c6c	-0.035931036
70	0xbd78a209	-0.060701404
71	0x3d7a2293	0.06106813
72	0xbe95c66a	-0.2925294
73	0xbd33c6a8	-0.043890625
74	0xbedc9449	-0.43081883
75	0xbe85ab82	-0.26107413
76	0x3c6ffa27	0.014647043
77	0xbd469f20	-0.048491597
78	0xbe8ee041	-0.27905467
79	0xbe2a9dd7	-0.16661774
80	0xbe679d8d	-0.22618695
81	0x3dbb6c4c	0.09151515
82	0xbe55ed5b	-0.20891325
83	0x3df432d6	0.11923759
84	0x3d2c8b79	0.0421252
85	0xbe087294	-0.13324958
86	0x3e302366	0.17201003
87	0xbd51d6eb	-0.051230352
88	0xbe354e75	-0.1770571
89	0x3d8c375f	0.06846499
90	0x3db9dff1	0.090759166
91	0x3be73e2a	0.007056971
92	0x3df53f3b	0.11974951
93	0xbe219ee1	-0.15783264
94	0xbd976e19	-0.07394046
95	0x3d4eed6c	0.050519392
96	0xbef5c372	-0.48000675
97	0xbe590458	-0.21193063
98	0x3ccc25ab	0.024920305
99	0xbd8e9543	-0.06962063
100	0x3def56d9	0.11686487
101	0x3e4e014a	0.20117679
102	0x3e22626c	0.15857857
103	0xbe938d81	-0.28818896
104	0x3dc86994	0.097857624
105	0x3c48e0f1	0.012260661
106	0x3e568787	0.20950137
107	0xbd48c725	-0.049018044
108	0x3c938216	0.018006366
109	0x3df034da	0.11728831
110	0x3cfd45ff	0.030917166
111	0xbdb008a2	-0.085953966
112	0xbe95a4c0	-0.29227257
113	0xbd978601	-0.07398606
114	0xbe85d559	-0.26139334
115	0xbe4818f9	-0.19540776
116	0x3e46666f	0.19375013
117	0xbe3540d3	-0.1770051
118	0xbeb2b168	-0.34900975
119	0xbe77c0e3	-0.24194674
120	0x3e484286	0.19556627
121	0x3c819257	0.01581685
122	0x3db4b7f4	0.08824149
123	0x3d08e2b2	0.03341932
124	0xbe3f1ed2	-0.18664101
125	0x3d9b85e9	0.07593901
126	0xbda011b5	-0.07815877
127	0xbb06bf61	-0.0020560848
128	0xbbb348fc	-0.005471347
129	0x3e0c2416	0.1368564
130	0xbd6346ae	-0.055487327
131	0x3ddc44a3	0.10755279
132	0xbe44cc31	-0.19218518
133	0x3e093f6b	0.13403098
134	0x3e3a9b76	0.18223366
135	0x3e861bb9	0.26193026
136	0x3e5da458	0.21644723
137	0x3e11eeb9	0.14251222
138	0xbdadc2d3	-0.084844254
139	0xbc6a4192	-0.01429786
140	0x3d96cc9b	0.07363244
141	0x3e87df21	0.2653742
142	0xbe92499d	-0.28571787
143	0xbe26b97a	-0.16281691
144	0xbd8b1a1a	-0.06792088
145	0xbe26e4c6	-0.16298208
146	0x3bcb91b5	0.006212438
147	0x3d4d334a	0.05009774
148	0xbe343231	-0.17597272
149	0x3d1369cf	0.03598958
150	0xbd885730	-0.06657255
151	0x3e597db2	0.21239355
152	0xbe8f650b	-0.28006777
153	0x3d6b8a57	0.057504978
154	0x3e5d2872	0.2159746
155	0xbd186ae4	-0.037211314
156	0xbe8bf0c5	-0.2733213
157	0x3e333193	0.1749938
158	0x3d563c82	0.0523038
159	0x3ddb0482	0.10694219
160	0xbd31fe59	-0.043455455
161	0x3e6c57cf	0.23080371
162	0x3de4f620	0.11179757
163	0xbdd751de	-0.10513662
164	0xbe707103	-0.2348061
165	0x3dffe9b2	0.12495746
166	0xbd9116d4	-0.07084432
167	0xbdb757b7	-0.08952277
168	0xbc93d8d0	-0.01804772
169	0x3bc0b876	0.0058813645
170	0xbe6682a0	-0.22510767
171	0x3e0ac43c	0.1355142
172	0xbdb8e0ef	-0.09027278
173	0xbdd80854	-0.105484635
174	0x3dc751b4	0.097323805
175	0xbdd3cb35	-0.10341493
176	0xbe4010c4	-0.18756396
177	0xbcd76c33	-0.02629671
178	0x3d9652d2	0.073400155
179	0x3da42019	0.08013935
180	0xbe3545b1	-0.17702366
181	0x3d020fe4	0.031753436
182	0xbd52d886	-0.051476024
183	0x3d5c2e92	0.05375535
184	0xbe62885b	-0.22122328
185	0x3e1742fd	0.14771648
186	0x3e34ccb1	0.17656209
187	0xbecd4639	-0.40092638
188	0xbd97b7b8	-0.074080884
189	0x3d8f831e	0.070074305
190	0xbe4aa665	-0.19790037
191	0x3ea58153	0.3232523
192	0xbd433f9c	-0.047668085
193	0x3bd922cc	0.0066264626
194	0xbe82a812	-0.25518852
195	0x3e29f6e3	0.16598086
196	0xbe4029b9	-0.18765916
197	0x3dcaf157	0.09909313
198	0x3d0d9b43	0.034571897
199	0xbe69029f	-0.22754906
200	0xbe412162	-0.18860391
201	0xbe1f9c6d	-0.15587015
202	0xbe2a48ff	-0.16629408
203	0x3db128cf	0.08650362
204	0xbeaa5dce	-0.33274692
205	0xbc1c53ce	-0.009541465
206	0x3c6db053	0.014507371
207	0xbd8a9cc0	-0.06768179
208	0xbd18fef5	-0.03735252
209	0xbdb9adc7	-0.090663485
210	0x3e78c27c	0.2429294
211	0xbde1a357	-0.11017483
212	0x3e8e1c88	0.27756143
213	0xbe1f3a8e	-0.1554968
214	0x3e290276	0.16504845
215	0xbd15cf37	-0.03657457
216	0xbda1b47a	-0.07895751
217	0x3cea74b8	0.028620109
218	0xbead2899	-0.33820036
219	0x3c461f60	0.012092441
220	0xbd86c55f	-0.06580614
221	0x3ddc8d82	0.10769178
222	0x3daa6226	0.083195016
223	0x3eb94b45	0.3619024
224	0x3b94466a	0.0045249956
225	0x3e10ab1c	0.14127773
226	0x3dc7d02a	0.09756501
227	0x3d1f24c3	0.038853418
228	0x3dc0abd7	0.09407776
229	0x3e496eb8	0.19671142
230	0x3e4d1f35	0.20031436
231	0xbcb3da01	-0.021954538
232	0xbe314a6d	-0.17313547
233	0xbd14bc2a	-0.03631226
234	0xbeb88976	-0.36042374
235	0xbe711a70	-0.23545241
236	0xbe1c25fe	-0.15248868
237	0x3d8e2e69	0.06942446
238	0xbe0a0806	-0.13479623
239	0xbd6a94a3	-0.057270657
240	0xbd989894	-0.07450977
241	0xbde6c476	-0.11267941
242	0x3e099b7e	0.13438222
243	0x3e35ceae	0.17754623
244	0xbe09274a	-0.13393894
245	0xbea69399	-0.32534483
246	0x3e48a8c3	0.19595627
247	0x3d867436	0.06565134
248	0xbe631531	-0.22176053
249	0x3d9025d0	0.07038462
250	0xbe4316ef	-0.19051717
251	0xbe3be6ec	-0.18349808
252	0xbdc5df75	-0.09661762
253	0xbd0c34ba	-0.03422997
254	0xbe93edd0	-0.28892374
255	0xbc5f304a	-0.013622353

encoder.3.bias f4 [16]
0	0xbdd52c4d	-0.1040884
1	0xbdc7cd20	-0.09755921
2	0x3dd13608	0.10215384
3	0xbda44190	-0.080203176
4	0x3d7b8f6f	0.061416086
5	0x3e67901f	0.22613572
6	0xbd0fcafa	-0.035105683
7	0x3d8b40c4	0.067994624
8	0x3d218023	0.03942884
9	0xbe5c69f7	-0.21524797
10	0x3e5b4962	0.21414712
11	0x3e598134	0.21240693
12	0x3d81de2a	0.063412026
13	0xbc67bee1	-0.01414463
14	0x3d6b20ff	0.057404514
15	0xbc7ac0c7	-0.015304751

encoder.4.weight f4 [16]
0	0x3f704876	0.93860567
1	0x3f65f929	0.89833313
2	0x3f7ec7af	0.99523443
3	0x3f8676e3	1.0505031
4	0x3f723939	0.94618565
5	0x3f4c8ce4	0.7990248
6	0x3f71dede	0.94480693
7	0x3f71a256	0.9438833
8	0x3f6e0c57	0.9298758
9	0x3f9070ee	1.1284463
10	0x3f827231	1.0191098
11	0x3f775a69	0.9662233
12	0x3f3c30f0	0.7351217
13	0x3f5e018a	0.867211
14	0x3f8486e9	1.0353671
15	0x3f7efb5b	0.9960229

encoder.4.bias f4 [16]
0	0x3e1c99ba	0.15293017
1	0xbd4a31bd	-0.04936384
2	0x3edb4e82	0.42833334
3	0x3cbac563	0.0227992
4	0x3e440330	0.19141841
5	0xbf11924a	-0.56863844
6	0x3cea681d	0.028614098
7	0x3eaaf6b7	0.33391353
8	0x3e0a3d46	0.13499936
9	0xbf2a8e69	-0.6662355
10	0xbeec6c05	-0.46176162
11	0xbefa6a7c	-0.48909366
12	0xbe936d72	-0.28794438
13	0x3c2d798e	0.010588063
14	0x3e51e158	0.20496118
15	0xbef17e69	-0.47166756

encoder.4.running_mean f4 [16]
0	0xbedcf954	-0.43158972
1	0xbe8d29d6	-0.2757098
2	0xbf3270ea	-0.69703543
3	0xbe34c3f0	-0.17652869
4	0x3da8248c	0.08210096
5	0xbe4bec7e	-0.19914433
6	0xbefd4207	-0.49464437
7	0xbed783b6	-0.42092675
8	0xbe73ffb1	-0.23828007
9	0xbe32921a	-0.17438546
10	0x3ed2cf94	0.41173995
11	0x3f290033	0.6601593
12	0xbf31eab6	-0.69498765
13	0xbd75440a	-0.05987934
14	0xbd6535d4	-0.055959538
15	0x3ed1ba8f	0.40962645

encoder.4.running_var f4 [16]
0	0x3e21ce64	0.15801388
1	0x3f0872c0	0.53300095
2	0x3f477e2e	0.7792691
3	0x3faf2ee5	1.3686186
4	0x3eb1c293	0.3471876
5	0x3ec97df6	0.39353913
6	0x3eef2ed3	0.46715412
7	0x3e6d147c	0.23152345
8	0x3e7ed117	0.24884449
9	0x3e4752b8	0.19465148
10	0x3e424737	0.18972479
11	0x3e938eb0	0.288198
12	0x3f09553b	0.53645676
13	0x3e5a7e3b	0.21337216
14	0x3f15eef6	0.5856775
15	0x3eb72afe	0.35774988

encoder.6.weight f4 [4, 16]
0	0x3db8355e	0.08994554
1	0xbdc76a2a	-0.09737046
2	0x3e8849af	0.26618716
3	0x3ead3ef8	0.33837104
4	0x3e453048	0.19256699
5	0x3e41edac	0.18938321
6	0xbe994151	-0.29932645
7	0x3e159207	0.14606486
8	0x3e2f93bf	0.17146204
9	0x3f09ab58	0.53777075
10	0x3ea34f8b	0.31896624
11	0x3e246e6d	0.16057749
12	0xbe1f0cc0	-0.15532207
13	0x3da07fe2	0.07836892
14	0x3e7f9faa	0.24963251
15	0x3c04e65e	0.008111564
16	0xbc4412b5	-0.011967351
17	0xbe4fcd30	-0.20293117
18	0xbdaf5c20	-0.08562493
19	0x3e072492	0.13197544
20	0x3e592144	0.21204096
21	0xbe41d631	-0.18929364
22	0xbe22cf0c	-0.15899295
23	0x3e5589d9	0.20853366
24	0x3d910fe5	0.0708311
25	0x3e96fab1	0.29488137
26	0xbe42c58f	-0.19020675
27	0xbe9d5996	-0.3073241
28	0xbdf3e28e	-0.11908446
29	0xbdad4a5b	-0.08461448
30	0x3e07ee16	0.13274416
31	0xbeda95a9	-0.42692307
32	0x3eb60c74	0.35556376
33	0x3db18b95	0.08669201
34	0xbe4ebd9a	-0.20189515
35	0x3e86b136	0.26307076
36	0xbe134a89	-0.14383902
37	0x3e66ff8a	0.22558418
38	0xbda528f4	-0.08064452
39	0xbdfe45df	-0.124156706
40	0xbdbb0c3b	-0.09133192
41	0xbd1a2e4a	-0.0376418
42	0xbdf1cc07	-0.11806493
43	0x3e39494e	0.1809437
44	0x3ae82e66	0.0017714023
45	0xbea4fb72	-0.32223088
46	0x3e2c0623	0.16799216
47	0x3e76835e	0.2407355
48	0x3c6a8a25	0.014315163
49	0xbe32b01e	-0.17449996
50	0xbda4c299	-0.08044929
51	0x3ccffc68	0.025388911
52	0x3e37bf1e	0.17943999
53	0xbe18b01b	-0.14910929
54	0xbe291845	-0.16513164
55	0x3e901b8e	0.28146023
56	0x3e855e43	0.26048478
57	0x3edf3ca3	0.4360095
58	0xbe28bef3	-0.16479091
59	0xbe80a49d	-0.2512559
60	0xbdb4f01b	-0.08834859
61	0xbe0b4b8e	-0.1360304
62	0x3e8241cb	0.2544082
63	0xbea3ad67	-0.31968233

encoder.6.bias f4 [4]
0	0xbe62af10	-0.22137094
1	0x3e663491	0.2248099
2	0xbe484294	-0.19556648
3	0x3e284b98	0.16435087

decoder.0.weight f4 [16, 4]
0	0xbee80da7	-0.45322916
1	0x3ebc5b41	0.3678837
2	0xbe5d3887	-0.21603595
3	0x3c161c8f	0.009162082
4	0xbec087b6	-0.3760354
5	0xbe5fc46b	-0.21852271
6	0xbec8a2f0	-0.3918681
7	0x3f03691e	0.5133227
8	0x3ec5af08	0.386101
9	0x3ee53da6	0.44773597
10	0xbcb2d88e	-0.021831777
11	0x3ef0b42c	0.4701246
12	0xbd4c62ef	-0.049899038
13	0x3eea1ab6	0.45723504
14	0x3e7c53f7	0.24641405
15	0x3d923d33	0.07140579
16	0x3ef16397	0.47146294
17	0x3de48d2f	0.11159741
18	0xbef1072a	-0.47075778
19	0xbdb5f142	-0.08883907
20	0xbe87b241	-0.26503184
21	0xbe40f625	-0.18843897
22	0x3bf48308	0.007461909
23	0xbeaa43d3	-0.3325487
24	0x3eaceb8f	0.33773467
25	0x3dfc7b91	0.12328256
26	0xbcb3667e	-0.021899458
27	0x3ecd7a8a	0.40132552
28	0x3e249aa2	0.16074613
29	0xbf3bd532	-0.73372185
30	0x3dd55df3	0.1041831
31	0xbd47e0f5	-0.04879852
32	0x3ece0e95	0.402455
33	0x3ec2c987	0.38044378
34	0x3c939b5a	0.018018413
35	0x3edb5495	0.42837968
36	0xbe5d13cc	-0.21589583
37	0x3ddee11f	0.10882782
38	0xbe6098b1	-0.21933247
39	0x3f10cab3	0.56559294
40	0xbf046946	-0.51723135
41	0x3e60c8b3	0.2195156
42	0x3ed5f3f1	0.41787675
43	0xbe161f9e	-0.14660498
44	0x3dc62621	0.09675241
45	0xbe870249	-0.2636893
46	0x3e2c7f4b	0.16845433
47	0xbeca32fb	-0.3949202
48	0x3e85d9ff	0.2614288
49	0xbeb1e00e	-0.34741253
50	0xbe39f302	-0.18159106
51	0xbedbb615	-0.42912355
52	0x3f205b0a	0.62638915
53	0xbf10321b	-0.56326455
54	0x3ecde364	0.40212548
55	0x395a04b0	0.00020791846
56	0xbe37dc0f	-0.1795504
57	0x3ee4acda	0.44663125
58	0x3e3ac756	0.18240103
59	0xbe42fddf	-0.19042157
60	0x3eb2e90d	0.3494343
61	0xbe6fef80	-0.23431206
62	0x3eccad2d	0.39975873
63	0xbe232c9c	-0.15934986

decoder.0.bias f4 [16]
0	0xbec6395e	-0.38715643
1	0x3e8e421c	0.27784812
2	0xbece08c1	-0.40241054
3	0xbe928b94	-0.28622115
4	0xbe66027a	-0.22461882
5	0x3e4f6583	0.20253567
6	0x3f060354	0.5234883
7	0xbf0a4bef	-0.54022115
8	0xbed2c426	-0.41165274
9	0xbeb530de	-0.35388845
10	0x3e99b2e1	0.30019286
11	0x3ee587e3	0.44830236
12	0xbebc031a	-0.36721116
13	0xbf0d004a	-0.55078566
14	0xbe7f28fe	-0.24917981
15	0x3eba62fa	0.36403638

decoder.1.weight f4 [16]
0	0x3f1f7a07	0.62295574
1	0x3f660a92	0.8985988
2	0x3f46d431	0.7766753
3	0x3f841a98	1.0320616
4	0x3f810e26	1.0082443
5	0x3f9442d5	1.1582896
6	0x3fa8b50c	1.3180251
7	0x3f6611b7	0.8987078
8	0x3f7988bd	0.9747427
9	0x3f15ad35	0.5846742
10	0x3f2fbba2	0.6864568
11	0x3f47614a	0.77882826
12	0x3f304ef3	0.68870467
13	0x3f4a56ab	0.79038495
14	0x3f6c29f1	0.922515
15	0x3f846e10	1.0346088

decoder.1.bias f4 [16]
0	0x3dbe6c0d	0.09297953
1	0xbe5f62dc	-0.21815056
2	0x3d9c5d2f	0.07634961
3	0xbe1ee7e0	-0.15518141
4	0xbeac5cfc	-0.3366469
5	0xbda93200	-0.0826149
6	0xbf232737	-0.6373171
7	0xbf73eeda	-0.95286334
8	0xbf9d3048	-1.2280359
9	0x3e6cdf93	0.23132162
10	0x3ecebee2	0.40380007
11	0xbc6c9650	-0.014440134
12	0xbe5b6bc8	-0.21427834
13	0xbf33b525	-0.7019828
14	0xbeed3e2d	-0.463365
15	0xbf6a8ef1	-0.9162436

decoder.1.running_mean f4 [16]
0	0xbece6498	-0.40311122
1	0x3ebb3a4f	0.36567923
2	0x3db8e6cf	0.09028398
3	0xbe4c17ce	-0.19930956
4	0x3db47a08	0.08812338
5	0xbdc5cb55	-0.09657923
6	0x3f5d6f9b	0.8649842
7	0xbf40868a	-0.7520529
8	0x3d19cf2c	0.03755109
9	0xbe0670e0	-0.13128996
10	0xbc1cc9c0	-0.009569585
11	0x3e539ef3	0.20666103
12	0xbefde23f	-0.49586675
13	0xbf12dee6	-0.57371366
14	0xbe9c9aa5	-0.30586734
15	0x3e876c10	0.26449633

decoder.1.running_var f4 [16]
0	0x3e24fcff	0.16112135
1	0x3dbf5e6b	0.09344181
2	0x3ea406f0	0.32036543
3	0x3ddf7ba5	0.10912255
4	0x3dc19e54	0.09454027
5	0x3de9cf5c	0.11416504
6	0x3e0a7587	0.13521396
7	0x3e6e2a43	0.23258309
8	0x3e8a2c3e	0.2698688
9	0x3e16031c	0.14649624
10	0x3e0ea333	0.13929443
11	0x3e07d77c	0.13265795
12	0x3e60e94e	0.21963999
13	0x3eac8da5	0.33701816
14	0x3d6e57f7	0.05818936
15	0x3dffa766	0.124831006

decoder.3.weight f4 [32, 16]
0	0xbe72c793	-0.23708944
1	0xbe0460be	-0.12927529
2	0xbd18161c	-0.03713046
3	0xbe2f12e1	-0.17097045
4	0x3e2366d1	0.1595719
5	0xbe666b3b	-0.22501843
6	0xbe86d29c	-0.26332557
7	0xbebee8df	-0.37287042
8	0xbe7b22aa	-0.24524942
9	0x3ded89a8	0.115985215
10	0x3d06d6a4	0.03291954
11	0xbc91963d	-0.017771835
12	0x3c48391d	0.012220648
13	0xbe3e7e33	-0.18602829
14	0x3eacef44	0.33776295
15	0xbf064bc3	-0.52459353
16	0xbe4fc67c	-0.2029056
17	0xbdd63bd9	-0.10460634
18	0xbe29c67f	-0.16579627
19	0xbca60af5	-0.020268897
20	0x3e3dd945	0.18539913
21	0xbdd1ce25	-0.10244397
22	0xbdbabae7	-0.0911768
23	0x3e80ac15	0.25131288
24	0xbe643269	-0.22284855
25	0x3e06c9b1	0.13162877
26	0x3d5af308	0.05345443
27	0x3d8f499b	0.06996461
28	0xbe8310b2	-0.25598675
29	0xbece58d9	-0.4030216
30	0xbd653db0	-0.055967033
31	0xbf36324f	-0.71170515
32	0x3e2762b2	0.16346243
33	0x3e95accc	0.29233396
34	0x3e6c76a3	0.23092131
35	0x3e8ab6b7	0.27092525
36	0xbe95074b	-0.29107127
37	0x3e5ec8f9	0.21756352
38	0xbda70fec	-0.08157334
39	0xbeb6c92e	-0.35700363
40	0xbd2f8a05	-0.042856235
41	0x3e02f68b	0.12789361
42	0xbed9db8a	-0.42550308
43	0x3e8e66b8	0.27812743
44	0xbe85d07b	-0.2613562
45	0xbd95ce6f	-0.07314765
46	0x3e1a0291	0.15040042
47	0xbcffc24a	-0.031220574
48	0x3de76df0	0.11300266
49	0xbe32b23b	-0.17450802
50	0xbf6a9fd0	-0.91650105
51	0xbe9bb078	-0.30408072
52	0x3e1f4837	0.15554892
53	0x3d92a03c	0.071594685
54	0xbf10cff7	-0.5656733
55	0x3dc8f33c	0.09812018
56	0xbe8b46ba	-0.27202398
57	0x3cd9e81e	0.02659994
58	0x3e996e8e	0.2996716
59	0x3b99ba8e	0.0046914285
60	0xbd4cec1b	-0.050029855
61	0x3e313047	0.17303573
62	0xbcb1306a	-0.021629531
63	0x3cca256c	0.024676047
64	0xbd7bb42e	-0.06145113
65	0xbe833891	-0.25629094
66	0x3de45931	0.111498244
67	0x3eefa191	0.46802953
68	0xbf06cd2e	-0.5265683
69	0x3e20585c	0.15658706
70	0x3e05d4b3	0.1306942
71	0xbe2ff135	-0.17181857
72	0xbe4caa76	-0.199869
73	0x3df1b338	0.118017614
74	0xbd3ce598	-0.046117395
75	0x3d964125	0.07336644
76	0x3e3b2271	0.18274857
77	0xbeb73aac	-0.3578695
78	0x3e30fabe	0.1728315
79	0x3cf5dc16	0.030012172
80	0xbdb5b5a1	-0.088725336
81	0xbe1e7e5d	-0.15477891
82	0x3d4ffc50	0.050777733
83	0xbe42bd9b	-0.19017641
84	0x3e517443	0.20454507
85	0xbc324974	-0.01088177
86	0x3ebcfab5	0.36910024
87	0x3f05e534	0.5230286
88	0x3cfaa5e3	0.03059668
89	0xbeb42ea0	-0.35191822
90	0x3e0c8e8e	0.13726255
91	0x3ec0ff0a	0.3769458
92	0x3e579e5a	0.210565
93	0x3ed3c6bf	0.4136257
94	0xbcd01524	-0.025400706
95	0x3e57968b	0.21053521
96	0xbd3d7925	-0.04625811
97	0xbd3183ba	-0.043338515
98	0xbec25fed	-0.3796381
99	0xbd5750fe	-0.052567475
100	0x3e02ea7c	0.12784761
101	0xbea1dfa3	-0.31615934
102	0xbf461a87	-0.7738423
103	0xbe5bc8bd	-0.21463294
104	0xbd57daf5	-0.052699048
105	0x3bd64218	0.0065386407
106	0x3e291d7b	0.16515152
107	0x3cac8108	0.02105762
108	0x3d95d0e5	0.07315234
109	0x3d7fde65	0.06246795
110	0xbd2e1af6	-0.04250618
111	0xbe8c5e8a	-0.27415878
112	0x3cfec226	0.031098437
113	0xbe0baf94	-0.13641196
114	0x3e82b7e7	0.2553093
115	0x3e14eb56	0.14542899
116	0xbded4c53	-0.11586823
117	0xbed3159e	-0.4122743
118	0xbef1f5b4	-0.4725777
119	0x3db7687f	0.08955478
120	0xbf37ea94	-0.7184231
121	0x3e224b76	0.15849099
122	0xbe5233e5	-0.20527609
123	0x3d6cff9b	0.057860952
124	0xbd6e2625	-0.058141846
125	0x3d2d74f7	0.042347874
126	0xbd0b0d51	-0.033948246
127	0x3d55cff0	0.052200258
128	0xbe410ded	-0.18852969
129	0xbdc7c36a	-0.09754069
130	0x3e32215e	0.17395541
131	0xbe23a079	-0.15979184
132	0xbf1226a8	-0.57090235
133	0xbdd0f53b	-0.10203024
134	0xbe2cd090	-0.16876435
135	0xbf00b058	-0.5026908
136	0xbeb9fe97	-0.3632705
137	0xbd8c0110	-0.0683614
138	0x3e042fee	0.12908909
139	0x3bcc011f	0.0062257196
140	0x3da96aeb	0.08272346
141	0xbe2f51cc	-0.17121047
142	0xbdebbd29	-0.11510689
143	0xbe708814	-0.2348941
144	0x3da8af83	0.08236601
145	0x3dc932e5	0.098241605
146	0xbf271134	-0.65260625
147	0xbe3ce2b7	-0.1844586
148	0xbc14c35f	-0.009079783
149	0x3ea5bfb6	0.32372826
150	0xbec30202	-0.3808747
151	0x3dbd82ec	0.09253487
152	0xbe17f186	-0.14838228
153	0xbea0d43f	-0.3141193
154	0x3e9dc8cc	0.30817258
155	0xbea1d610	-0.3160863
156	0x3eb5dd38	0.3552034
157	0x3db27d97	0.087153606
158	0x3d8cb644	0.06870702
159	0xbd594262	-0.053041823
160	0xbe6e3c7b	-0.23265259
161	0xbcbbb9f4	-0.022915818
162	0x3dbe7df9	0.09301371
163	0x3e1bb8ff	0.15207289
164	0xbe4a8788	-0.19778264
165	0xbe0de575	-0.13857062
166	0x3e0896f8	0.1333884
167	0x3e8ff1f6	0.2811429
168	0x3e98d107	0.29846975
169	0x3dfb63c1	0.12274886
170	0xbe31e484	-0.17372328
171	0x3e9d9296	0.307759
172	0x3e8838e0	0.26605892
173	0x3e25ab9e	0.16178748
174	0x3d32c112	0.043641157
175	0x3e46e62c	0.19423741
176	0xbc7be33f	-0.015374004
177	0x3d769c23	0.060207497
178	0x3ca43710	0.020045787
179	0xbda8a81d	-0.0823519
180	0xbda266d1	-0.07929767
181	0xbd24b7c0	-0.0402143
182	0x3e335b80	0.17515373
183	0x3d5be084	0.05368091
184	0x3edc4d3b	0.43027672
185	0x3d38aba6	0.04508557
186	0xbc7d084a	-0.015443871
187	0x3ef52d40	0.47886086
188	0x3d51a0c9	0.051178727
189	0x3e5ab9f1	0.21359994
190	0x3dfbbd56	0.12291972
191	0x3ece01c3	0.4023572
192	0xbdf6daa4	-0.12053421
193	0xbd8f7dfa	-0.0700645
194	0xbea7ccb5	-0.32773367
195	0xbdb2c3f9	-0.08728785
196	0xbe10d163	-0.14142375
197	0x3d27df41	0.040984396
198	0xbdf2eae1	-0.11861206
199	0x3ddb158d	0.1069747
200	0xbdd231d5	-0.10263411
201	0x3d589ff8	0.052886933
202	0xbe34fe3c	-0.17675108
203	0xbd8d739a	-0.06906815
204	0xbf1275dc	-0.5721109
205	0xbececc5e	-0.40390295
206	0xbd016226	-0.031587742
207	0xbf0dec73	-0.5543892
208	0xba6c7d8e	-0.00090213947
209	0x3c3c3941	0.01148826
210	0xbe9e8bfe	-0.3096618
211	0xbdde6729	-0.1085952
212	0x3e8c1bd5	0.27364984
213	0xbd060dfb	-0.032728177
214	0x3d453a65	0.048151392
215	0xbc577c03	-0.013152125
216	0x3d4c804d	0.049927045
217	0x3d801c2e	0.06255375
218	0x3f03ecdf	0.5153331
219	0x3d8dbeff	0.06921195
220	0xbe66d093	-0.22540502
221	0xbe9faafc	-0.31185138
222	0x3e1f8eec	0.15581864
223	0xbe8f6c8a	-0.28012496
224	0xbd572f0a	-0.052535094
225	0xbc6ccc94	-0.014453072
226	0x3d845579	0.06461615
227	0x3eadbb58	0.33931994
228	0x3cbf45e4	0.023348756
229	0x3e149c66	0.14512786
230	0xbe527698	-0.20553052
231	0xbea6e785	-0.3259851
232	0xbd56d697	-0.052450743
233	0x3b2a3d87	0.0025976615
234	0xbea2d75d	-0.31804934
235	0xbea1672b	-0.31524023
236	0xbd66658e	-0.056249194
237	0xbea0da97	-0.3141677
238	0xbe0eedee	-0.1395795
239	0xbd635985	-0.055505294
240	0xbe4e46d4	-0.20144206
241	0xbe96d29e	-0.29457563
242	0x3d83fcbb	0.06444689
243	0x3c8af717	0.016963525
244	0xbe3ca2a9	-0.18421425
245	0xbdb4e653	-0.08832993
246	0xbe261eec	-0.16222733
247	0xbd104c11	-0.035228793
248	0xbecf0d6e	-0.40439934
249	0xbde618ad	-0.11235175
250	0xbe9e16f9	-0.30876902
251	0xbe52384f	-0.20529293
252	0xbda8e4f2	-0.08246793
253	0xbf0f0a30	-0.5587492
254	0xbe1bdc20	-0.1522069
255	0xbf212bde	-0.6295756

decoder.3.bias f4 [32]
0	0xbcb3114b	-0.021858832
1	0xbe933f44	-0.28759205
2	0x3dc75a07	0.09733968
3	0xbe3ea2d9	-0.18616809
4	0xbe532e7f	-0.20623206
5	0x3dab27a2	0.08357169
6	0x3e1302bd	0.14356513
7	0xbceb3c51	-0.028715285
8	0x3b38d688	0.0028204042
9	0x3dac80e9	0.08423025
10	0xbe564b71	-0.20927216
11	0xbe14be9d	-0.14525838
12	0x3e229c35	0.15879901
13	0xbdd33a02	-0.103137985
14	0x3e793ce1	0.2433963
15	0xbe2ed905	-0.17074974
16	0xbc8d82e0	-0.01727432
17	0x3e13f97f	0.14450644
18	0x3db7b376	0.08969776
19	0xbd121b4b	-0.03567056
20	0x3e40d236	0.18830189
21	0xbe441f1b	-0.19152491
22	0xbceff9e4	-0.029293962
23	0x3e10ef59	0.14153804
24	0xbc897014	-0.016777076
25	0x3e094b5c	0.13407654
26	0x3e5fe069	0.2186295
27	0x3de9f3bb	0.11423441
28	0xbe930f82	-0.2872277
29	0xbde032dd	-0.109472014
30	0x3e2a9e6a	0.16661993
31	0xbe05d23b	-0.13068478

decoder.4.weight f4 [32]
0	0x3f8797bf	1.0593184
1	0x3f8f3eb6	1.1191013
2	0x3f7d12bb	0.98856705
3	0x3f8b7ba9	1.0897113
4	0x3f675e0e	0.9037789
5	0x3fa6dbec	1.3035865
6	0x3f99b250	1.2007542
7	0x3f971865	1.180432
8	0x3f99db6f	1.2020091
9	0x3f73cc91	0.9523402
10	0x3f2a4bfd	0.665222
11	0x3f95f76b	1.1716131
12	0x3f990f9f	1.1957892
13	0x3f760459	0.96100384
14	0x3f745514	0.9544232
15	0x3f9e0118	1.2344084
16	0x3f595d4f	0.84908
17	0x3f4e3dc8	0.8056302
18	0x3f8fa6da	1.1222794
19	0x3f979482	1.1842196
20	0x3f6f18fb	0.9339749
21	0x3f680cc6	0.9064449
22	0x3f8e3266	1.110913
23	0x3f8d33aa	1.1031392
24	0x3f8a1cf0	1.0790081
25	0x3f82edff	1.0228881
26	0x3f9be462	1.2179072
27	0x3f92ef7a	1.1479332
28	0x3f9275a0	1.1442146
29	0x3f8f4912	1.1194174
30	0x3f80f4a3	1.0074657
31	0x3ff344ca	1.9005368

decoder.4.bias f4 [32]
0	0xbe95a30f	-0.29225966
1	0xbe6c2b5c	-0.23063415
2	0xbf1626fc	-0.58653235
3	0xbeeed6ef	-0.46648356
4	0xbef5afcf	-0.47985694
5	0x3e72c141	0.23706533
6	0xbefdd44e	-0.49576038
7	0xbf0f4e20	-0.55978584
8	0xbee55f03	-0.4479905
9	0xbed2b6d9	-0.41155127
10	0xbe195d42	-0.14976981
11	0x3dd84cf7	0.10561555
12	0xbe2c27c6	-0.16812047
13	0xbdc932d2	-0.09824146
14	0xbedd0115	-0.43164888
15	0xbec97dd6	-0.39353818
16	0xbee0f835	-0.43939367
17	0xbf1f880b	-0.6231696
18	0xbec44fd3	-0.3834215
19	0xbe50c439	-0.20387353
20	0xbe810b95	-0.2520415
21	0xbeb21d91	-0.34788182
22	0xbf1df5f4	-0.6170342
23	0xbef2845e	-0.47366613
24	0xbefb7d8a	-0.49119216
25	0xbec5c39f	-0.3862581
26	0xbeee355e	-0.4652509
27	0xbef3b8fa	-0.47602063
28	0xbee5400e	-0.44775432
29	0xbed2a361	-0.41140273
30	0x3e085ea4	0.13317353
31	0x3f0fbaf5	0.5614465

decoder.4.running_mean f4 [32]
0	0xbd46a736	-0.04849931
1	0xbe90f4d9	-0.28311804
2	0x3e6eccc1	0.23320295
3	0xbeac1cd4	-0.33615744
4	0xbb87a16e	-0.004139117
5	0x3d42d780	0.047568798
6	0xbcd2d1e1	-0.025734844
7	0xbcb56036	-0.022140604
8	0x3d15949f	0.03651869
9	0xbc734a02	-0.014849188
10	0xbeac4e8a	-0.3365367
11	0xbe372de4	-0.178886
12	0xbde5d6f2	-0.11222638
13	0x3dcab976	0.09898655
14	0x3e38d1ce	0.18048784
15	0xbecf1c0f	-0.40451095
16	0xbea2b98c	-0.31782186
17	0xbd03777b	-0.032096367
18	0x3d28fc4f	0.041256245
19	0x3dcff4e9	0.10154135
20	0x3eea4209	0.45753506
21	0x3c049da8	0.008094229
22	0x3daa39e3	0.08311822
23	0xbdcf72d4	-0.101293236
24	0xbe9f1aca	-0.31075126
25	0xbdf4b21c	-0.11948034
26	0xbd93a8ae	-0.072099075
27	0xbe48ea75	-0.19620688
28	0xbef7979a	-0.4835785
29	0xbead2554	-0.33817542
30	0x3ebe0dea	0.3711999
31	0xbe8f2e8c	-0.279652

decoder.4.running_var f4 [32]
0	0x3ea1fb82	0.31637198
1	0x3e8ba36b	0.27273116
2	0x3e6ce35b	0.23133604
3	0x3f8c7f81	1.0976411
4	0x3e754dfc	0.2395553
5	0x3fa59b8b	1.2938093
6	0x3e9f4e9e	0.31114668
7	0x3d60edd6	0.054914318
8	0x3ef6a24f	0.48170707
9	0x3f77123a	0.96512187
10	0x3eb44269	0.35206917
11	0x3ebaf6d5	0.36516443
12	0x3f18cf46	0.59691274
13	0x3e6be0da	0.23034993
14	0x3e85d746	0.26140803
15	0x3f04fbf5	0.51946956
16	0x3dbc2ac3	0.09187844
17	0x3e089ac7	0.13340293
18	0x3ea36671	0.31914094
19	0x3e9cc3eb	0.30618224
20	0x3e134da9	0.14385094
21	0x3d8b489b	0.06800958
22	0x3ec7f522	0.3905421
23	0x3f8f706b	1.1206182
24	0x3f282ec5	0.65696365
25	0x3f0fd654	0.56186414
26	0x3f296ef6	0.6618494
27	0x3e4294e0	0.19002104
28	0x3f71910a	0.9436194
29	0x3e604db4	0.21904641
30	0x3ec19c3b	0.37814507
31	0x3ecf9442	0.405428

decoder.6.weight f4 [6, 32]
0	0x3ef7e205	0.48414627
1	0x3e66f5ac	0.22554654
2	0x3eac3c3a	0.336397
3	0xbf463f3a	-0.77440226
4	0x3d80206a	0.062561825
5	0x3f58bcac	0.8466289
6	0xbf54908b	-0.83033055
7	0xbf898458	-1.0743513
8	0x3f7aae95	0.9792264
9	0xbeb5123d	-0.35365477
10	0x3dd7bfb3	0.105346106
11	0x3ee35448	0.4440024
12	0x3e624a65	0.22098692
13	0x3e37ea2f	0.17960428
14	0x3e926395	0.285916
15	0x3f691a99	0.9105621
16	0x3c4fe4b3	0.0126888035
17	0xbe49029b	-0.196299
18	0xbcc11142	-0.0235678
19	0x3e470c64	0.1943832
20	0x3e4ece34	0.20195848
21	0x3e65e2aa	0.22449747
22	0x3f5a8cac	0.853709
23	0xbf40d59f	-0.7532596
24	0xbcc3c58d	-0.02389791
25	0xbdf437e5	-0.119247235
26	0x3f3494d2	0.7053958
27	0xbf4b837f	-0.7949752
28	0xbf2770df	-0.654066
29	0xbde65ac7	-0.11247783
30	0x3dfd07c0	0.12354994
31	0xbf70e4ab	-0.9409892
32	0x3eab271a	0.3342827
33	0xbc93ab2e	-0.01802596
34	0x3f8d36fc	1.1032405
35	0xbda170a3	-0.07882812
36	0xbdc8e5a8	-0.098094285
37	0x3deeb24f	0.116551034
38	0x3e82eb9f	0.2557039
39	0x3ee99151	0.4561868
40	0x3f680437	0.9063143
41	0xbe190e4b	-0.14946859
42	0x3e07fd55	0.13280232
43	0xbecbe546	-0.3982336
44	0xbea0ccc5	-0.31406227
45	0xbf108f41	-0.5646859
46	0x3ea2788e	0.317326
47	0x3e550083	0.20800976
48	0x3f5af793	0.8553402
49	0x3f255237	0.64578575
50	0x3fa454f4	1.2838426
51	0xbf4c913d	-0.79909116
52	0x3e7a4a0e	0.24442312
53	0x3e4c1611	0.19930293
54	0x3eea815e	0.45801824
55	0x3e8cf298	0.27528834
56	0xbea90e81	-0.33018878
57	0xbf603842	-0.8758584
58	0x3fb4fc94	1.4139581
59	0x3ebe08f7	0.37116215
60	0x3f06bf25	0.52635413
61	0xbf8f3343	-1.1187519
62	0x3f25f946	0.64833486
63	0x3e8b0f5a	0.2716015
64	0xbee1f427	-0.44131586
65	0xbddf9175	-0.109164156
66	0xbce5afc6	-0.028037917
67	0x3ee54617	0.44780037
68	0xbca72c0e	-0.02040675
69	0xbf0b3ad9	-0.5438667
70	0x3f55a70e	0.8345803
71	0x3f3bccce	0.7335938
72	0xbf1c6b39	-0.6110111
73	0x3d8a3a64	0.067494184
74	0xbe267293	-0.16254644
75	0xbebe5dc1	-0.37180904
76	0xbec28948	-0.37995362
77	0xbe52706c	-0.20550698
78	0xbec30bda	-0.3809498
79	0xbea2767a	-0.31731015
80	0x3c0631bc	0.008190569
81	0x3de1aba3	0.11019065
82	0x3dce9447	0.100868754
83	0xbeb1e8ee	-0.34748024
84	0xbbedbf87	-0.007255498
85	0xbe6dd7eb	-0.23226897
86	0xbf1988c9	-0.5997434
87	0x3f1ca72c	0.61192584
88	0xbe837fdc	-0.25683486
89	0x3e824a2e	0.2544722
90	0xbf276b68	-0.65398264
91	0x3f279cf7	0.65473884
92	0x3f43fea0	0.765604
93	0x3e08610b	0.13318269
94	0xbcaafe03	-0.020873075
95	0x3f3b5f97	0.73192734
96	0x3e66a978	0.22525585
97	0x3f19a2b3	0.60013884
98	0x3dabd2fc	0.083898515
99	0xbf198b1d	-0.59977895
100	0x3f277b23	0.65422267
101	0x3e8b7e88	0.27244973
102	0xbf8a5c95	-1.0809504
103	0xbf6e80d6	-0.9316534
104	0x3de3a3fe	0.111152634
105	0xbf453ea9	-0.77048737
106	0x3e7f20a4	0.24914795
107	0x3eb7d64d	0.35905686
108	0x3f058d41	0.5216866
109	0x3e4d7869	0.20065464
110	0xbf0f06df	-0.5586986
111	0x3f27fd69	0.6562105
112	0xbeb26ef3	-0.34850273
113	0xbf20ee82	-0.62863934
114	0x3e8568e0	0.26056576
115	0x3e0addb4	0.13561136
116	0x3ef7c3bb	0.48391518
117	0x3eb8dcb9	0.36105898
118	0x3ef2d98a	0.47431594
119	0xbf43de57	-0.7651114
120	0xbf8237f4	-1.0173326
121	0xbded8fbb	-0.1159968
122	0xbda43090	-0.08017075
123	0xbf381270	-0.71903133
124	0xbf688235	-0.9082368
125	0x3e016002	0.1263428
126	0x3e97f1a1	0.29676536
127	0xbf7477dd	-0.95495397
128	0xbea2e76b	-0.31817183
129	0xbf01fc19	-0.50775295
130	0xbde7a7b8	-0.11311287
131	0x3f3cdce4	0.7377455
132	0xbf0b9f4b	-0.54539937
133	0xbe9caa43	-0.3059865
134	0x3f8da277	1.1065205
135	0x3f7bcc03	0.9835817
136	0xbe7b92c1	-0.24567701
137	0x3f260d15	0.6486371
138	0xbe8e35de	-0.27775472
139	0xbed2bbdc	-0.4115895
140	0xbf114776	-0.56749666
141	0xbe64a8cf	-0.2233002
142	0x3ef66183	0.4812127
143	0xbf3523fc	-0.7075803
144	0x3e9bf1d3	0.30457935
145	0x3f12a1ac	0.5727794
146	0xbea33367	-0.31875154
147	0xbe1af9f9	-0.1513442
148	0xbeef66ae	-0.46758026
149	0xbebd507c	-0.36975467
150	0xbf0c558a	-0.5481802
151	0x3f774af5	0.9659875
152	0x3f69ea2e	0.91372955
153	0x3e1c455d	0.15260835
154	0x3d5c163d	0.053732146
155	0x3f455cb4	0.7709458
156	0x3f3eb1df	0.7449016
157	0xbe0f619d	-0.1400208
158	0xbea2cc5b	-0.31796536
159	0x3f7efaa0	0.99601173
160	0xbe85eec8	-0.26158738
161	0x3eb95a94	0.36201918
162	0xbca49fca	-0.020095725
163	0x3e3b0fb8	0.18267715
164	0x3d4e3745	0.050345678
165	0x3bb120ec	0.005405536
166	0x3c30a106	0.0107805785
167	0x3c9d336f	0.019189565
168	0xbe8edbde	-0.2790212
169	0x3d169eb3	0.03677244
170	0xbdfd73fa	-0.123756364
171	0x3d03d866	0.032188796
172	0x3d43ff4d	0.047850896
173	0x3da88d3c	0.08230063
174	0xbdac159a	-0.08402558
175	0x3ca4e1bc	0.02012717
176	0xbd8d58c3	-0.069016956
177	0xbdbd0ebf	-0.09231328
178	0xbd6869a1	-0.05674136
179	0xbc85bf48	-0.016326562
180	0xbd810a73	-0.06300821
181	0x3c1f0fbf	0.009708344
182	0xbe3068ca	-0.17227474
183	0xbd84b5e7	-0.064800076
184	0xbe230b07	-0.15922175
185	0x3e9691e9	0.29408196
186	0xbea2beed	-0.3178629
187	0xbd508a8b	-0.050913375
188	0xbde5b130	-0.112154365
189	0x3df99a02	0.12187578
190	0xbe147cd8	-0.14500749
191	0x3cc86217	0.024460835

decoder.6.bias f4 [6]
0	0x3e19c851	0.15017821
1	0x3b70eaf0	0.0036761127
2	0xbdf92e3c	-0.12167022
3	0x3e34cdaa	0.1765658
4	0xbe23c2c2	-0.15992263
5	0xbe0a56ac	-0.13509625
