anomaly_model/829_model.pt (torch, 18238 bytes, 28 tensors)

encoder.0.weight f4 [32, 6]
00000000: dd60 943e d211 8e3e 7138 92be 0675 b6be
00000010: b03f 9e3e 7a90 233f 4574 57be 7f7e ddbe
00000020: 2676 5d3d cd71 063e f42a fe3e e251 493e
00000030: 4a69 c63e 91e2 d73e 0083 1ebc 6aa7 0a3e
00000040: 2687 cf3d aae7 a33a 704f 76bd db7d 893e
00000050: f05f e93e 8216 9bbd 381d 8b3e 7901 6cbd
00000060: de43 b8be aa31 8abd d7b9 adbe ce3c 603e
00000070: 3765 423e 9dd3 493e a0a1 80be b2dd 3f3e
00000080: 5408 b33d 25d6 8bbe 4966 863e 9ee9 033f
00000090: fec9 88be 1aeb dabe 793f b9be 1ff8 a93d
000000a0: b1a5 f23e 8b27 8cbe 9728 e03d b913 da3c
000000b0: 2a08 a6be 608c b53d e269 493e 172e 8d3e
000000c0: 762c bc3e 65d1 893e bd79 b2bd b5e4 03be
000000d0: 8474 f7be 6236 26bc 39e1 d8be fcba 52be
000000e0: 8095 b6be 8c53 663e d052 f23c ae15 d8be
000000f0: 36e6 d3be e907 ba3c 66e8 2f3d b2d2 da3e
00000100: e956 9dbe ff7d bcbc b53f 15be 46d7 8abd
00000110: 2827 d7bd 25c3 60bc 0aa5 f23e badd 8cbe
00000120: 5d39 e63c 29a8 bc3e ed24 883e 6554 773e
00000130: b835 f63c 2a29 a5be 3dfb e5be 5824 90be
00000140: 5f0f 003e 142d 08be 283e a4bd e145 06bd
00000150: 7768 2f3e 1f0d afbe 909b 113e 9bb9 e33e
00000160: a8b5 1cbe 4236 a93e 99cb 46be 57d8 fcbc
00000170: c267 8c3e bbbc cebe b209 c23d b2b4 01bc
00000180: f67a 583d c47b f53d 4857 9abe f412 403d
00000190: 83fa efbe ebc2 fbbd b850 75be cfe3 6dbe
000001a0: bf1a 1b3e 1a02 733e 81ac 1dbe cd33 71be
000001b0: e915 c1be 16a3 80be f43a 573e 29a6 2ebe
000001c0: 4f48 fe3d f5a3 88be d6d9 7fbc 6b0c c0be
000001d0: 70a6 b03e 4320 3bbe 26ba 843e af0c 88be
000001e0: 5b4d 853c 9d97 703d 47d0 cfbe ab32 a2be
000001f0: 2149 0a3f a0fe 113e a759 a8bd cc01 973d
00000200: c274 a4be 88d2 a03e f07b a0bd d142 8f3e
00000210: 6338 afbe 95be 633e ae49 dfbe 5e6d a33e
00000220: 13f1 243e 7dda 6e3e 564a 323e 68de 74be
00000230: 8b19 e83e 8544 2fbe 8b0a 143d f74e 0f3f
00000240: 35f0 d33e 6453 763e 4f95 f7bd 5937 663d
00000250: d11b 17be fdd1 9a3e c060 fabd 7fef cabe
00000260: 18b0 163e 3614 c5bd 3046 983d 9842 b8be
00000270: 7e5a a7be e470 963d 3482 92be 2f9a 223e
00000280: 433e a93e 3020 ff3e 519e 253e d7b1 99be
00000290: 975e b03e 1834 803e 82e8 0cbf 69ff 533f
000002a0: 0a99 48be 4278 83be 4284 01bf b2f4 be3e
000002b0: 9ae1 e3bd a3e6 50be 3e9f bbbe 2da0 93bd
000002c0: abb2 fc3e 1bfb c03e 1b4a 993e 688c 863e
000002d0: 7f36 813e c1eb b83c df66 973d 72ec 0e3f
000002e0: 54c6 babe 1fb0 563e 5f6f 31be 990f b63e
000002f0: 430b e13c f6cb 1fbe 2bc8 c63e d078 80bd
0.2898015 0.2774797 -0.28558686 -0.35636157 0.30907965 0.6389233 -0.21040447 -0.4326057
0.054067753 0.13129349 0.49642146 0.19660142 0.38752204 0.42165044 -0.0096747875 0.13540426
0.101331994 0.0012504954 -0.06013435 0.26853833 0.45581007 -0.075726524 0.2717073 -0.057618592
-0.3598928 -0.06747754 -0.33930847 0.21898195 0.18983923 0.1970963 -0.2512331 0.18736914
0.08741823 -0.27311817 0.26249912 0.51528347 -0.26716608 -0.42757493 -0.36181238 0.082992785
0.47392038 -0.2737392 0.10945242 0.026620733 -0.32428104 0.08864665 0.19669297 0.27574226
0.3675267 0.26917568 -0.08714626 -0.12880214 -0.48331082 -0.010144802 -0.4235933 -0.20579141
-0.35660934 0.22492808 0.029580504 -0.4220404 -0.41386575 0.02270885 0.04294624 0.42738873
-0.3073037 -0.023009298 -0.14575084 -0.067793414 -0.10505515 -0.013718401 0.4739154 -0.27512914
0.028103525 0.36847046 0.26590672 0.24153288 0.030054912 -0.32257968 -0.44918242 -0.28152728
0.12505864 -0.13298446 -0.08019668 -0.032781485 0.17129694 -0.34189698 0.14219499 0.44477543
-0.15303671 0.33049208 -0.19413604 -0.030864878 0.2742291 -0.40378365 0.094745055 -0.007916616
0.05285164 0.11986497 -0.30144715 0.046893075 -0.46870813 -0.12293037 -0.23956573 -0.23231433
0.15146922 0.2373127 -0.15397836 -0.23554917 -0.3771203 -0.25124425 0.21018583 -0.17055573
0.124161355 -0.2668759 -0.015615901 -0.37509474 0.34501982 -0.18274026 0.2592327 -0.26572177
0.016272238 0.05873834 -0.4058859 -0.31679282 0.54017836 0.14257288 -0.08220225 0.073733896
-0.3212033 0.31410623 -0.07836139 0.27980664 -0.34222707 0.2224067 -0.436109 0.31919378
0.16107588 0.23325534 0.1741117 -0.23912966 0.45331988 -0.17115982 0.036142867 0.55979866
0.413942 0.24055248 -0.12089025 0.056205127 -0.14756705 0.30238333 -0.12225485 -0.39635846
0.14715612 -0.096229956 0.07435262 -0.35988307 -0.32686228 0.07345751 -0.28614962 0.15879129
0.33055314 0.49829245 0.16173674 -0.30018494 0.34447166 0.25039744 -0.5504228 0.828116
-0.1958963 -0.25677687 -0.50592434 0.37296063 -0.111270145 -0.20400481 -0.3664493 -0.072082855
0.49355063 0.37691578 0.2993935 0.26278996 0.2523689 0.022573354 0.07392668 0.55829537
-0.36479437 0.20965622 -0.17327641 0.35558775 0.02747119 -0.15605149 0.3882459 -0.06273043

encoder.0.bias f4 [32]
00000000: 2d1b e13e a701 efbe eaf3 c1bd 0915 583c
00000010: e0fc f23e 0ca6 7bbe b51f 2fbf 78f4 7b3e
00000020: 140d 7ebd 3ad3 d7be 44e4 b9be 01f3 d93b
00000030: 31f5 a53d 5998 0cbe e3cb 6ebe cede aebe
00000040: 12e7 79be 6494 143f 23fc b4be 54a0 cebe
00000050: e71b 593e 8d99 da3d de45 ab3d 53b0 1abe
00000060: f8e8 623d 8e85 43be 5574 5abe e431 05bc
00000070: 9dab 343d 351d aebe 9d6a 5bbd b522 9dbe
0.43966046 -0.46680948 -0.09470351 0.013188609 0.47458553 -0.2457506 -0.68407756 0.24604976
-0.06202419 -0.4215334 -0.36306965 0.006651283 0.08103407 -0.13729991 -0.23319964 -0.3415436
-0.24404553 0.58038926 -0.35348615 -0.40356696 0.2120205 0.10673819 0.083629355 -0.15106325
0.055397958 -0.19093916 -0.2133344 -0.008129571 0.044108976 -0.34006658 -0.05356847 -0.30690542

encoder.1.weight f4 [32]
00000000: ee5c 743f fb13 953f 7fb6 813f 327a 7b3f
00000010: 89b8 4c3f 4720 993f b640 5f3f 8102 8d3f
00000020: 7adc 5c3f 2a80 7f3f dd27 873f 1f10 893f
00000030: 5cf1 8f3f 767c 773f 2536 873f 5917 6f3f
00000040: 7a18 653f d892 783f 9971 673f 3e96 673f
00000050: a765 843f 71f1 853f d377 723f 6f8c 863f
00000060: 99b4 6f3f 5787 8b3f 0284 6c3f 412c 863f
00000070: baa2 873f 2a3c 7e3f c6de 6e3f 5e7c 353f
0.954543 1.1646723 1.0133818 0.9823333 0.7996908 1.1962975 0.87208116 1.1016389
0.8627392 0.9980494 1.055904 1.0708045 1.1245532 0.9667429 1.0563399 0.93395
0.89490473 0.97099066 0.9040771 0.90463626 1.0343522 1.0464307 0.9471409 1.0511607
0.93634945 1.0900677 0.9238893 1.0482255 1.0596535 0.99310553 0.93308675 0.70892894

encoder.1.bias f4 [32]
00000000: 7e43 193e 101d c13c a601 eb3d 604b 653e
00000010: bfdc 40bd 2d8b 62bc 8874 0d3e 1d50 79be
00000020: d505 873e 7fae ccbe 193a 85bd de1f 633e
00000030: 784b 023e 83df 9dbe 420d b3bd a3b2 363e
00000040: 0910 b6be 9052 86be b16b 2c3e 12c9 dfbe
00000050: 0b36 fabc 257b 613d 71a7 0f3c 189c 56be
00000060: 8bfc ee3e 4ef7 5bbe 40bc 9a3e 3338 e63e
00000070: 12db 533d 6b7c 7e3d 2cd3 cd3d c3bf bd3c
0.14967152 0.023573428 0.11474924 0.22392035 -0.04708552 -0.013827127 0.13813984 -0.24346967
0.26371637 -0.3997688 -0.06505222 0.22180125 0.12724102 -0.30834588 -0.08742763 0.17841582
-0.3555911 -0.26234865 0.16837956 -0.43708092 -0.030543348 0.05504908 0.0087679485 -0.20957983
0.4667705 -0.21481058 0.30221748 0.44964752 0.051722594 0.062130373 0.100500435 0.023162728

encoder.1.running_mean f4 [32]
00000000: 3bb4 20bf 912c 06bf 63ac 82be 1cea bd3e
00000010: 4fdd b53d 7449 59bf fdbe 72be e5a5 a5be
00000020: 0cef 99be e34a d93d b69c c3be 0ca9 023f
00000030: dbcb 173f b1f8 e73d 972b 3cbf 54b4 66bd
00000040: c125 babe e838 823f 2ed6 a73e c6c6 aa3e
00000050: dac4 2bbd b6a3 0bbf d2da f6be 9e03 34bf
00000060: e639 1fbf d0be 0c3f 0b74 81bf 327a 9bbf
00000070: 767e 9e3d 6a94 c9be 9376 0fbf 62f5 e7bd
-0.6277501 -0.5241175 -0.25522146 0.37092674 0.08880102 -0.84877706 -0.23705669 -0.3235313
-0.3006519 0.10609987 -0.38205498 0.51039195 0.59295434 0.11326731 -0.7350401 -0.056324318
-0.3635693 1.0173616 0.32780594 0.33354777 -0.04193578 -0.5454668 -0.48213822 -0.7031802
-0.6219772 0.54978657 -1.0113539 -1.2146666 0.07738964 -0.39371043 -0.56040305 -0.113261

encoder.1.running_var f4 [32]
00000000: a6f7 783c 5f8d e53c e2f9 dc3c 1c66 573c
00000010: b430 373b 045c 0b3c f4ca df3c 06cd ae3a
00000020: 2d52 583c 8dba 0f3c 3257 bd3b d5d6 1b3b
00000030: e8f3 a83c 8e54 6e3c d47f ae3c c7a5 683b
00000040: e979 8c3b 72c3 193c 7148 573c 8bcf c03c
00000050: 6402 8c3b c907 453b 9c14 3e3c f3b2 323c
00000060: ae75 453c 3e8b c43c 66cc 583b c062 9d3c
00000070: fa75 3f3c ec05 9b3b baf2 db3b 4974 b63c
0.015195763 0.028021513 0.026974622 0.013146903 0.0027952613 0.008505825 0.027318455 0.0013336248
0.013203186 0.0087725045 0.0057782168 0.0023779173 0.020624116 0.014546527 0.021301188 0.0035499202
0.0042869938 0.009384977 0.01313983 0.023536464 0.004272746 0.0030064455 0.011601593 0.010906923
0.012051983 0.023992177 0.0033080815 0.019212127 0.011685843 0.0047309306 0.006712285 0.022272246

encoder.3.weight f4 [16, 32]
00000000: 77fd 0f3e 9873 0c3e 535f 92be 58fe 993c
00000010: fef9 b9bd a140 3b3e dfa9 7c3d 18c7 b4bd
00000020: 68d0 56be e31c 26be e082 6f3e 1168 a1bd
00000030: 9b0c 95be 318c f9bb d423 7dbe 04cb 1ebc
00000040: 85d2 41be a64a 7b3d 50d5 12be 870e 5a3d
00000050: 6d51 8cbe e2c4 7abd 08ee 463e e528 22be
00000060: 96fc 4fbe 0bbc 35be b14b 343e eedd 9ebd
00000070: 5b80 55be 8265 a73c e36d c93e 2318 973d
00000080: ad6c 0a3d affa ad3d 131e 31be 3850 553e
00000090: f1b8 ee3d 6054 dcbe 53d4 f7bc 17f5 c8bd
000000a0: 3a71 74be f291 6e3e aba9 a4bd 01e1 623d
000000b0: 5acb 043e 8858 0fbd b06f 9cbc b0be 253e
000000c0: 269f 4f3d 1699 9f3d 2ae3 883d e540 d2bd
000000d0: 51d1 383d 3119 f3bc 374a b3be 8ae8 2ebd
000000e0: b408 76be b75e e53d 9a5a 0bbd 1e17 743d
000000f0: f673 48bb 2d13 66bd 4388 88be 3668 403e
00000100: c4ca 0e3e 1019 5dbe 25cd 92be a7c2 ad3d
00000110: e7d1 96be 1d12 0b3e 679d c7bd c782 c9bc
00000120: 2544 38be 166b 6dbd 550b 1abe fc44 00be
00000130: d4bf abbe e023 d8bb 64b4 4d3d febc 533e
00000140: 202f 013e c0c7 573e 9b92 223c b3c4 35bc
00000150: 3683 923e d1ee 1c3e ebf3 253d f631 d43d
00000160: ad35 8a3d 9f6e ccbd 4a4c abbb cc80 34be
00000170: bd58 9dbc 66ff 93bd 34e4 823d 652d 423d
00000180: c99b 793e 634c 543d 5c0d 0bbd c730 fe3d
00000190: 817e 0ebe a8a9 0c3e 0b0a 753e 33aa 883c
000001a0: 8d49 923e e160 27bd c211 78bd 6000 cabd
000001b0: a739 133e 5c54 463b 142b ff3d 2d62 513e
000001c0: aed3 aabd 04a5 b9bd 3873 0c3d 1871 313d
000001d0: 347c 2c3e cf8c 883e e178 26be b807 95bd
000001e0: 07d1 693e 1ee0 d2bd fd4d ce3b 6312 08bd
000001f0: 6fcd aebe 8069 74be dd9b adbd 2999 7dbe
00000200: 5598 523d 0f79 553e ef31 1e3e ea8c 0b3e
00000210: 6f29 0e3e 294a 56be b99c 43be 2ec4 8bbd
00000220: 2aa0 b23d 1102 2a3e 255e acbc b714 933d
00000230: 72a5 413c b671 323e 2e8c 8e3e 9cc4 903d
00000240: 5889 b3bd f9f5 3a3e 1147 d1bd 2389 b6be
00000250: 4310 24bd 08ca bfbe 5751 833d d239 3cbe
00000260: 2274 b93d ef14 e53e c556 063e 686b 4a3e
00000270: 2de5 f43d 634a 5d3d 5d08 1fbe 2a5b 95bd
00000280: 891a f5bc dd04 c53c e941 a73d 568b 60be
00000290: 8b06 5b3d feeb 1c3e a79e 853c a17f 10be
000002a0: 6c0d 6b3d 2bb7 be3c a476 70be 9895 a2be
000002b0: 011c 323e e74e 39be 47a5 843d ac08 7b3e
000002c0: 56b3 ed3c 6ada 353e 1494 b3be b088 c83d
000002d0: 70ba 33bd 33c7 153d e27f 3b3c ad68 28be
000002e0: c924 7d3e 903a 3cbe 9f39 16be 9fb9 6cbe
000002f0: db0b 033d 3b9a 3f3e 50b2 3abe 2c4e 24bd
00000300: d056 63bd c73d 363e cac5 603d 2a95 52be
00000310: e14d 50bd 4304 053e 5384 14bd 5793 96be
00000320: 91ca c33d cc6b 27be 1d72 8a3e e0ee 453e
00000330: 3e44 f7bd 3dd0 00be edb8 a1be 2518 57bc
00000340: ee0b 4fbe f82a 46be ff67 07be 8717 e0bd
00000350: 22e1 3d3d 67ed f7bd 5e2f 823d d882 e63d
00000360: 6246 083e f52c 76bd 501a 3f3d 13fb bfbe
00000370: d0f6 c8bd 3e70 863e 519a 2b3d eb13 84bd
00000380: 86bc c1bd 9d2a 7b3e 11a7 39be 5380 963e
00000390: e158 16bd 0075 673e 6860 d33d 7b34 c63c
000003a0: f37e 4dbe bc08 70be e7e4 06be de13 0abe
000003b0: d9c1 9cbd 9059 463d 9f24 af3e e36b 7fbc
000003c0: a2a2 0e3e a897 5a3e 5be5 19be 6a0a 02be
000003d0: 0a7b 7dbe f857 11be c322 2a3e 41f9 df3b
000003e0: 7034 89bd d4c4 3f3c 669d 4f3d 0d4b 203e
000003f0: f96c 98be 2028 0f3d c0af f93d 9278 633d
0.14061533 0.1371597 -0.28588352 0.018798038 -0.09080885 0.18286373 0.06168544 -0.088270366
-0.20977938 -0.16221957 0.23389769 -0.07881177 -0.2911118 -0.007615589 -0.24720699 -0.009691957
-0.18927963 0.061350487 -0.14339185 0.05323651 -0.27405873 -0.06122292 0.19426739 -0.15835913
-0.20311198 -0.17747514 0.17606999 -0.077571735 -0.20849745 0.020434145 0.3934165 0.073776506
0.033795048 0.0849508 -0.17296629 0.20831382 0.116563685 -0.43033123 -0.030252611 -0.09812372
-0.23871318 0.23297861 -0.08040174 0.05539036 0.12968197 -0.03499654 -0.019096226 0.16186023
0.050688885 0.07792871 0.06683953 -0.10266284 0.045121495 -0.029675098 -0.3501756 -0.042702235
-0.24026757 0.11199706 -0.03402195 0.05959236 -0.0030586696 -0.05617063 -0.2666646 0.18789753
0.13944536 -0.21591592 -0.28672138 0.084843926 -0.29457018 0.13581128 -0.09746819 -0.024598492
-0.17994745 -0.057963453 -0.15043385 -0.12526315 -0.3354479 -0.0065960735 0.050220862 0.20677564
0.12615633 0.21072292 0.009922649 -0.01109426 0.2861573 0.15325476 0.04051582 0.10361092
0.06748519 -0.09982037 -0.0052276 -0.17627257 -0.019207353 -0.07226448 0.063911825 0.047406573
0.24375834 0.05183066 -0.033948287 0.12411647 -0.13915445 0.13736594 0.23929612 0.01668272
0.2857174 -0.040863875 -0.06056381 -0.09863353 0.14377461 0.0030262684 0.124593884 0.20447607
-0.08341156 -0.09064677 0.03428957 0.043320745 0.16844255 0.26669928 -0.16257049 -0.07276863
0.22833644 -0.10296653 0.006295918 -0.03322066 -0.34141108 -0.2386837 -0.08476994 -0.24765457
0.051414806 0.20846961 0.15448736 0.13627973 0.13882993 -0.20926727 -0.19102754 -0.06824528
0.08721955 0.16602351 -0.021040985 0.071816854 0.01181923 0.1742619 0.27841324 0.0706875
-0.087664306 0.18257894 -0.10218633 -0.35651502 -0.04005457 -0.37458825 0.06411999 -0.18381432
0.09055354 0.44742534 0.13119037 0.19767535 0.11957774 0.05402602 -0.15530534 -0.07292779
-0.02991988 0.02405017 0.08166868 -0.21928152 0.053473037 0.15324399 0.016311003 -0.14111187
0.057385847 0.0232807 -0.23482758 -0.31754756 0.17393495 -0.18096505 0.06476837 0.24515027
0.029016178 0.177591 -0.35073912 0.09791696 -0.043878973 0.036566924 0.011444064 -0.1644618
0.24721064 -0.18381715 -0.14670418 -0.23117684 0.031993728 0.18711178 -0.18232083 -0.040113613
-0.055502713 0.17797004 0.054876126 -0.20564714 -0.05085552 0.12989907 -0.036259007 -0.29409286
0.09560121 -0.16349715 0.27040187 0.19329405 -0.12073563 -0.12579437 -0.315864 -0.013128315
-0.20219395 -0.19352329 -0.13223265 -0.109419875 0.04635728 -0.12105828 0.06356691 0.11255425
0.13308099 -0.060101468 0.046655953 -0.37496242 -0.09812701 0.2625751 0.041895214 -0.064491116
-0.09459786 0.24527974 -0.18130137 0.2939478 -0.036705855 0.22603226 0.103211224 0.024194947
-0.20067959 -0.23440832 -0.13173257 -0.13484141 -0.07654161 0.048425257 0.34207627 -0.015589687
0.13929227 0.21346915 -0.15028898 -0.12699285 -0.24753967 -0.14193714 0.16614823 0.0068351333
-0.06699455 0.011704642 0.050687216 0.1565363 -0.2977064 0.034950376 0.12191725 0.055534907

encoder.3.bias f4 [16]
00000000: a61d 7abe d819 0b3d a6b5 73bd dae6 4d3e
00000010: 7bee 13be 6011 cabd 1594 b4bc caa2 243e
00000020: 8a2e afbc 17c2 0f3d 46db 253d 0f66 643e
00000030: 3fd6 df3d c22b 9b3d 9120 4dbe dec6 37bd
-0.24425372 0.033960193 -0.059499405 0.20107594 -0.14446442 -0.09866595 -0.022043267 0.16077724
-0.021384496 0.035097208 0.04049232 0.22304557 0.10929536 0.075767055 -0.20031954 -0.04486739

encoder.4.weight f4 [16]
00000000: db9a 873f 978b 723f a043 5f3f 5cdf 733f
00000010: 86de 8e3f 829a 833f eafd 623f 3dc3 783f
00000020: 8431 613f 97e0 543f 9afd 8e3f 0553 8c3f
00000030: 14f9 7e3f 80af 753f aa3b 7a3f bf7e 7e3f
1.0594133 0.9474425 0.8721256 0.95262694 1.1161659 1.0281527 0.8866869 0.9717291
0.8796618 0.83155197 1.1171143 1.0962836 0.99598813 0.95970917 0.9774729 0.9941215

encoder.4.bias f4 [16]
00000000: dcaa d2bd ecd3 93be cdf9 b2bb f9a6 0b3e
00000010: bc71 17be f741 41be b139 60be 0f0f 83be
00000020: 2e5e 6ebe 679c 22bf e96b b23e a527 b3be
00000030: 827a 33be eb8f 66be 3eec 97be d6e2 a53d
-0.10286495 -0.2887262 -0.0054619075 0.13637914 -0.1478948 -0.1887282 -0.21897008 -0.25597426
-0.23278114 -0.635199 0.34847954 -0.34991184 -0.17527202 -0.22515838 -0.29672426 0.08099906

encoder.4.running_mean f4 [16]
00000000: 6539 23bf 784d 88be e81b a6be 180a 123f
00000010: de76 a13e 0127 c7be 07bd 76be 0c02 5d3e
00000020: c74d f53d dc59 873d ee5f b33e 5c76 113f
00000030: 1edb 72be 8ec2 1abe 9985 eabe ae9e cdbe
-0.6375945 -0.26621604 -0.32443166 0.5704665 0.31536 -0.38896945 -0.24095546 0.21582812
0.119777255 0.06608936 0.35034126 0.5682123 -0.23716399 -0.15113279 -0.45805052 -0.40160125

encoder.4.running_var f4 [16]
00000000: 5e51 043f a161 ec3e 0c25 fa3d d34f 013f
00000010: a7c3 c53e a10d 873e 039f c73e 250b 9b3e
00000020: 7501 103e 7f8d 393e 56bd 2b3f 33b4 a43e
00000030: 555d c53e b12a af3e d36a 383e 9753 da3e
0.51686656 0.46168235 0.122140974 0.5051243 0.38625833 0.26377586 0.38988504 0.3028194
0.14063056 0.18120383 0.6708578 0.3216873 0.3854777 0.34212258 0.180095 0.426419

encoder.6.weight f4 [4, 16]
00000000: 82a5 6e3e b4a5 20be 185b 93bc 7576 d8bd
00000010: 6991 af3e f60f 983e 1d87 19be 97b1 7fbe
00000020: 1f3a ed3c 432a 2bbe 0614 ad3e ecbe b1be
00000030: c279 3e3e 9b74 83be 680e 0cbe 3ee4 2dbe
00000040: 8444 37be bfde 653e daa1 fd3d 69d7 1fbe
00000050: 88d3 203e 3bc3 b33c 3dad 7bbd 1222 d23d
00000060: 351a 92bd 03d5 a8be 9a54 2e3e 784a 95be
00000070: 8faf b33d 3354 cbbc 2f95 27be 5c41 99bd
00000080: b7ae 7fbd f96a 60be 6f03 5bbe f605 653e
00000090: 1f31 8bbe 31d1 053e fbb4 263e fd61 443e
000000a0: cfc8 503e 8171 d03d 18ed fa3d 7b7c 94be
000000b0: 3dac 83be 7b99 aabd c263 403e 45bd a53e
000000c0: f85f aebe 5ae1 57bd 4959 d8bd e36d 95bd
000000d0: 43b3 913e 9724 923e ca1c 7c3a 1d67 0cbe
000000e0: b789 0ebe 1674 393e 1f0e 7f3e 0b0b a6bd
000000f0: c949 59bd 8988 40be 181a 0f3e 197e 553e
0.23305324 -0.1568821 -0.017987773 -0.10569469 0.34290627 0.29699677 -0.14992948 -0.24970089
0.028958378 -0.1671534 0.3380434 -0.34715974 0.18601134 -0.256749 -0.1367737 -0.16981599
-0.1789723 0.22448252 0.12384386 -0.15609516 0.15705693 0.02194368 -0.06144451 0.10260405
-0.07133905 -0.32975015 0.1702446 -0.29158378 0.087737195 -0.024820423 -0.16365503 -0.074831694
-0.06242248 -0.21915807 -0.21388029 0.22365555 -0.27185914 0.13068081 0.16279976 0.19178005
0.20389102 0.10177899 0.12252253 -0.2900122 -0.25717345 -0.08330055 0.18788055 0.32370964
-0.34057593 -0.052705146 -0.10563905 -0.0729635 0.28457078 0.2854354 0.0009617327 -0.1371121
-0.13919722 0.1811069 0.2490773 -0.08107575 -0.053048883 -0.18802084 0.13974798 0.20848884

encoder.6.bias f4 [4]
00000000: 5df1 6bbe 52e2 083e b7ca e7bd f442 a3bb
-0.23041292 0.13367584 -0.11317962 -0.0049823467

decoder.0.weight f4 [16, 4]
00000000: 8186 b5be ac85 f73e cd97 c2be e701 98bd
00000010: de06 94be c041 e23e 403a 97be 489d b7be
00000020: acd5 773d 57ac 813d 2f67 dabe 82e8 a0be
00000030: 5116 783d 1f87 a3be 6025 b83e 8d8f b73e
00000040: 67aa 8a3e ad84 973e f570 d8bd d991 703e
00000050: 9f6b bcbe 0f53 4abe aed7 4a39 71f4 18be
00000060: 2051 b0be 9d80 8cbe 438f 6c3e 0ace ddbe
00000070: dd4d 17bf 1416 263d 2cb4 15bf 1da2 db3d
00000080: 395b 63bd e7a9 40be b785 35be bee4 13bf
00000090: ea07 c8be ecfa 01bf 5b54 603e 1b45 c7be
000000a0: 1b0b 1ebf ba82 e03d de3e a6be 6207 02be
000000b0: e1d0 3bbe e006 9f3d 31ef c73e 77fc d23e
000000c0: 047f 88be 76fc 8dbe 04b5 df3d 0505 23be
000000d0: afcd b23e cd05 49bd be06 c73e 3e6d cbbc
000000e0: 5c1c dc3e 03e1 923e 9b22 383e 8c40 06be
000000f0: 6814 343e b38a 113f f685 fd3e 5f40 81be
-0.3545418 0.4834417 -0.3800644 -0.07422238 -0.2891149 0.44190788 -0.2953663 -0.35862184
0.060506508 0.06331699 -0.42656848 -0.3142739 0.060568158 -0.31939027 0.35966015 0.35851708
0.27083132 0.2959341 -0.1056842 0.23493136 -0.36800858 -0.19758247 0.00019344568 -0.14936997
-0.34436893 -0.27441874 0.23101525 -0.43321258 -0.59103185 0.0405484 -0.58478045 0.1072428
-0.05550692 -0.18814813 -0.1772679 -0.5777091 -0.39068538 -0.507735 0.21907179 -0.3891991
-0.61735696 0.10962434 -0.3246984 -0.12698129 -0.183414 0.07764983 0.39049676 0.4120824
-0.26659405 -0.27731675 0.10923198 -0.15919884 0.3492255 -0.049077798 0.3887233 -0.024832364
0.42990386 0.28687295 0.17981951 -0.1311056 0.1758591 0.56852263 0.49516267 -0.25244424

decoder.0.bias f4 [16]
00000000: f514 ad3c 67c2 d0be 23bf c43e 818d de3e
00000010: dfc0 78bd 19b9 90be f1da 1a3f fa7f 8a3d
00000020: 8748 f4be d566 07be cfde b33e e585 c8be
00000030: 624f 0abf 3e1d 063f b066 50be b826 61bd
0.021128157 -0.40773317 0.38427076 0.43467334 -0.06073081 -0.28266218 0.6049033 0.06762691
-0.47711584 -0.13222821 0.35130927 -0.39164653 -0.5402738 0.5238837 -0.20351672 -0.054968566

decoder.1.weight f4 [16]
00000000: ab2a 523f f197 2f3f b18c 923f 9594 873f
00000010: 411e 763f 7784 5e3f a3b4 743f 8eb8 243f
00000020: 31af 1b3f 9691 9e3f a6b0 3a3f 60ad 8e3f
00000030: 9a4b 653f 3da7 593f 1e9a 583f 586d 213f
0.82096356 0.6859122 1.1449186 1.0592219 0.96139914 0.86920875 0.9558813 0.6434411
0.60814196 1.2388179 0.72925794 1.114666 0.89568484 0.8502081 0.84610164 0.6305747

decoder.1.bias f4 [16]
00000000: 275d cfbe e0fd a43b 817d 11bf d071 0cbf
00000010: 9cff 1e3f 3d20 c0be bb3b 32bf fe66 343e
00000020: 637b f4bd e724 37bf b95f dfbe 9987 04bf
00000030: 3494 0dbf 0c22 a8be 8725 b2be d4fe b9be
-0.40500757 0.005035147 -0.5683213 -0.54861164 0.6210878 -0.37524596 -0.6962239 0.17617413
-0.11937597 -0.71540684 -0.43627718 -0.51769406 -0.55304265 -0.32838476 -0.34794256 -0.3632723

decoder.1.running_mean f4 [16]
00000000: c8fd ec3d 1698 b6be 3e40 b43e 4fa2 d83e
00000010: 43f7 51bc 284e 98be 1871 0b3f 2baa 093e
00000020: 2cc6 10bf 3804 5fbe 37c2 cf3e 2643 a0be
00000030: 6f81 13bf a483 f83e ee2d 58be 2326 08bc
0.115718424 -0.35662907 0.35205263 0.42311332 -0.012815299 -0.29747128 0.5446944 0.1344382
-0.56552386 -0.21778953 0.40577862 -0.3130123 -0.57619375 0.48537934 -0.21111271 -0.008309874

decoder.1.running_var f4 [16]
00000000: ecf1 ae3d bc72 c33d 2b2d 263d 9753 4d3d
00000010: 6dfd 8d3d 2f15 b13d a4b6 f63d d41d 783e
00000020: 703b c73d 135d 243e 33e4 643e 58cc 113d
00000030: e0be 5a3d 880d c63d fbc6 cd3d 6330 c33d
0.08542237 0.09543368 0.04057042 0.050128546 0.06933103 0.086466186 0.12046555 0.24230129
0.09728134 0.1605113 0.22352676 0.035595268 0.05340469 0.0967055 0.10047718 0.095307134

decoder.3.weight f4 [32, 16]
00000000: 5319 6abe 5583 713d 10a7 3b3e fc3c 11bc
00000010: 7d48 ab3e 8c1e a63e 73bd bc3e 84bf 3abe
00000020: 67f1 e4bd a9f4 ee3d 672b 533e 141c 103f
00000030: f19e eb3c ea88 0fbb 2d4b d9bd 1d1f 8bbe
00000040: 794a ef3d 81a8 8d3e 0605 a1be d615 53bf
00000050: f461 183d cb33 d73d 8e62 683e 3fef 063e
00000060: 0f2b adbd 88e3 47bb 58c8 abbc ff53 cbbe
00000070: 6337 1abe 24c3 a8be 4524 873d df0a 013e
00000080: 96af 5e3e 3a9c 21bd 17cc cf3e 8879 bc3e
00000090: 09c1 813a b17f 82bc 581c 283e b645 003d
000000a0: b26c ba3c 21e2 ac3d f530 11bd 6155 d7be
000000b0: e4ad 5bbe 23e2 163e 952a fabc c47d e93b
000000c0: b2e6 763e 4868 043e 8b9a 4fbd 124d 2c3d
000000d0: b4f2 08be 8d19 89be 68a5 c0be 3b1a 773d
000000e0: d30b 04be eda1 e9be 9745 30be 05fc 573d
000000f0: 4476 a0be d472 6b3d 0cfe bc3d 53c8 363c
00000100: 0cb6 17bf 06e1 9abe 5cad dabe 3bd6 6cbc
00000110: e39f 6f3d 74cb 7ebd f9f6 463e 6ae8 8f3c
00000120: 1540 3abe 73de 613e b714 5cbe 55e1 c1bd
00000130: feb0 133d 2144 84be 0dd4 1f3d 3dba a3bd
00000140: 434e f6be d91f d63d d7a0 e1bd 329e 9e3d
00000150: db16 6abd 5a6e 923e 4b5a 9abe 3607 c8bd
00000160: 392c 93be ee60 5ebd 19f3 6cbe 95af 373d
00000170: d999 d73d 2f99 4cbe 9d13 7b3c 3f6b 473e
00000180: c42a c1bd 9388 3abd 9696 db3d 6150 a93d
00000190: 1057 3d3c 1dd1 e1bc 0b6e c13e 837b e43d
000001a0: 002c 133e 798c 173f 3c49 37be 9a57 0d3e
000001b0: 4aba 8d3e 7e6d 49be 7988 b8be 9501 0fbe
000001c0: 7a88 663e 0cb0 ffbd 20df 2bbe f625 423d
000001d0: e4df 7fbe b710 38bf 29bf 54bd 62bc bd3c
000001e0: 19e5 413e 333a 6fbe 5106 ca3d 9145 09be
000001f0: bcbb 01be ea56 983d 1ece 1c3e 2f33 f03d
00000200: 5454 343d 59d5 3fbd 3a00 d93d 1b8f 38bd
00000210: fbf7 9abe a440 6b3e 2ffc 07bf 227e 0fbe
00000220: a2e4 debd ea14 f9be 81a8 6f3e 3101 523d
00000230: 412b 01be 33ba b13d 2de3 cc3d a980 06bc
00000240: 7996 b03d 6347 46bd 636a 77be 4fc9 dcbe
00000250: 261e 2cbe f534 ebbd d293 c0bd 7e67 993d
00000260: ea4e 963b b671 8b3d a08c 663d 4058 0abf
00000270: b940 c1bb 516d c03e 414f 6e3e 792a 3dbe
00000280: bdda 8b3d a7c4 6e3e 347e d4bd 3fe6 663d
00000290: f6d0 78be 09d0 0ebe 2889 f9be e94d a7bd
000002a0: 2dcd 2abe 7f2d 08bf 9ddb 653e f57e c9bc
000002b0: d484 0fbf 2293 a4bd a67c 0b3d 710a c83b
000002c0: 266a 503e 8d76 31bc 4bc8 9bbd 8ce4 b2bd
000002d0: 89e3 99be 6a79 f43c 6587 01bf 1cae 61be
000002e0: 4a3c 1abd f2ef 04bf 4173 d7bc 18b5 82bd
000002f0: 77ea 74be 4453 f23d 07dd 833c f9c5 1bbd
00000300: bf45 36be 0658 86be 7e05 85bd 8678 9bbe
00000310: 65d6 9d3e a6ff 403e 9450 8e3e 209c 14bd
00000320: 0137 233d 463b 263e 6ba8 d93d db77 d8be
00000330: a4c8 953e 25ae 25be 4da2 17bd 52a1 003e
00000340: 3da4 733d ce4e 643e d75c 9fbd f027 613f
00000350: bd0b 94bd a606 74be cecc f3bd 640f 42bc
00000360: dd0c 0abd 9255 423e 474f 513c ca75 053e
00000370: aded 4e3b ebf1 9c3d a8f1 64bd ceb3 4cbc
00000380: db79 6a3d fc78 1ebc 9ece ffbd 931c 5e3e
00000390: 9d53 223e 1928 27bd 6619 f83e 3a8c ca3b
000003a0: 5114 173e 41e4 813f 35b2 193e 8a01 92bd
000003b0: 1710 133f 5534 3abe 5439 db3d 4025 5e3c
000003c0: 2e3f ec3d 78b6 b83c ac06 793e b29d 063e
000003d0: 80a5 84be a5e0 eabd b1d9 2b3e 19e4 cbbe
000003e0: c624 10be 0447 6d3e 6d71 04be 9fb8 693e
000003f0: baef c2bd 3cd1 adbd 1257 ecbe bebb 81be
-0.22861223 0.05896314 0.18325448 -0.008864637 0.33453742 0.3244518 0.36863288 -0.1823712
-0.11178856 0.11667759 0.20622025 0.56292844 0.028762313 -0.0021901675 -0.10610042 -0.27172175
0.116841264 0.2766762 -0.31449145 -0.82455194 0.03720279 0.105079256 0.22693846 0.13177203
-0.084554784 -0.003050061 -0.020969555 -0.3971252 -0.15060191 -0.3296138 0.06598715 0.12601803
0.21746668 -0.03945563 0.40585396 0.3681147 0.0009899448 -0.015930029 0.16417062 0.03131648
0.022756908 0.08441568 -0.03544708 -0.42057326 -0.21453053 0.14734702 -0.030537883 0.007125588
0.24111441 0.12930405 -0.050684493 0.042065687 -0.13373834 -0.26777306 -0.37626195 0.06032775
-0.12895136 -0.45631352 -0.17214046 0.05273058 -0.3134023 0.057482556 0.09228143 0.011156159
-0.59262156 -0.30249804 -0.42710388 -0.014455373 0.05850209 -0.062205747 0.1943015 0.017566878
-0.18188508 0.22057514 -0.21492277 -0.09466807 0.036057465 -0.25833228 0.039020587 -0.079945065
-0.48106584 0.10455293 -0.11017006 0.07745017 -0.057150703 0.28599817 -0.30147013 -0.097670004
-0.28744677 -0.054291658 -0.2313961 0.044845182 0.10527391 -0.1998031 0.0153245 0.19474505
-0.09431985 -0.045540404 0.10722081 0.08267284 0.011556402 -0.027565533 0.3777927 0.111563705
0.14372253 0.5919872 -0.1789903 0.13802949 0.2768119 -0.19670674 -0.3604162 -0.13965447
0.22512999 -0.1248475 -0.16784334 0.047399484 -0.24987751 -0.71900505 -0.051940117 0.023161117
0.1893505 -0.23362045 0.09864486 -0.13405444 -0.12669271 0.074384525 0.15313002 0.117285125
0.044025734 -0.046834324 0.10595746 -0.04505835 -0.3026732 0.22973877 -0.53119177 -0.1401296
-0.10883452 -0.4864877 0.23404123 0.051270667 -0.12614156 0.08678093 0.10004268 -0.008209386
0.086224504 -0.048407923 -0.24161677 -0.43122336 -0.16808376 -0.1148471 -0.094031945 0.07490443
0.004587044 0.06808798 0.056286454 -0.5404091 -0.005897608 0.37583402 0.2327242 -0.18473233
0.068288304 0.23317204 -0.10375634 0.056371924 -0.24298462 -0.13946547 -0.48737454 -0.08169157
-0.16679831 -0.5319442 0.22447057 -0.02459667 -0.56062055 -0.08035876 0.03405442 0.0061047603
0.20352992 -0.010831487 -0.07606562 -0.08734998 -0.30056408 0.029843051 -0.5059722 -0.22039074
-0.037655152 -0.5192863 -0.026300075 -0.06382197 -0.23917566 0.11832288 0.016096605 -0.0380306
-0.17800044 -0.26239032 -0.06495188 -0.3036539 0.30827633 0.18847522 0.2779585 -0.036281705
0.039847378 0.16233549 0.10627826 -0.42278942 0.2925464 -0.16179712 -0.037020016 0.12561539
0.0594828 0.22295687 -0.0778138 0.87951565 -0.072288014 -0.23830661 -0.11904298 -0.01184449
-0.033703674 0.18977955 0.012775249 0.13033214 0.0031574771 0.0766333 -0.055894524 -0.012494041
0.057245117 -0.0096724 -0.12490581 0.21690588 0.15852208 -0.040809724 0.48456877 0.006181267
0.14753844 1.0147783 0.15009387 -0.071292 0.57446426 -0.18184026 0.10704294 0.013558686
0.11535488 0.022547945 0.24318951 0.13146093 -0.25907516 -0.11468629 0.16782261 -0.39822462
-0.14076528 0.23171622 -0.12933894 0.22824334 -0.095183805 -0.08487174 -0.4616018 -0.25338548

decoder.3.bias f4 [32]
00000000: e4fc 323e 4d9f b0bd 1e33 163e 8600 393d
00000010: 90e2 e8bd 20b8 bf3d d262 f43d d0fd b0bd
00000020: 1cf8 7b3e f663 76be d7e0 5abe 777b dbbd
00000030: 4c43 b93d 1118 42bd ec71 8ebe 2ad5 053e
00000040: 96fd 66be 838d 67be adf4 d53d 737a 7aba
00000050: c2b6 a13d 3d46 90be c4b0 2a3d 853d a43d
00000060: a998 a1bd 0830 25be 0bab 993d d825 d3bd
00000070: cf6f b3be 518f 523e 020b f8bd 1168 2d3d
0.17479283 -0.08624134 0.14667937 0.045166515 -0.11371338 0.09361291 0.11932911 -0.08642161
0.24606365 -0.2406157 -0.21374832 -0.107169084 0.09046039 -0.047386233 -0.2782129 0.13069597
-0.22557673 -0.22612576 0.10447059 -0.00095549895 0.078961864 -0.28178588 0.041672483 0.080195464
-0.07890446 -0.16131604 0.07503327 -0.103099525 -0.3504624 0.20562483 -0.121114746 0.042335574

decoder.4.weight f4 [32]
00000000: f8b1 8d3f f4a6 7c3f 25c2 933f d1b8 813f
00000010: 25d7 8f3f 2429 843f 2443 863f 04e1 673f
00000020: ff69 993f ff00 923f c8ea 883f 54f8 903f
00000030: 8ba6 8d3f 7b44 a13f 60c4 8e3f 8b65 333f
00000040: 9f4e 643f a284 743f 7293 583f b33f 8c3f
00000050: 28b0 753f 80a8 8a3f 88ef 903f 264d 953f
00000060: 0c61 553f f8a1 b43f f9dc 9e3f 5e32 7b3f
00000070: ce9d 913f a049 8b3f feda 953f eb6f 8f3f
1.1069937 0.9869225 1.1543623 1.0134526 1.1237532 1.0325055 1.048924 0.9057772
1.1985472 1.1406554 1.069665 1.1325784 1.106645 1.2599024 1.1153679 0.7007682
0.89182466 0.9551488 0.84599984 1.095694 0.9597192 1.0832672 1.1323099 1.1664169
0.83351207 1.4111929 1.2411186 0.9812373 1.1376283 1.0881844 1.1707456 1.120603

decoder.4.bias f4 [32]
00000000: 72a8 943e 48dd abbe 67f8 843c 820c d0be
00000010: 8d5d ecbe 3dd0 bdbe d0e9 793c 315f b7be
00000020: c65e ffbe c9ff e8be b364 efbe e089 02bf
00000030: cfd9 12bf feaf a53e ec50 193e e502 b9be
00000040: 0515 3cbe c339 d3be bea7 e3be 276a fbbe
00000050: 1c97 bebd 3bf8 f0be 69b7 d4be 382c f9be
00000060: affe 4ebe 3f09 b43e feeb 4f3e 819a d7be
00000070: 7026 f8be eb03 9abd 68ad 03bf ca43 e1be
0.29034764 -0.33567262 0.016231729 -0.40634543 -0.46165124 -0.37072936 0.015253499 -0.35814813
-0.49876994 -0.4550765 -0.46756515 -0.5099163 -0.573636 0.32360834 0.14972275 -0.3613502
-0.18367393 -0.41255006 -0.44463915 -0.49104425 -0.093061656 -0.47064385 -0.4154618 -0.4866655
-0.20214342 0.35163304 0.20304868 -0.42110065 -0.48466825 -0.075202785 -0.5143647 -0.4399703

decoder.4.running_mean f4 [32]
00000000: 8460 dd3e e4fd c8bd 8c8e 383e 4ba3 01bd
00000010: 2834 73be 44a9 bb3a 28d1 213e e6e7 aabe
00000020: b4c8 8bbb 066b c6be f112 d6be 1515 d0be
00000030: 855d 3d3e 6a08 143c b324 efbd a0fd 4ebe
00000040: f4f8 b2be 569a 7ebe 0531 16bc a7f5 83be
00000050: 599c 0b3e c476 ccbe 642d ecbc 22ca 0fbc
00000060: 4b3b a8bd 440e 013d f042 7e3e 4d93 5cbe
00000070: 04fb c0be 9093 aa3e 19ad cabe 6a62 a53b
0.43237698 -0.09814051 0.18023127 -0.03164987 -0.23750365 0.0014317413 0.15802443 -0.3338005
-0.004265869 -0.38753527 -0.41811326 -0.40641084 0.18492706 0.009035209 -0.11676922 -0.20213938
-0.3495556 -0.24863562 -0.009166961 -0.25773355 0.1363386 -0.3993436 -0.028830238 -0.00877622
-0.08214434 0.031507745 0.24830222 -0.21540566 -0.3769151 0.33315706 -0.39585188 0.0050471323

decoder.4.running_var f4 [32]
00000000: 36eb f33d 557d 353f 9e9c bb3d fefc be3e
00000010: 5680 8b3e 0e96 ed3d e821 043f 4672 003e
00000020: 436a d33d 6a42 3e3e 6fc3 bd3e 909c 583e
00000030: fbae 503e ccb3 9c3e fffd 543f f520 ca3d
00000040: 6fe0 8d3e 4dcc 333e f292 4c3d 2cec 893e
00000050: 3bde 2e3e 1360 c63e f92f cf3e f580 f13e
00000060: a5c9 8c3e eecb e13e eea4 003f 4863 033e
00000070: 532d 0a3e f2f1 9b3e 0dfe 7a3e bdf3 8d3e
0.11910097 0.70894367 0.09160732 0.37302393 0.2724635 0.11600886 0.51614237 0.12543592
0.10323002 0.18580022 0.37063166 0.21153474 0.2037925 0.30605924 0.8320007 0.09869567
0.27710292 0.17558403 0.049944825 0.26937997 0.17076962 0.38745174 0.40466288 0.471687
0.27497593 0.44100899 0.5025166 0.12830842 0.13493852 0.30458027 0.24510975 0.2772502

decoder.6.weight f4 [6, 32]
00000000: 47f5 f33e 0bea da3e bee8 3a3e d9db 08bf
00000010: d8f1 063f fe29 7fbd 21fa c4be 18e9 abbe
00000020: f741 4abf 3b99 c13e aee1 40bf 3aed 37bf
00000030: 7124 5c3f 0d32 cf3e 40c3 e1be f3f8 cebd
00000040: 0cf1 02be 3344 853e f08c e9be 1120 30bf
00000050: 7784 cabe 0056 e63e 4690 243f 624a 54bf
00000060: e67e fd3c 704d 1bbf f54a 08bf cf45 823e
00000070: 1cf9 d73d a333 453e dbd2 a9bf 2cd8 993e
00000080: 13c2 9abd 5fb1 7bbe 0749 2b3f 72d0 ed3b
00000090: 7f57 543e a2bf 053f 2226 8abd 7b67 83be
000000a0: 6bc1 62be 992c 8e3f 27a7 b93e 8993 bf3d
000000b0: a9a0 dc3e 40b0 bb3e 7993 793d e0ac 733e
000000c0: 47a9 99be 4b29 25bf d61f d7be 9ee5 b3be
000000d0: 37d7 3ebe f50d c43e 2690 cf3e dea7 1bbe
000000e0: 4e04 d8be 6c8e f93c f7bb 14be 84a9 353f
000000f0: 7c48 963f e314 363e 77ea cf3e b2eb 353f
00000100: b9eb dfbe 4cfe 0cbf 9277 70be f1fd 1b3f
00000110: 6442 07bf 0b38 1dbd 562d 943e 8389 833e
00000120: ad13 413f f688 06bf 5c7a 3f3f 93fe 323f
00000130: fa03 2fbf c12b 02bf 45e5 953e 5697 253e
00000140: 7127 1d3e 7cdf b3be d7f6 af3e f8c3 fc3e
00000150: 09e0 f73e c9ae 1ebf 19b7 6ebf 5d31 333f
00000160: 51a2 fbbc 7a1c 1b3f ae7a fd3e 0787 bbbe
00000170: 8d96 68be 429c bcbe 5fde 853f fc6c 19bf
00000180: a43b b33e a873 7a3e 9d3f 643e f7f8 d8be
00000190: e361 2e3f 64ae f33e 6059 10bf 0a75 d3be
000001a0: 43a7 6dbf fe29 aa3e 4dd4 00bf 8b21 80bf
000001b0: 6a08 593f ccaf b33e 1f38 ebbe 0cd8 75bd
000001c0: b0fd dbbe 61ba a83e fd66 8ebe 08c3 49bf
000001d0: ddef 33bd 73e3 4f3f 849c 003f f134 4dbf
000001e0: b404 973e 13d9 21bf 6106 9fbe 8ca9 ba3e
000001f0: 838d 343e f604 ee3e 4c12 61bf 3d14 d93e
00000200: 7cc1 bdbe c1ee e5be b2b9 46be d38a 0d3f
00000210: fa43 3bbf 1e47 e7be c331 9e3e 2051 c83e
00000220: 46cb 713f 5ccf 97be a519 193f d793 573f
00000230: 34f5 66bf 8aea debe 1d87 0d3f 7129 773e
00000240: e682 2d3e 6efa b2be 56b8 6c3e bb36 603f
00000250: d53d 913e 0bb7 57bf 24c6 f6be 0b00 3d3f
00000260: 1338 1bbe 4ef9 053f dcfd 153f 33d0 ebbe
00000270: 9141 15be 1c4d 0abf d948 913f 795d efbe
00000280: 7213 a23c 486c 2d3e f708 c63d 7414 a5bd
00000290: 4a26 f83d 5ef6 acbc 1086 bebd 7e7b 86bd
000002a0: 9d73 9cbd 8722 5a3d 6548 b4bc a76d 69bd
000002b0: 0186 823d e5cf 313e 5aaf 0fbe 229f edbc
000002c0: 9c44 25bd 40a3 2fbd e478 5ebe 7a13 a0bd
000002d0: be0c fabd 6318 813e acab ba3e 9f23 21bd
000002e0: 061e 41bd 13c6 a0bd 32e5 143d ee03 ed3d
000002f0: b0df 6839 aced c93c c24d 15be c2ac a63e
0.4764807 0.42756686 0.18252847 -0.5346046 0.52712774 -0.062295906 -0.38472083 -0.33576274
-0.79006904 0.37812218 -0.7534436 -0.71846354 0.85993105 0.40467873 -0.44094276 -0.10106077
-0.12787265 0.26028594 -0.4561534 -0.6879893 -0.39554188 0.44987488 0.64282644 -0.82926
0.030944299 -0.60665035 -0.53239375 0.25443885 0.10545561 0.19257979 -1.3267473 0.3004774
-0.07556548 -0.2457938 0.66908306 0.0072575146 0.20736502 0.52245533 -0.067455545 -0.25664887
-0.22144096 1.110736 0.3626034 0.09354312 0.43091324 0.36657906 0.060931657 0.23796415
-0.3001196 -0.64516133 -0.42016476 -0.35136122 -0.18636785 0.38291898 0.40539664 -0.15200755
-0.42190784 0.03046342 -0.14524828 0.70961785 1.174087 0.17781405 0.4060857 0.7106277
-0.4373453 -0.55075526 -0.23483112 0.6093436 -0.5283568 -0.038383525 0.2894084 0.2569085
0.7542065 -0.52552736 0.7479608 0.699197 -0.6836544 -0.50848013 0.2927648 0.16171011
0.15347077 -0.35131443 0.3436801 0.49368262 0.48413113 -0.6198545 -0.93248135 0.699972
-0.030717047 0.60590327 0.4950766 -0.36626455 -0.2271368 -0.36837965 1.0458487 -0.5993192
0.3500644 0.24458182 0.22289892 -0.42377445 0.68118113 0.47593987 -0.56386375 -0.4130023
-0.92833346 0.33235162 -0.50323945 -1.0010237 0.84778464 0.3509506 -0.45941254 -0.06002049
-0.42966986 0.32954696 -0.2781295 -0.7881322 -0.043929923 0.81206435 0.50238824 -0.8015891
0.29495776 -0.63221854 -0.31059554 0.3645748 0.17632107 0.4648816 -0.87918544 0.42398253
-0.3706168 -0.44908717 -0.19406775 0.55289954 -0.731506 -0.45171446 0.3089734 0.39124393
0.94450796 -0.2965039 0.59804755 0.8420996 -0.902179 -0.43538314 0.5528429 0.24136902
0.16944465 -0.34956688 0.23117194 0.8758351 0.28367487 -0.84263676 -0.48198044 0.7382819
-0.1515811 0.52333534 0.58590484 -0.4605728 -0.14575793 -0.5402391 1.1350356 -0.46751
0.019784663 0.16935837 0.09669679 -0.08060542 0.12116678 -0.02111357 -0.09302914 -0.06566523
-0.07639239 0.053255584 -0.022007177 -0.05698934 0.063732155 0.17364462 -0.14031735 -0.029006545
-0.040348634 -0.042880297 -0.21725804 -0.07816215 -0.12209462 0.25213918 0.364591 -0.03934061
-0.047147773 -0.0785028 0.03635139 0.11573015 0.00022208574 0.024649464 -0.14580444 0.3255368

decoder.6.bias f4 [6]
00000000: 3289 9b3e c631 b6be ce49 73bc f093 283e
00000010: 6250 09be f98c f3bd
0.3037811 -0.3558485 -0.014849139 0.16462684 -0.1340957 -0.11892123
