anomaly_model/876_model.pt (torch, 18238 bytes, 28 tensors)

encoder.0.weight f4 [32, 6]
0.02772119 -0.5961241 -0.6822358 -0.1614875 -0.34760958 -0.16581394 0.30500993 -0.09618592
-0.31178167 -0.20287679 0.10090861 -0.8043144 -0.06907828 0.47872674 0.4089917 -0.21789978
0.030760134 -0.02322771 -0.3140594 -0.4347722 -0.11198732 -0.56177956 -0.09143069 -0.03606065
-0.19980286 -0.4079434 -0.15649834 -0.443438 0.16938534 -0.09790961 -0.19790424 -0.4539724
-0.34077638 0.056966603 0.5888174 -0.19082828 0.10391406 0.31919163 -0.21230528 -0.2193822
-0.24407956 -0.42781323 -0.03192745 -0.111787915 -0.027288053 0.55748445 -0.5516258 0.16073944
0.1196568 -0.16315168 -0.3920225 0.18377389 -0.44154537 -0.49414012 -0.20165342 0.19434461
0.49239355 0.10412196 -0.07083884 0.15829888 0.45607632 -0.029696766 -0.1802736 -0.46002105
0.16144945 -0.41768125 0.1602845 -0.12520121 0.35061476 -0.096185654 0.32635498 -0.69314784
0.19915502 -0.24953072 0.42272076 0.1777479 0.040262144 -0.58398235 0.26799646 -0.19561915
-0.41842327 -0.13991916 0.08523606 0.473353 0.08387455 0.2453615 -0.1792881 -0.19999836
-0.11156574 0.6137001 -0.10150411 0.13316047 -0.2311106 -0.27313116 0.6869244 -0.5001245
0.24236672 -0.40229246 0.22347799 -0.4546779 0.075079605 0.5067058 -0.04185637 0.2213197
-0.6942826 -0.141266 -0.39895207 -0.060094506 0.17617817 0.05133192 0.07370458 -0.44985172
-0.29209897 -0.958932 0.44140568 2.2439046e-05 -0.05697945 -0.03615894 0.53504044 -0.73533076
-0.09480249 -0.13474575 0.8431027 -0.057244822 0.48041904 0.31025454 -0.16248746 0.44751492
0.006646315 -0.20004968 -0.09137318 -0.6771656 0.19878697 0.45694223 -0.20546217 0.24210075
-0.18610658 -0.14648385 0.48428088 -0.03593608 0.33095202 0.3980539 -0.29513356 -0.09542715
0.28947073 0.13828766 0.27660522 0.32993546 -0.089325644 -0.289591 0.2738352 -0.06435624
0.5247241 0.21251853 0.37896976 0.056594186 0.040469557 -0.17816317 0.013712112 0.80152315
-0.5972361 -0.088619895 -0.3067254 -0.1500339 0.33555055 -0.2161756 0.14115587 -0.19058348
0.29076266 -0.43213132 0.17687011 0.1969658 0.15952049 0.24558562 -0.09334338 -0.16829593
-0.15754804 -0.21068887 0.06859474 -0.75758016 0.38999584 0.33970478 0.53321314 0.26009536
-0.099468976 -0.37002409 -0.01605527 0.50766426 -0.66560876 0.25524387 0.18192501 0.3156969
00000000: 8d17 e33c 979b 18bf 01a7 2ebf fb5c 25be
00000010: e2f9 b1be 21cb 29be 432a 9c3e 20fd c4bd
00000020: d9a1 9fbe efbe 4fbe 2ca9 ce3d 8ce7 4dbf
00000030: ea78 8dbd ac1b f53e 5c67 d13e 1f21 5fbe
00000040: adfc fb3c 0a48 bebc 65cc a0be 769a debe
00000050: 9c59 e5bd c9d0 0fbf 0340 bbbd 55b4 13bd
00000060: 1f99 4cbe f5dd d0be 1a41 20be 4e0a e3be
00000070: 5a73 2d3e d584 c8bd 69a7 4abe 126f e8be
00000080: 3e7a aebe d055 693d bdbc 163f 7d68 43be
00000090: e5d0 d43d 166d a33e 8e66 59be baa5 60be
000000a0: feef 79be 560a dbbe 5cc6 02bd 10f1 e4bd
000000b0: 328b dfbc 4db7 0e3f 5937 0dbf e198 243e
000000c0: a00e f53d 3c11 27be 2cb7 c8be 392f 3c3e
000000d0: 3c12 e2be efff fcbe 3c7e 4ebe 4602 473e
000000e0: 021b fc3e e53d d53d f413 91bd 1a19 223e
000000f0: d682 e93e a246 f3bc a599 38be e187 ebbe
00000100: 0153 253e 51da d5be 9f21 243e bf34 00be
00000110: c783 b33e fcfc c4bd 0018 a73e 2372 31bf
00000120: 4bef 4b3e fb84 7fbe db6e d83e 8c03 363e
00000130: ebe9 243d de7f 15bf d536 893e 6350 48be
00000140: 933b d6be f846 0fbe 3e90 ae3d 535b f23e
00000150: 6cc6 ab3d 0c40 7b3e 4d97 37be 5fcc 4cbe
00000160: 947c e4bd 731b 1d3f 63e1 cfbd 385b 083e
00000170: 42a8 6cbe d9d7 8bbe 47da 2f3f 2908 00bf
00000180: fb2e 783e 47f9 cdbe 6ad7 643e 8bcb e8be
00000190: 56c3 993d 79b7 013f 9671 2bbd a2a1 623e
000001a0: 81bc 31bf 09a8 10be 7243 ccbe a825 76bd
000001b0: 0d68 343e 6b41 523d 6df2 963d f752 e6be
000001c0: ff8d 95be 917c 75bf edff e13e 7c3b bc37
000001d0: 4963 69bd 661b 14bd 69f8 083f a33e 3cbf
000001e0: cf27 c2bd cafa 09be 94d5 573f 8c79 6abd
000001f0: 7cf9 f53e afd9 9e3e 1d63 26be ad20 e53e
00000200: 55c9 d93b d3d9 4cbe dd21 bbbd ba5a 2dbf
00000210: d08e 4b3e 55f4 e93e ad64 52be 42e9 773e
00000220: b992 3ebe ddff 15be aaf3 f73e b631 13bd
00000230: 8b72 a93e b9cd cb3e bf1b 97be 4f6f c3bd
00000240: 8235 943e 489b 0d3e 339f 8d3e 4ded a83e
00000250: 5df0 b6bd 4645 94be 2134 8c3e 34cd 83bd
00000260: 5254 063f 759e 593e 5308 c23e 4ecf 673d
00000270: 68c3 253d 6870 36be c4a8 603c 9f30 4d3f
00000280: 77e4 18bf 597e b5bd 1d0b 9dbe 7da2 19be
00000290: 48cd ab3e 235d 5dbe 2a8b 103e 5128 43be
000002a0: d8de 943e 5140 ddbe 701d 353e 67b1 493e
000002b0: 5759 233e cc7a 7b3e d02a bfbd c555 2cbe
000002c0: 4654 21be d3be 57be 667b 8c3d c6f0 41bf
000002d0: 89ad c73e c9ed ad3e a880 083f 382b 853e
000002e0: 64b6 cbbd cc73 bdbe 5786 83bc 49f6 013f
000002f0: 5665 2abf 53af 823e 8d4a 3a3e 06a3 a13e

encoder.0.bias f4 [32]
0.37505606 -0.12921959 -0.19953975 0.090667404 -0.42921025 -0.02781582 -0.0029283662 0.19717889
-0.0660446 -0.039674636 0.1635954 0.3975819 -0.28954893 -0.16818959 -0.28167355 0.11317473
0.30581513 -0.24555233 -0.18479623 0.023691148 0.5689445 0.16688362 -0.100473806 0.008256357
-0.1598841 0.23929575 -0.5347202 0.16375917 0.2587651 0.0588266 0.22642072 -0.010700905
00000000: 5907 c03e 2452 04be 2654 4cbe d5af b93d
00000010: 72c1 dbbe 01de e3bc d5e9 3fbb 43e9 493e
00000020: 6442 87bd df81 22bd 8d85 273e db8f cb3e
00000030: c23f 94be e439 2cbe 8437 90be 27c8 e73d
00000040: cd93 9c3e 1272 7bbe 393b 3dbe f013 c23c
00000050: 59a6 113f 8ae3 2a3e 36c5 cdbd ac45 073c
00000060: a8b8 23be f209 753e 6ce3 08bf 7cb0 273e
00000070: dc7c 843e 29f4 703d d5da 673e d952 2fbc

encoder.1.weight f4 [32]
1.0698607 1.043214 0.9524827 0.9689019 0.8137372 0.9801837 0.99424356 1.0862663
0.9216535 1.0373948 0.90124476 1.0739402 1.0232997 0.98926586 1.1217684 1.0187961
0.97736496 0.8912807 0.95277756 1.0929 1.2361412 0.8179717 0.99102473 0.8117159
0.93449473 1.0526874 1.0324667 0.8241716 0.9440539 1.0655661 0.8620053 0.9441717
00000000: 32f1 883f 0988 853f e8d5 733f f409 783f
00000010: 1551 503f 52ed 7a3f bf86 7e3f c60a 8b3f
00000020: 7cf1 6b3f 5ac9 843f fab7 663f df76 893f
00000030: 7cfb 823f 8740 7d3f 1b96 8f3f e967 823f
00000040: 9734 7a3f f92a 643f 3be9 733f 26e4 8b3f
00000050: e039 9e3f 9866 513f ccb3 7d3f 9dcc 4f3f
00000060: 0c3b 6f3f 76be 863f de27 843f e9fc 523f
00000070: 84ad 713f 7864 883f 61ac 5c3f 3db5 713f

encoder.1.bias f4 [32]
0.4429692 0.21762398 -0.27221084 -0.19218466 -0.1883102 0.4902331 -0.20381053 0.47836977
-0.21328376 -0.058031697 -0.21701367 0.014446699 -0.25934508 0.37354752 -0.0052231066 0.5162795
0.25079498 -0.41355595 -0.2264285 -0.33365867 -0.119702555 -0.029695982 0.0503179 0.13707998
-0.22911759 -0.07523165 -0.066838175 0.3844236 -0.19233918 0.3071314 -0.50198776 -0.09665664
00000000: dccc e23e d2d8 5e3e 385f 8bbe 0ecc 44be
00000010: 64d4 40be d5ff fa3e b5b3 50be e2ec f43e
00000020: 0f67 5abe a5b2 6dbd d538 5ebe d9b1 6c3c
00000030: e1c8 84be 9f41 bf3e 9826 abbb e52a 043f
00000040: 3368 803e 9bbd d3be dfdc 67be 4fd5 aabe
00000050: 9d26 f5bd fd44 f3bc 241a 4e3d b25e 0c3e
00000060: cd9d 6abe 0d13 9abd 74e2 88bd 2cd3 c43e
00000070: 90f4 44be 5440 9d3e 4582 00bf ebf3 c5bd

encoder.1.running_mean f4 [32]
0.690009 1.2414019 -0.1973314 0.19003195 -0.20070621 0.34828568 0.6730128 -0.16703805
0.696014 -0.36841512 0.9603306 1.5666112 0.65822476 -0.8329952 -1.2494106 0.98745465
-0.38824362 -0.1765946 1.3737944 1.3134522 0.10290384 1.1976403 0.08376543 0.14768717
0.28151563 0.19137031 -0.5130632 0.46320036 -0.06750611 1.2920542 0.7873877 -0.5412286
00000000: 6ea4 303f 42e6 9e3f 3e11 4abe bc97 423e
00000010: ee85 4dbe 8052 b23e 914a 2c3f 060c 2bbe
00000020: f92d 323f e8a0 bcbe 3ad8 753f b786 c83f
00000030: 6b81 283f 2c3f 55bf b0ec 9fbf d4c9 7c3f
00000040: dec7 c6be 37d5 34be 7fd8 af3f 341f a83f
00000050: 40bf d23d 474c 993f 368d ab3d 4e3b 173e
00000060: d122 903e 94f6 433e 1c58 03bf 9928 ed3e
00000070: a540 8abd 0862 a53f 3e92 493f f58d 0abf

encoder.1.running_var f4 [32]
0.07568303 0.029425586 0.049633324 0.07218274 0.050007094 0.05798936 0.0248977 0.008732691
0.011423285 0.02008075 0.063278474 0.011536712 0.024629392 0.029895065 0.014590747 0.011085217
0.051477995 0.011296967 0.010741632 0.058447175 0.008351597 0.049329493 0.05728034 0.07283614
0.03147563 0.023492204 0.016618855 0.033693187 0.06214332 0.008829272 0.07414639 0.05312568
00000000: b4ff 9a3d ed0d f13c 504c 4b3d 8bd4 933d
00000010: 3dd4 4c3d 4086 6d3d 43f6 cb3c 9013 0f3c
00000020: bb28 3b3c 6380 a43c 2598 813d 7a04 3d3c
00000030: 94c3 c93c 7fe6 f43c 070e 6f3c c59e 353c
00000040: 97da 523d ea16 393c acfd 2f3c 4e66 6f3d
00000050: 23d5 083c b90d 4a3d ca9e 6a3d 1d2b 953d
00000060: 97ec 003d b972 c03c 4424 883c de01 0a3d
00000070: fe89 7e3d a7a8 103c 10da 973d 509a 593d

encoder.3.weight f4 [16, 32]
0.32253733 0.2640651 0.2415562 0.21903385 -0.14548261 -0.21814947 -0.11444234 -0.16713081
-0.023954662 -0.21525694 0.050145186 0.12622938 -0.05020658 -0.23405111 0.24576871 0.123022
-0.2487881 -0.0935288 0.18723568 0.13544752 -0.15956026 0.14424342 0.23676431 -0.146882
0.0007004674 0.2695149 -0.022658814 0.16468492 -0.00027923763 0.12369401 0.28089747 -0.16566971
-0.20705976 0.060860142 0.001755413 0.29070476 0.09015432 -0.13869017 -0.1862644 -0.35923547
-0.24658768 -0.24207371 0.22183931 -0.027808016 -0.30072162 -0.018133454 0.08488352 -0.009766263
-0.14350596 -0.048509542 0.13474475 0.21865304 -0.20230941 -0.14012185 0.056639623 -0.0042726896
0.08268339 -0.043986816 0.059642963 0.1492391 -0.30620873 -0.29543126 0.00089657214 0.17433873
0.19313851 -0.25891426 -0.14286172 -0.025840467 0.06773674 0.041974954 -0.034967285 -0.11610735
-0.119038686 0.38781527 0.10134438 -0.31719264 -0.13568254 -0.058139767 -0.02156414 0.17212826
-0.25787908 0.050730783 -0.24690902 0.16426128 0.04073148 0.023853604 0.15836748 0.10365916
-0.17530498 0.38288307 -0.35343444 -0.15513335 -0.05365631 0.12941052 0.14819561 -0.11302625
0.059977055 -0.46905205 0.0130664455 -0.04881126 0.03635767 -0.037595097 0.101678215 0.12379036
-0.034131676 0.21787766 -0.16475517 -0.5289146 -0.12323915 -0.030944316 -0.08013591 -0.19255255
-0.18283351 -0.31888077 -0.13150512 -0.17758554 0.069055565 0.07239629 -0.18723457 0.2514116
0.08752916 -0.09753928 0.3897117 -0.31895536 -0.053257678 0.02961121 -0.10424141 0.02191537
-0.042923998 0.007464434 -0.23425184 -0.16474107 0.07373204 0.15358986 0.23919228 0.07047675
-0.09588533 -0.16457611 0.20958392 0.25504315 0.05003511 -0.01889751 -0.09293393 0.20051186
0.16382639 -0.25132662 0.011525051 0.29338607 -0.3468092 -0.06640446 -0.17852268 -0.03650476
0.1935994 0.12885806 -0.068166524 0.005535599 0.07530742 0.19376837 -0.123131864 0.076829635
0.012022106 0.15367381 0.11133696 -0.18939294 -0.08765523 0.22008155 0.03694798 0.40983576
-0.0518463 -0.09955003 0.06431367 0.15714625 0.16663939 0.009375407 0.05583569 0.086501986
-0.21977079 0.026107872 -0.0969556 0.22103076 0.249984 -0.1571778 0.021212118 -0.2826183
-0.13481276 -0.20292403 -0.029018464 -0.052510235 -0.083324686 0.2688228 -0.073775426 0.09958629
0.20167814 -0.3990943 -0.024229564 -0.028789824 -0.0134387985 -0.12628998 -0.016972179 -0.09184782
-0.011129695 0.03265996 -0.083167724 -0.4461895 -0.31880793 0.015884373 0.14136602 -0.05941849
0.18741071 0.19593973 0.011862047 -0.2738141 -0.09382083 0.15529875 0.32204255 0.2708525
-0.11594796 -0.20808108 -0.49086267 -0.03249269 0.096854076 -0.029669415 -0.054556333 -0.20146464
0.095684856 -0.08797484 -0.13337958 -0.1633541 -0.10146635 0.1516549 0.23233321 -0.050351735
-0.22163363 0.18344352 0.052790623 0.14109784 -0.19236329 -0.08329986 0.55885506 -0.002215771
0.2328817 0.1323312 -0.15242435 0.1015265 -0.2213487 -0.012294923 0.13377543 -0.031388666
-0.052704263 -0.06213671 -0.1348411 -0.02749039 -0.012069426 -0.1649224 0.123838186 -0.21121076
00000000: 9d23 a53e 8a33 873e 825a 773e 694a 603e
00000010: 65f9 14be 9362 5fbe bf60 eabd 5724 2bbe
00000020: 913c c4bc 516c 5cbe 0a65 4d3d 4642 013e
00000030: 6aa5 4dbd 18ab 6fbe cbaa 7b3e f5f2 fb3d
00000040: 4fc2 7ebe 078c bfbd b6ba 3f3e c1b2 0a3e
00000050: c463 23be 8cb4 133e 5872 723e 3c68 16be
00000060: 929f 373a dbfd 893e fa9e b9bc 2aa3 283e
00000070: a466 92b9 4953 fd3d cbd1 8f3e 52a5 29be
00000080: 7907 54be 7c48 793d e315 e63a 41d7 943e
00000090: d4a2 b83d cc04 0ebe 18bc 3ebe b6ed b7be
000000a0: 7b81 7cbe 2ce2 77be d829 633e a3cd e3bc
000000b0: 2ff8 99be 9c8c 94bc 69d7 ad3d ad02 20bc
000000c0: 3af3 12be f1b1 46bd 87fa 093e 95e6 5f3e
000000d0: 332a 4fbe 1a7c 0fbe f3fe 673d eb01 8cbb
000000e0: e955 a93d 852b 34bd 2e4c 743d 22d2 183e
000000f0: 64c7 9cbe c442 97be f007 6b3a da85 323e
00000100: 1ac6 453e 6990 84be 584a 12be 63af d3bc
00000110: 8fb9 8a3d eeed 2b3d db39 0fbd b1c9 edbd
00000120: 8eca f3bd b98f c63e a48d cf3d 1367 a2be
00000130: 5df0 0abe f723 6ebd 48a7 b0bc 6442 303e
00000140: ba08 84be 15cb 4f3d b8d5 7cbe 1c34 283e
00000150: 0dd6 263d a268 c33c 162b 223e 414b d43d
00000160: 2683 33be 4009 c43e 5cf5 b4be 47db 1ebe
00000170: b8c6 5bbd 3184 043e 97c0 173e 4e7a e7bd
00000180: 80aa 753d 9727 f0be a514 563c 51ee 47bd
00000190: c8eb 143d 51fd 19bd ab3c d03d cd85 fd3d
000001a0: a8cd 0bbd 521b 5f3e 94b5 28be f266 07bf
000001b0: cf64 fcbd ef7e fdbc 4c1e a4bd 7f2c 45be
000001c0: b538 3bbe 5744 a3be 47a9 06be fcd8 35be
000001d0: 016d 8d3d 8244 943d 6bba 3fbe 05b9 803e
000001e0: 7d42 b33d adc2 c7bd 4b88 c73e 1e4e a3be
000001f0: b924 5abd 3593 f23c 857c d5bd dd87 b33c
00000200: 13d1 2fbd 3698 f43b b7df 6fbe e2b1 28be
00000210: d300 973d a946 1d3e d2ee 743e 1d56 903d
00000220: 875f c4bd a486 28be 2b9d 563e 0495 823e
00000230: 9ef1 4c3d f3ce 9abc 2554 bebd fb52 4d3e
00000240: 1bc2 273e e2ad 80be 91d3 3c3c b336 963e
00000250: fa90 b1be 10ff 87bd a6ce 36be 0486 15bd
00000260: ec3e 463e 5ef3 033e e49a 8bbd f863 b53b
00000270: c73a 9a3d 376b 463e 8f2c fcbd db58 9d3d
00000280: 5ef8 443c ab5c 1d3e a204 e43d 39f0 41be
00000290: 9684 b3bd 0f5d 613e c456 173d fed5 d13e
000002a0: c95c 54bd e3e0 cbbd e3b6 833d f2ea 203e
000002b0: 84a3 2a3e 4f9b 193c f7b3 643d f427 b13d
000002c0: 980b 61be 2de0 d53c a890 c6bd e355 623e
000002d0: cefb 7f3e 38f3 20be 09c5 ad3c 59b3 90be
000002e0: 5b0c 0abe 51cb 4fbe 21b8 edbc f914 57bd
000002f0: 22a6 aabd 24a3 893e 9217 97bd e6f3 cb3d
00000300: b784 4e3e 1756 ccbe 147d c6bc a3d8 ebbc
00000310: 682e 5cbc 2952 01be 3d09 8bbc b61a bcbd
00000320: 5359 36bc 73c6 053d d753 aabd f372 e4be
00000330: cb3a a3be f21f 823c 41c2 103e cd60 73bd
00000340: 98e8 3f3e 6da4 483e 0859 423c 5d31 8cbe
00000350: 2325 c0bd a306 1f3e c3e2 a43e 2ead 8a3e
00000360: 2076 edbd 3513 55be 5a52 fbbe 0e17 05bd
00000370: 6e5b c63d 460d f3bc 7676 5fbd bf4c 4ebe
00000380: 6cf6 c33d 272c b4bd a894 08be 4c46 27be
00000390: 97cd cfbd 6c4b 1b3e c2e8 6d3e 9f3d 4ebd
000003a0: edf3 62be 9ed8 3b3e fb3a 583d f47b 103e
000003b0: e2fa 44be 1e99 aabd 2011 0f3f 7836 11bb
000003c0: 8a78 6e3e d581 073e 2115 1cbe 20ed cf3d
000003d0: 3ca9 62be a570 49bc 6dfc 083e 6791 00bd
000003e0: 6de0 57bd 1083 7ebd c913 0abe 8733 e1bc
000003f0: d7be 45bc 6be1 28be e09e fd3d a247 58be

encoder.3.bias f4 [16]
0.016811252 0.012595404 0.11910816 -0.072202295 -0.20491596 0.100934 -0.046215627 0.026961466
0.12663536 0.045683768 -0.03553254 -0.07422634 0.05977196 -0.10865668 -0.041297723 -0.036817018
00000000: c0b7 893c f45c 4e3c fbee f33d ccde 93bd
00000010: 7dd5 51be 7cb6 ce3d 994c 3dbd 4bde dc3c
00000020: b3ac 013e e71e 3b3d 928a 11bd fb03 98bd
00000030: 71d3 743d 6587 debd cd27 29bd 71cd 16bd

encoder.4.weight f4 [16]
1.2378978 0.9966941 1.0039654 1.0128938 0.93876904 0.9035848 1.0378608 1.0342739
0.9912577 0.93110955 1.0427061 0.95997643 0.9829683 0.9274912 0.98924583 0.94584066
00000000: 6f73 9e3f 5827 7f3f f081 803f 81a6 813f
00000010: 2b53 703f 5551 673f 9fd8 843f 1663 843f
00000020: 11c3 7d3f 325d 6e3f 6577 853f 04c1 753f
00000030: cfa3 7b3f 1070 6d3f 373f 7d3f 9d22 723f

encoder.4.bias f4 [16]
-0.21360236 -0.5638386 0.08305742 0.15176532 -0.35565495 -0.03137165 0.3357089 -0.049591832
-0.06470175 0.036758542 -0.17479593 0.15488161 -0.25083908 -0.526279 -0.038009465 0.09678159
00000000: 94ba 5abe ba57 10bf 021a aa3d 5e68 1b3e
00000010: 6818 b6be 8f7f 00bd 09e2 ab3e ce20 4bbd
00000020: 5a82 84bd 2090 163d b4fd 32be 4999 1e3e
00000030: fb6d 80be 38ba 06bf d0af 1bbd 6d35 c63d

encoder.4.running_mean f4 [16]
0.3115883 -0.6777143 0.011219265 -0.7110307 0.19422525 0.61689776 -0.50379646 0.120198235
0.17123446 -0.13993037 -0.50804555 0.21933672 -0.7257707 -1.1638271 -0.31900832 -0.09814893
00000000: 8088 9f3e af7e 2dbf 02d1 373c 1c06 36bf
00000010: fce2 463e 03ed 1d3f cef8 00bf 7e2a f63d
00000020: 1658 2f3e e849 0fbe 460f 02bf ce99 603e
00000030: 1ccc 39bf 49f8 94bf 0f55 a3be 4e02 c9bd

encoder.4.running_var f4 [16]
0.5686527 0.6034637 0.8141211 0.7649716 0.46616092 0.5273347 0.88511497 0.4544786
2.0406098 0.41286442 0.16839989 0.52188283 0.549364 0.44539 1.174865 0.21974841
00000000: 3993 113f 997c 1a3f 3e6a 503f 2ed5 433f
00000010: a5ac ee3e 68ff 063f e596 623f 6bb1 e83e
00000020: 5a99 0240 f762 d33e 0571 2c3e 1d9a 053f
00000030: 1ea3 0c3f 280a e43e fa61 963f ba05 613e

encoder.6.weight f4 [4, 16]
0.39368722 -0.14503738 0.23459844 -0.030387957 -0.38611087 -0.18232675 -0.045887608 -0.27377474
-0.16896692 0.2216435 0.1102067 -0.07969772 -0.16846167 -0.21090177 -0.013963377 0.25239626
0.11440065 0.41337788 0.16604081 -0.29127714 0.21137585 -0.09397684 -0.12465307 0.17313632
-0.19104438 0.09729126 -0.25929382 -0.29371086 0.111271314 0.35369486 -0.16763783 -0.14389768
-0.10889896 -0.011767382 -0.24382208 0.031630326 0.13996409 0.17666249 -0.43896878 0.22024219
-0.35812715 0.26282614 -0.29310682 0.04739049 -0.011523546 -0.2648669 0.06896375 -0.21017145
-0.3801268 0.09404281 0.15007725 0.36368567 0.014179945 0.23561554 0.0007515985 0.24754696
-0.16363654 -0.14064188 -0.06461971 0.18367726 -0.17529778 0.055682287 0.2889321 -0.12794393
00000000: 5f91 c93e ae84 14be 933a 703e 2af0 f8bc
00000010: 53b0 c5be ddb3 3abe a5f4 3bbd 342c 8cbe
00000020: aa05 2dbe 83f6 623e 0db4 e13d 8f38 a3bd
00000030: 3781 2cbe a2f6 57be a6c6 64bc 153a 813e
00000040: e34a ea3d 44a6 d33e 9a06 2a3e 4722 95be
00000050: e972 583e ee76 c0bd 1c4a ffbd a64a 313e
00000060: 23a1 43be a440 c73d 29c2 84be 4561 96be
00000070: 37e2 e33d 7e17 b53e 40a9 2bbe ea59 13be
00000080: 6b06 dfbd facb 40bc 7fac 79be cd8e 013d
00000090: bf52 0f3e 03e7 343e 84c0 e0be 2b87 613e
000000a0: 715c b7be 2691 863e 1912 96be 881c 423d
000000b0: 41cd 3cbc a29c 87be de3c 8d3d 2f37 57be
000000c0: fb9f c2be 8499 c03d daad 193e 0235 ba3e
000000d0: 0053 683c 3345 713e ec06 453a f37c 7d3e
000000e0: 5690 27be 6d04 10be 5757 84bd e415 3c3e
000000f0: 4381 33be 1c13 643d e9ee 933e bc03 03be

encoder.6.bias f4 [4]
0.09613374 0.14966594 0.058609392 0.3001187
00000000: c4e1 c43d 0742 193e 6710 703d 29a9 993e

decoder.0.weight f4 [16, 4]
0.5635001 0.18786013 0.1254946 0.27549943 -0.26411372 -0.1163557 0.047942273 -0.57428885
0.06404377 0.43063426 -0.3854659 -0.07222579 0.5134821 -0.15923323 0.23777196 -0.14785783
-0.30329847 -0.21734662 0.3179454 0.15205216 0.15170446 -0.13465673 -0.33610997 0.3085933
-0.42028722 0.20710057 0.11327681 0.23245461 0.2272943 -0.3191185 -0.055697963 -0.43567428
0.4159014 -0.41736883 -0.108708225 0.1564281 0.02002101 0.2518637 0.027437467 -0.45931163
0.31866255 -0.21254666 0.05215289 0.42910782 -0.28413135 0.19498393 -0.4895289 0.15154387
0.059437554 -0.69600725 -0.08658994 -0.08718546 0.5300967 0.1215414 -0.4380826 -0.4873773
0.3152069 0.46163413 0.053445302 0.16648385 0.43477345 -0.33278817 -0.5317412 -0.2503226
00000000: 8b41 103f 685e 403e a881 003e 430e 8d3e
00000010: ea39 87be e64b eebd 1e5f 443d 9804 13bf
00000020: 6129 833d 187c dc3e c95b c5be 1deb 93bd
00000030: 9073 033f 090e 23be 7e7a 733e 0b68 17be
00000040: f049 9bbe 1d90 5ebe bdc9 a23e 90b3 1b3e
00000050: 6a58 1b3e 74e3 09be 9b16 acbe f1ff 9d3e
00000060: e32f d7be 2c12 543e acfd e73d 9508 6e3e
00000070: d6bf 683e 8063 a3be 8c23 64bd b310 dfbe
00000080: 07f1 d43e 5eb1 d5be 6ba2 debd b02e 203e
00000090: 1a03 a43c 47f4 803e 8ac4 e03c e52a ebbe
000000a0: bd27 a33e d5a5 59be 459e 553d 05b4 db3e
000000b0: aa79 91be dea9 473e 88a3 fabe 512e 1b3e
000000c0: cb74 733d 882d 32bf 1156 b1bd 4a8e b2bd
000000d0: 6bb4 073f b3ea f83d 5d4c e0be 8489 f9be
000000e0: cc62 a13e 4f5b ec3e 76e9 5a3d be7a 2a3e
000000f0: a09a de3e 3663 aabe 3120 08bf 492a 80be

decoder.0.bias f4 [16]
0.5157563 -0.4017252 -0.120159194 0.33667105 0.48885617 0.41385892 -0.40594625 0.19848195
0.21039373 0.12307374 0.5026954 -0.014955053 -0.18604186 -0.21507168 -0.42890087 0.009064875
00000000: 9b08 043f edae cdbe 0616 f6bd 2660 ac3e
00000010: 5b4b fa3e 51e5 d33e 30d8 cfbe da3e 4b3e
00000020: 7471 573e 160e fc3d a5b0 003f 0a06 75bc
00000030: c281 3ebe c03b 5cbe e598 dbbe d784 143c

decoder.1.weight f4 [16]
0.7772284 0.77825415 1.232048 1.1444812 1.0672076 0.81361073 1.1439209 0.961587
1.0212647 0.83137876 0.997974 0.86979705 1.136672 0.9702835 0.90751034 0.95323104
00000000: 71f8 463f aa3b 473f c0b3 9d3f 5c7e 923f
00000010: 429a 883f cb48 503f 006c 923f 912a 763f
00000020: cdb8 823f 3dd5 543f 397b 7f3f 05ab 5e3f
00000030: 787e 913f 8064 783f 9952 683f f306 743f

decoder.1.bias f4 [16]
0.30480567 0.396409 -0.51517725 -0.330024 0.18200934 -0.04108856 -0.3083825 0.10873953
-0.15478283 0.03599756 -0.5609947 0.100831844 -0.1629875 -0.43559054 -0.34174308 -0.24657625
00000000: 7d0f 9c3e 1ff6 ca3e a8e2 03bf e8f8 a8be
00000010: a860 3a3e 7a4c 28bd 50e4 9dbe d5b2 de3d
00000020: 647f 1ebe 2d72 133d 599d 0fbf ed80 ce3d
00000030: 32e6 26be b905 dfbe f3f8 aebe 7c7e 7cbe

decoder.1.running_mean f4 [16]
0.68097997 -0.7422404 -0.114989705 0.29518798 0.4703607 0.7239232 -0.4167952 0.07592282
0.46640304 -0.17061774 0.80477774 0.12846644 -0.07201885 -0.28665742 -0.39087892 0.15729418
00000000: b454 2e3f 7803 3ebf b97f ebbd e122 973e
00000010: 1ed3 f03e 0853 393f 2e66 d5be 6c7d 9b3d
00000020: 61cc ee3e 6bb6 2ebe ea05 4e3f b58c 033e
00000030: 9e7e 93bd c3c4 92be 4821 c8be ba11 213e

decoder.1.running_var f4 [16]
0.031692617 0.075739175 0.051851507 0.0490701 0.03621113 0.035275023 0.050340768 0.08480922
0.058317676 0.08738683 0.060515404 0.039824437 0.109203815 0.14092274 0.051181704 0.077881835
00000000: 1ed0 013d 241d 9b3d 3f62 543d bbfd 483d
00000010: 1f52 143d 8b7c 103d 1f32 4e3d 75b0 ad3d
00000020: 84de 6e3d def7 b23d 00df 773d f31e 233d
00000030: 40a6 df3d 0d4e 103e e8a3 513d 8380 9f3d

decoder.3.weight f4 [32, 16]
0.07696687 -0.1367337 -0.2805055 -0.07945164 0.0683998 -0.017603774 -0.27296707 -0.34236857
-0.034898646 0.21990435 0.0032395294 -0.35072473 0.16157927 0.18851994 0.3263568 0.04393875
0.04430253 -0.07965725 -0.3155162 -0.040041838 -0.11531696 -0.073341295 -0.6239828 -0.059308365
0.1690309 0.3014102 0.2096833 -0.19832493 -0.012249147 0.0641819 -0.02899255 -0.15239626
-0.124480136 0.051459126 0.039592 -0.41402966 -0.19132012 0.022106076 0.3711051 -0.15221699
-0.011744052 -0.06908809 0.26155227 -0.21557379 -0.09694047 -0.22849461 -0.2837608 -0.14298211
-0.060362592 0.007797654 -0.22465296 0.03493465 0.39226317 0.05438896 -0.35271385 0.2706038
-0.0635673 -0.26382035 -0.008679701 -0.13051327 -0.2583904 0.20272149 -0.04369667 -0.08556233
-0.07345872 -0.19192114 0.27755773 -0.07384643 0.08123322 0.040324386 -0.083668254 0.35690895
0.13418706 -0.2655447 0.0482599 0.22271065 -0.43861297 0.0142666735 0.11182752 0.0026909492
-0.51104575 -0.01523986 0.0028577524 -0.0669898 -0.18051784 0.10350641 0.044273153 0.056404587
0.10260071 -0.07166516 -0.11889471 0.28632984 0.2493859 -0.15507859 -0.3904059 -0.28305542
0.1724238 0.0954635 -0.13022786 0.12092218 0.04973191 -0.69689095 0.08896275 -0.049027894
-0.010116552 0.033993047 -1.4103752 0.26180884 -0.04600831 -0.115074515 0.014336985 -0.07777376
0.027854398 0.15869384 0.011862552 -0.06568074 0.2360728 -0.14953904 -0.047902808 -0.49699697
0.19188169 -0.12365534 -0.04920725 0.25962433 -0.33124405 0.024553971 0.07303398 0.32377025
0.07986672 0.14524764 -0.3139299 0.27891606 0.07342193 0.17822173 -0.010545299 0.07534509
-0.17155337 -0.11352492 0.12037239 -0.12287599 -0.27967495 0.41861784 0.1382209 0.21066421
0.09245829 -0.19339982 -0.11972972 0.13608837 0.04968605 -0.030753337 -0.34629375 0.09520051
-0.6842571 -0.29758963 -0.40550467 0.13861583 -0.020649776 0.008260504 -0.101465985 0.0069970735
0.052715942 -0.07253821 0.053104933 0.4629685 -0.100462474 0.12078744 -0.18011105 0.1381449
-0.06331488 -0.4443616 -0.26333317 -0.10253909 0.12061764 0.37288263 0.06549054 0.07616231
0.0474751 0.1686612 -0.4664235 -0.21602215 -0.42095694 -0.04907815 -0.06827754 0.120120324
-0.09489681 -0.0073186206 0.17997159 0.35494837 0.046420462 -0.31560668 -0.09222695 0.19416638
-0.033950176 -0.010450943 -0.010886759 -0.26341784 -0.014484433 -0.089980274 0.14854251 -0.045876462
-0.09360034 0.12717725 -0.19700196 0.25645563 -0.48726124 0.5005426 0.17930683 0.025731642
0.038480286 -0.4179638 -0.19120452 0.046242308 -0.03641978 -0.114584416 -0.034546882 0.04456088
-0.049636114 -0.010808103 0.3789956 0.17255026 -0.27147612 -0.04027712 0.19707285 0.32173097
-0.2314649 -0.20730422 -0.16487315 -0.517115 0.32515055 -0.20084809 -0.35152212 -0.032182116
-0.03577128 -0.087049626 0.11859035 -0.22414081 0.16674584 -0.23768465 -0.2513154 -0.054391216
0.084675916 0.056284346 -0.3326651 -0.12505805 0.16384795 -0.098586746 -0.13733563 0.24537687
0.04956428 -0.31827727 -0.10503157 -0.067166805 -0.1881996 -0.25370663 0.25466883 -0.1856731
00000000: cea0 9d3d eb03 0cbe 6b9e 8fbe 8bb7 a2bd
00000010: 3215 8c3d ca35 90bc 57c2 8bbe ef4a afbe
00000020: e2f1 0ebd 9b2e 613e 494e 543b 3192 b3be
00000030: 0975 253e 5f0b 413e 3d18 a73e 1ef9 333d
00000040: 9276 353d 5723 a3bd 578b a1be e902 24bd
00000050: 4c2b ecbd f633 96bd 56bd 1fbf 54ed 72bd
00000060: 7016 2d3e 7052 9a3e 38b7 563e b115 4bbe
00000070: a5b0 48bc cd71 833d c981 edbc c40d 1cbe
00000080: 71ef febd cec6 523d 392b 223d b2fb d3be
00000090: 6ce9 43be cd17 b53c 7d01 be3e c5de 1bbe
000000a0: 206a 40bc 0e7e 8dbd 2eea 853e 60bf 5cbe
000000b0: ba88 c6bd 7efa 69be 1849 91be e769 12be
000000c0: c43e 77bd 7683 ff3b 6d0b 66be a317 0f3d
000000d0: b8d6 c83e f5c6 5e3d e996 b4be 958c 8a3e
000000e0: 932f 82bd 7613 87be 4e35 0ebc 45a5 05be
000000f0: bf4b 84be 3996 4f3e 48fb 32bd 4e3b afbd
00000100: 8771 96bd fa86 44be 0c1c 8e3e cc3c 97bd
00000110: 9a5d a63d 2f2b 253d 435a abbd c5bc b63e
00000120: 5568 093e 7af5 87be 2cac 453d 430e 643e
00000130: e191 e0be c4be 693c d405 e53d a35a 303b
00000140: e5d3 02bf 9bb0 79bc 2149 3b3b f331 89bd
00000150: abd9 38be 2bfb d33d c457 353d 7f08 673d
00000160: 5220 d23d 2fc5 92bd 127f f3bd d399 923e
00000170: 045f 7f3e eccc 1ebe 48e3 c7be a4ec 90be
00000180: dd8f 303e 5e82 c33d 745a 05be 0ca6 f73d
00000190: b0b3 4b3d 7267 32bf 1a32 b63d 79d1 48bd
000001a0: e5bf 25bc 4b3c 0b3d 2d87 b4bf cf0b 863e
000001b0: 3673 3cbd 30ac ebbd ace5 6a3c d947 9fbd
000001c0: e82e e43c a380 223e 265b 423c a083 86bd
000001d0: 11bd 713e c320 19be bc35 44bd 6376 febe
000001e0: a27c 443e 033f fdbd 8b8d 49bd 7bed 843e
000001f0: d298 a9be 6925 c93c d792 953d 37c5 a53e
00000200: 2a91 a33d ccbb 143e 6bbb a0be 16ce 8e3e
00000210: 3d5e 963d c27f 363e 31c6 2cbc 874e 9a3d
00000220: b0ab 2fbe c17f e8bd cd85 f63d 68a6 fbbd
00000230: 8e31 8fbe 1455 d63e c889 0d3e 5cb8 573e
00000240: c65a bd3d 9a0a 46be db34 f5bd c05a 0b3e
00000250: 9983 4b3d 6cee fbbc 6a4d b1be 7cf8 c23d
00000260: 792b 2fbf ab5d 98be 4f9e cfbe 4ff1 0d3e
00000270: b829 a9bc 1157 073c 66cd cfbd b547 e53b
00000280: acec 573d ea8e 94bd 8f84 593d 350a ed3e
00000290: 45bf cdbd 685f f73d 086f 38be db75 0d3e
000002a0: 3bab 81bd 5d83 e3be 9bd3 86be 0400 d2bd
000002b0: 6206 f73d 79ea be3e e71f 863d fcfa 9b3d
000002c0: 4075 423d 86b5 2c3e 10cf eebe e934 5dbe
000002d0: ab87 d7be 2c06 49bd 18d5 8bbd a501 f63d
000002e0: 4259 c2bd 0ad1 efbb 794a 383e cbbb b53e
000002f0: 6223 3e3d 3397 a1be 7ce1 bcbd 8dd3 463e
00000300: 570f 0bbd 6f3a 2bbc 605e 32bc b4de 86be
00000310: 1e50 6dbc 9447 b8bd 871b 183e f5e8 3bbd
00000320: 89b1 bfbd c13a 023e e2ba 49be 274e 833e
00000330: 4e7a f9be 8f23 003f 369c 373e 2acb d23c
00000340: 819d 1d3d 5aff d5be 1ecb 43be 9368 3d3d
00000350: e82c 15bd 3cab eabd 0881 0dbd 7885 363d
00000360: 3d4f 4bbd 7814 31bc b60b c23e 04b1 303e
00000370: ebfe 8abe 9ff9 24bd 77cd 493e ecb9 a43e
00000380: 2205 6dbe 8f47 54be 82d4 28be a661 04bf
00000390: 227a a63e 1fab 4dbe b5fa b3be 65d1 03bd
000003a0: e884 12bd 1347 b2bd 7fdf f23d 2b85 65be
000003b0: 6cbf 2a3e 9b63 73be 69ac 80be 53c9 5ebd
000003c0: 916a ad3d 6a8a 663d 1453 aabe 380f 00be
000003d0: c2c7 273e d9e7 c9bd b6a1 0cbe 1344 7b3e
000003e0: ea03 4b3d 3df5 a2be cb1a d7bd c08e 89bd
000003f0: 65b7 40be d6e5 81be f463 823e 1721 3ebe

decoder.3.bias f4 [32]
0.18244843 -0.20220226 -0.18196331 0.22405237 -0.23190862 -0.06858427 0.16115619 0.23130758
-0.13339098 -0.073848866 -0.12797025 0.17256233 0.033330202 0.049096745 0.41950786 -0.1735951
0.038169585 -0.23759526 -0.17500813 0.11784937 -0.07635379 0.30848804 -0.081930794 0.28714684
0.11718309 -0.08197646 0.23391595 -0.16979885 0.03866371 0.062647045 -0.22611782 0.21550271
00000000: c3d3 3a3e 1c0e 4fbe 9754 3abe fc6d 653e
00000010: 7479 6dbe e975 8cbd 2106 253e e5db 6c3e
00000020: a597 08be 133e 97bd a20a 03be 2eb4 303e
00000030: 4085 083d ab19 493d bcc9 d63e eac2 31be
00000040: b657 1c3d 2c4c 73be 5535 33be 035b f13d
00000050: 605f 9cbd 25f2 9d3e 55cb a7bd e904 933e
00000060: b0fd ef3d 46e3 a7bd aa87 6f3e c0df 2dbe
00000070: d75d 1e3d 184d 803d 6e8b 67be beac 5c3e

decoder.4.weight f4 [32]
0.7848479 0.79067117 1.0625243 0.9654645 1.0443155 0.95242316 0.85796773 1.1398089
0.87981033 0.9318086 1.2181371 0.90445286 1.1203173 1.0072826 1.1586733 1.1918483
0.97270983 0.889717 1.0258973 0.80577517 0.97395444 1.0882807 1.2059265 1.2032522
0.98286724 0.7925493 1.0376142 0.7059857 0.901553 0.93896174 0.94205076 0.8833317
00000000: cbeb 483f 6d69 4a3f cc00 883f ae28 773f
00000010: 21ac 853f 01d2 733f c6a3 5b3f 42e5 913f
00000020: 403b 613f 028b 6e3f ebeb 9b3f 398a 673f
00000030: 8f66 8f3f a3ee 803f 684f 943f 7c8e 983f
00000040: 8303 793f 7ec4 633f 9a50 833f 4847 4e3f
00000050: 1455 793f c84c 8b3f cd5b 9a3f 2b04 9a3f
00000060: 309d 7b3f 83e4 4a3f 8bd0 843f 7bbb 343f
00000070: 2dcc 663f cc5f 703f 3d2a 713f 0722 623f

decoder.4.bias f4 [32]
-0.42683524 -0.3548038 -0.3642286 -0.555375 -0.19558561 -0.49430344 -0.49439305 -0.40328297
-0.05780806 -0.54845226 0.06875904 -0.41970807 -0.565831 -0.0432273 -0.3443 -0.49066058
-0.66487664 -0.35250637 -0.4883015 -0.3430001 -0.46073848 -0.55071187 -0.46210563 -0.55697614
-0.4526136 -0.5061686 -0.42779565 -0.29575238 -0.3641683 -0.37621945 -0.5825103 -0.12935472
00000000: 268a dabe d8a8 b5be 2c7c babe 0e2d 0ebf
00000010: 9847 48be 5715 fdbe 1621 fdbe 1b7b cebe
00000020: 25c8 6cbd 5e67 0cbf 8ad1 8c3d fae3 d6be
00000030: 4dda 10bf 1c0f 31bd 1748 b0be dd37 fbbe
00000040: 5b35 2abf b77b b4be a702 fabe b69d afbe
00000050: eae5 ebbe 74fb 0cbf 1c99 ecbe fd95 0ebf
00000060: f8bc e7be 4494 01bf 0808 dbbe db6c 97be
00000070: 4474 babe d69f c0be 651f 15bf 9075 04be

decoder.4.running_mean f4 [32]
-0.004061854 -0.38801852 -0.54499257 0.22984348 -0.24468984 -0.2895193 0.13068494 0.2855049
0.012360493 -0.34057263 -0.14683029 0.11955841 -0.009105206 -0.13205196 0.025972076 -0.24299495
-0.43716067 -0.33437106 -0.48428535 -0.014231773 -0.30373842 0.2383258 -0.37403294 0.016307581
-0.26502812 -0.111350186 0.16916089 -0.016346741 -0.1633348 -0.14950906 -0.5510735 0.36150527
00000000: 4d19 85bb 5daa c6be a284 0bbf 175c 6b3e
00000010: f98f 7abe e03b 94be 46d2 053e b32d 923e
00000020: aa83 4a3c 895f aebe ae5a 16be 0adb f43d
00000030: 002e 15bc a138 07be 64c3 d43c abd3 78be
00000040: 86d3 dfbe af32 abbe 40f4 f7be 622c 69bc
00000050: 9a83 9bbe ae0b 743e 3f81 bfbe 7a97 853c
00000060: c4b1 87be 910b e4bd 8338 2d3e 9ae9 85bc
00000070: 3d41 27be e718 19be 2713 0dbf 3817 b93e

decoder.4.running_var f4 [32]
0.15209161 0.259696 0.53752303 0.17650378 0.13729154 0.3188517 0.8433761 0.1922267
0.29804665 0.19858909 0.4602773 0.12089861 0.45889202 0.11621235 0.6488583 0.23417343
0.5312468 0.1299917 0.505507 0.34660807 0.5916366 0.15510271 0.69096637 0.46529877
0.231906 0.17036475 0.18171094 0.18224704 0.121861614 0.17157735 0.17812221 0.6404586
00000000: e7bd 1b3e e0f6 843e 1c9b 093f 68bd 343e
00000010: 2796 0c3e 8840 a33e 7fe7 573f 13d7 443e
00000020: 9299 983e f05a 4b3e 77a9 eb3e b199 f73d
00000030: e5f3 ea3e be00 ee3d 941b 263f 29cb 6f3e
00000040: caff 073f 8b1c 053e e868 013f 9d76 b13e
00000050: 7f75 173f 3fd3 1e3e 2ce3 303f a43b ee3e
00000060: c478 6d3e 1974 2e3e 6f12 3a3e f89e 3a3e
00000070: 9592 f93d f9b1 2f3e ab65 363e 18f5 233f

decoder.6.weight f4 [6, 32]
0.25877795 0.59187496 0.8114282 0.55714464 0.66689134 -0.9837084 -0.53988975 1.3015344
0.4717269 -1.1236272 0.4603764 0.023574814 -0.53273296 -0.5849197 -0.7838622 -0.47309855
0.5480356 -0.7348996 -0.82726496 -0.23290783 -0.3908245 1.1875865 1.5405926 1.4105561
0.6919492 -0.11060619 0.827392 0.35631534 -0.10450222 -0.5340087 -0.54209924 -0.7659394
0.63938767 0.2623348 0.5477537 0.707141 0.6952276 -0.03547792 0.5403132 0.21950717
-0.58929306 0.33505145 -0.7300014 -0.44330123 -1.4237074 0.67008466 -0.42118627 -1.2566959
-1.0076785 -0.15079042 0.5989024 -0.0441508 -0.50469935 -0.6609855 -0.050705496 -1.2965337
-0.43866566 0.7408953 -0.8264683 -0.41555783 -0.7493893 -0.53182703 -0.8797163 0.122939974
-0.023573712 -0.029089777 0.120453194 -0.2482951 -0.07940143 0.11840369 0.24619858 -0.24126674
-0.0121762585 0.34711632 0.014094979 0.22707136 -0.019725414 0.04987366 0.37254947 0.50625736
0.19950755 0.102528445 0.33792776 0.0405079 0.1285544 -0.20297414 0.092825115 -0.3048081
0.17325863 0.117670976 -0.18708143 0.13264199 -0.044954926 0.06780456 0.44826865 0.09046495
-0.1513785 0.3776342 0.028321194 -0.22468019 -0.11865704 0.03320425 0.4405269 -0.13696456
-0.17727345 0.3834555 0.43664622 0.5533884 -0.15210874 0.0048392504 0.26534328 0.47766906
0.459513 0.26011094 0.26601312 -0.22523995 0.73290265 -0.26088077 0.35047004 0.3266487
0.20825426 -0.11444976 -0.1677973 -0.13611412 -0.3034416 -0.09298764 0.5720761 -0.059789818
0.11925878 -0.35682222 -0.20716467 0.25323144 0.13220501 0.00026150467 -0.32606375 0.18464923
0.1691691 -0.37476888 -0.3924768 -0.56838214 0.0570014 -0.04787364 -0.3072993 -0.4923596
-0.41781548 -0.23781726 -0.42396447 0.18520962 -0.6916579 0.23617953 -0.30527306 -0.27118176
-0.2604659 0.09138589 0.16818234 0.102521054 0.32291302 0.07253539 -0.55066496 0.05347873
0.053544614 -0.012948668 0.0317457 0.14459504 -0.081421 -0.011023185 -0.20325872 0.08959567
0.023822695 0.055622958 0.037884004 0.068990394 0.035366405 0.026344001 0.09680727 0.18656746
0.0040120245 -0.06725804 -0.072214834 -0.18224332 -0.26130497 -0.08379118 0.159559 -0.038885996
0.03888168 0.00743408 0.07860579 0.015818207 0.06394715 -0.22012158 0.11786175 0.0037434646
00000000: 8b7e 843e 1e85 173f c2b9 4f3f 08a1 0e3f
00000010: 64b9 2a3f 50d4 7bbf 3736 0abf ae98 a63f
00000020: 3086 f13e 04d3 8fbf 75b6 eb3e f81f c13c
00000030: 3061 08bf 4cbd 15bf 31ab 48bf f939 f2be
00000040: 104c 0c3f 6122 3cbf a3c7 53bf 647f 6ebe
00000050: 261a c8be d602 983f 2332 c53f 1a8d b43f
00000060: 9523 313f 8085 e2bd f6cf 533f f76e b63e
00000070: 4305 d6bd cbb4 08bf 04c7 0abf 9b14 44bf
00000080: e9ae 233f bf50 863e 9639 0c3f 3107 353f
00000090: 70fa 313f 4c51 11bd f751 0a3f 7dc6 603e
000000a0: e9db 16bf dd8b ab3e 5fe1 3abf 61f8 e2be
000000b0: 0b3c b6bf ab8a 2b3f baa5 d7be 69db a0bf
000000c0: 9cfb 80bf ce68 1abe ab51 193f 78d7 34bd
000000d0: fa33 01bf 5936 29bf 91b0 4fbd d1f4 a5bf
000000e0: c998 e0be 50ab 3d3f 6d93 53bf ffc3 d4be
000000f0: fad7 3fbf d125 08bf 1635 61bf f4c7 fb3d
00000100: a81d c1bc af4d eebc 2ab0 f63d 1241 7ebe
00000110: 389d a2bd a27d f23d 7b1b 7c3e a10e 77be
00000120: ee7e 47bc 3bb9 b13e a0ee 663c 6585 683e
00000130: 3197 a1bc 5348 4c3d cebe be3e 159a 013f
00000140: b54b 4c3e 6ffa d13d de04 ad3e 9deb 253d
00000150: c4a3 033e 74d8 4fbe 181b be3d cf0f 9cbe
00000160: b66a 313e 7bfd f03d 4692 3fbe 4dd3 073e
00000170: a822 38bd 1edd 8a3d 7883 e53e b045 b93d
00000180: f702 1bbe 4559 c13e d901 e83c 9012 66be
00000190: 7602 f3bd 2e01 083d be8c e13e 7040 0cbe
000001a0: 2c87 35be 4754 c43e 1890 df3e ddaa 0d3f
000001b0: 65c2 1bbe 9392 9e3b 13db 873e 0a91 f43e
000001c0: 4a45 eb3e 432d 853e df32 883e 4da5 66be
000001d0: 829f 3b3f 2a92 85be cf70 b33e 803e a73e
000001e0: 9b40 553e a364 eabd 0ed3 2bbe 8061 0bbe
000001f0: b35c 9bbe 4e70 bebd 9473 123f 2be6 74bd
00000200: f23d f43d 67b1 b6be fa22 54be 8da7 813e
00000210: c060 073e 901a 8939 d4f1 a6be b014 3d3e
00000220: aa3a 2d3e b5e1 bfbe b8f2 c8be 7e81 11bf
00000230: 4d7a 693d 2617 44bd 5556 9dbe 8f16 fcbe
00000240: e9eb d5be 5e86 73be df11 d9be 97a7 3d3e
00000250: 7e10 31bf 0cd9 713e c04c 9cbe 56d8 8abe
00000260: c95b 85be 8728 bb3d fe37 2c3e 8ff6 d13d
00000270: db54 a53e 6f8d 943d 61f8 0cbf 830c 5b3d
00000280: 9951 5b3d a626 54bc c707 023d b910 143e
00000290: 0ec0 a6bd 979a 34bc 0e23 50be ef7d b73d
000002a0: d027 c33c e6d4 633d 422c 1b3d d64a 8d3d
000002b0: 5ddc 103d 60cf d73c e442 c63d 8a0b 3f3e
000002c0: 4d77 833b 95be 89bd 5fe5 93bd fe9d 3abe
000002d0: c4c9 85be b69a abbd 6f63 233e ec46 1fbd
000002e0: 6642 1f3d 9599 f33b 13fc a03d 2f95 813c
000002f0: b9f6 823d 8d67 61be 8061 f13d ea54 753b

decoder.6.bias f4 [6]
0.044829573 0.22838046 -0.13725369 -0.17031112 0.19894686 -0.10489709
00000000: 379f 373d 91dc 693e 3b8c 0cbe 0a66 2ebe
00000010: bab8 4b3e 49d4 d6bd
