anomaly_model/877_model.pt (torch, 18238 bytes, 28 tensors)

encoder.0.weight f4 [32, 6]
00000000: b789 2d3e 5b5a 143e 1831 d0be f0ba c53d
00000010: 27a9 babc ad0c 583e 6f90 b4be f32b 6f3e
00000020: 3b06 e43d 24df 5dbc cfe9 0c3f 3423 783f
00000030: b70b d63d 0e68 813e 9740 293f 3db4 dabe
00000040: 919d 673e aea6 73be c5bf 2bbe f7f6 fc3e
00000050: fd40 71be 087c b03e dcd8 1fbe f43a e3be
00000060: 7b2b 64be 303b b3bd 3643 02bf d3ee 983d
00000070: 3023 483d 394f 37bf 50d3 2fbd 8505 4b3f
00000080: d9d9 a6bb 7c97 143f 4f13 3cbe be22 7a3e
00000090: 716a a83e 2ca4 c43e 9779 30be 07e9 aa3e
000000a0: ea50 dabe 70d6 f0bd 2f2e 65bd 9c15 cabe
000000b0: 9c97 c5be a65b 03bf 6086 343d 6f53 fabe
000000c0: b554 0c3d f581 8c3e 1aad 48bc 8664 18bf
000000d0: 8248 1b3f 87eb 403e 8908 95be b6ca 2dbe
000000e0: 4da4 753e 6406 9d3c e6c4 19be eb60 05bf
000000f0: 6056 e33d d32a 053e 35db c8be 10b7 293f
00000100: 3095 7abf c1f9 a73e ac0f 8ebe 40d8 76be
00000110: bc18 aebd 6eef d3be 1ca3 9a3e 76ba 1fbf
00000120: bf07 15be 08dc f6be fa58 e63e 1041 313f
00000130: fb28 cabe 3eb3 3dbe 1d29 44be d4c8 c83e
00000140: c86c 1abf 1dd1 15be ac77 84be 83a0 9d3e
00000150: 643a 893e 9c5c 66be 867c 4b3f a652 85be
00000160: e8a9 74be f392 1abf aa93 cf3e 223e 173e
00000170: 9046 363f f975 9dbe cc78 363e 1bfb bebe
00000180: 4ad9 763c a6ef f33e 5ec0 233f d9d3 743e
00000190: 7c56 023f 9d96 40bf 60d5 aabd f7ef 6b3e
000001a0: 652a 963e 91f6 98be 438d d4bd aee3 8b3e
000001b0: e305 1f3e eeb0 c2be 6ad4 8bbd 4980 173f
000001c0: 2905 4fbe 2fac 1a3f 553f 1c3e c216 0dbe
000001d0: 50ba 68be 06a0 ba3e b1ed f7be 8ad1 27bf
000001e0: 607a bf3a 2c6c 8cbe b8cb c53e df0c 483e
000001f0: 29ed 783d b16a 243f 85b0 e13d c4bd fb3e
00000200: b7e7 833d 34b0 d4bd f5c4 093d d395 a23d
00000210: e0a2 773d d19d 2bbe 3ed0 513c 332b 453f
00000220: 5cff d7be b3d0 273d c29d 9bbe 62fb 2e3d
00000230: 370f 26bf e67e f9bd 744b 333f d064 2cbd
00000240: 2c56 583e 19b5 9abe a998 4a3f 5f98 9abd
00000250: 7591 163e 6bfa 01be acfe 4d3e 84cb 90be
00000260: 8074 473f 7675 7cbd 53c3 f83d a38c 4e3e
00000270: 602b 253f 6954 f13d d863 1b3d 9914 c0be
00000280: 575a 0b3f 8dff 7cbe 073d 57bd 2308 3b3e
00000290: 7087 9b3d 97fe 95be 7ac2 8b3f 9e79 443f
000002a0: c2dc 85be 352a 553e eb25 9e3e 7d84 12bf
000002b0: dfc1 cf3e 06ae 9ebe a1dd c1be 546d d13d
000002c0: f1b2 663e e55a 023e 43c4 10be 15ad e5be
000002d0: e1e4 533e 0ec2 4b3e 93fa aabe 4af1 9cbd
000002e0: 89bb 093f ecea 473f 0e9f 95be 71b2 3d3d
000002f0: 5cfa b93c fbbb 6fbf 5e86 9f3e 594c 75be
0.16947065 0.14487593 -0.40662456 0.09654796 -0.022785736 0.21098585 -0.35266444 0.23356609
0.11134001 -0.01354197 0.55044264 0.96928716 0.10451453 0.252747 0.6611418 -0.42715636
0.226187 -0.23794052 -0.16772373 0.4940717 -0.23559947 0.34469628 -0.15610069 -0.44380915
-0.22282211 -0.087515235 -0.50883806 0.07467427 0.048861682 -0.7160526 -0.042926133 0.793053
-0.0050918874 0.58043647 -0.1836674 0.24427316 0.32893708 0.38406503 -0.17233883 0.3338091
-0.42639858 -0.11759651 -0.055952247 -0.39469612 -0.3859223 -0.5131172 0.044073462 -0.4889178
0.03426047 0.274429 -0.012248302 -0.59528387 0.60657513 0.18839847 -0.29108074 -0.1697186
0.23988457 0.019168086 -0.15016517 -0.5210101 0.11100459 0.13004617 -0.39229742 0.66294956
-0.9788389 0.32807735 -0.27746332 -0.2410593 -0.085008115 -0.41393608 0.30202568 -0.6239389
-0.14553736 -0.48214746 0.4498976 0.692399 -0.3948439 -0.18525407 -0.19156308 0.3921572
-0.60322237 -0.14630552 -0.25872552 0.30786523 0.2680236 -0.22496265 0.7948688 -0.26039618
-0.23892939 -0.60380477 0.40542346 0.14769796 0.7120142 -0.30754068 0.17819518 -0.37300953
0.015066454 0.47643775 0.63965404 0.23908938 0.50913215 -0.7522982 -0.08341479 0.23040758
0.2932922 -0.29875615 -0.10378506 0.27322143 0.1552959 -0.38025612 -0.06827624 0.5918012
-0.20216812 0.6041898 0.15258534 -0.13778213 -0.22727323 0.36450213 -0.48423532 -0.65554106
0.0014608614 -0.2742628 0.38631988 0.1953616 0.06077305 0.642253 0.110199966 0.49168217
0.064406805 -0.103851706 0.0336351 0.07938733 0.060458064 -0.16759421 0.012805996 0.7701904
-0.4218701 0.040970515 -0.30393797 0.042720206 -0.64866966 -0.12182407 0.7003701 -0.04208833
0.21126622 -0.30216292 0.7913919 -0.07548594 0.14703925 -0.12693183 0.20116681 -0.2828027
0.7791214 -0.061635457 0.1214663 0.20170836 0.6451931 0.11783678 0.037937015 -0.37515715
0.5443472 -0.2470686 -0.052548435 0.18264823 0.07594192 -0.292958 1.0918725 0.76748073
-0.26144987 0.20816882 0.30888304 -0.5723341 0.405776 -0.30992144 -0.37864402 0.10225931
0.22529198 0.12729986 -0.14137368 -0.44858614 0.20692779 0.19898245 -0.33394298 -0.0766321
0.5380178 0.7809284 -0.29222912 0.046312753 0.022702388 -0.9364621 0.31157202 -0.23954906

encoder.0.bias f4 [32]
00000000: 5e4b b13d bdc2 b5be 0cbe 34be cc57 40bf
00000010: f770 b9be 070a 973e b03c 833e 936b 15be
00000020: 5bb0 f0be 3b48 2f3e 9292 fbbe 43f3 39be
00000030: 70ca 62bd 3f47 dabd 3950 ae3d b036 373b
00000040: 177d 913e 4ae3 0c3f 9006 583e 483b c43e
00000050: e63d 90bd 9853 ac3e 5547 493e 88dc b43e
00000060: 2383 123d 00e0 0e3e 57ce cdbd 0cbe e63c
00000070: a539 f93d 1b0b e7be 9a21 393e 1a3d e43e
0.08656953 -0.35500136 -0.17650622 -0.7513397 -0.36218998 0.29499838 0.25632238 -0.14591818
-0.4700955 0.17117397 -0.49135262 -0.18159203 -0.05536884 -0.1065812 0.08511395 0.002795618
0.28415748 0.55034316 0.21096253 0.38326478 -0.07043056 0.33657527 0.19656117 0.35324502
0.035769593 0.13952637 -0.10049122 0.028166793 0.12169198 -0.4512566 0.18079224 0.44577867

encoder.1.weight f4 [32]
00000000: bdd3 543f ef75 5e3f 4769 443f 92b1 933f
00000010: 916f 813f dd9a 803f a118 623f c8e6 8b3f
00000020: 543b 863f 4701 773f 28b8 883f e967 943f
00000030: f3f8 a43f b71e 7b3f 533f 803f 1a86 593f
00000040: 1b1d 8c3f b5ef 553f f54d 723f 92a0 793f
00000050: 30cf 623f a7fb 993f 80f9 5d3f eb56 6a3f
00000060: 8c0e 753f 7fef 603f d5df 773f b887 743f
00000070: 7db5 7c3f d87c 773f 120f 773f 5e60 653f
0.83135587 0.868987 0.7672314 1.1538565 1.0112172 1.004726 0.8831883 1.0929804
1.0486856 0.96486324 1.06812 1.1594211 1.2888473 0.9809374 1.0019325 0.8497025
1.0946382 0.8356889 0.94650203 0.97510636 0.88597393 1.2029923 0.8670883 0.91538876
0.9572532 0.8786544 0.96825916 0.9551959 0.9871443 0.9667487 0.9650737 0.8960017

encoder.1.bias f4 [32]
00000000: f832 a3be df4e 67be d0d7 4c3e bf7e a6be
00000010: 4401 2abe 3698 553d 0098 073e 8056 4eba
00000020: 55cb b8bd e010 6e3d 97d6 063e c516 5fbe
00000030: 3b09 50be 6c6f 21bd a407 023e c19f 353d
00000040: f9fb d3be 62fc 6dbd e1b1 873e ce1b ebbd
00000050: fa25 89bc b030 633d 999f 173f 6d1c c1be
00000060: 636d 91be db54 ac3d 038c 0fbe 52ab 803e
00000070: b9f9 d63c 2780 e7be 0bd0 06bf d99f 573e
-0.31874824 -0.2258868 0.20004201 -0.32518575 -0.16602045 0.052147113 0.13241577 -0.0007871166
-0.090231575 0.058121562 0.13167797 -0.2178603 -0.20316021 -0.0394129 0.12698227 0.044341806
-0.41403177 -0.05810202 0.26502898 -0.11479913 -0.016741741 0.055466354 0.592279 -0.37717
-0.28403768 0.084146224 -0.14018254 0.25130707 0.026242124 -0.4521496 -0.526612 0.21057071

encoder.1.running_mean f4 [32]
00000000: e0e8 56be ec95 edbf baa8 863e bf85 32be
00000010: 3d50 3e3f f0b8 77be 52dd c03e 9fbe 3b3f
00000020: 2982 15bf 789b 643f 89f7 9bbf 22d8 5d3f
00000030: 38f6 df3c 0388 1dbf 678e 843f 2d39 2d3f
00000040: 28d1 b73f 6f00 e73d d323 4ebf 4c13 a93f
00000050: b0aa 8cbf f87b 6a3e 32ef 0dbd f109 083f
00000060: a044 883e 404d 1abe 53cc 083f be68 79bf
00000070: 2877 2e3f 04f8 ed3d 35bc 63bf ad10 753f
-0.20987272 -1.8561378 0.26300603 -0.17433833 0.74341184 -0.24191642 0.37668854 0.7333774
-0.58401734 0.89299726 -1.2184917 0.8665792 0.027339086 -0.6153566 1.0355958 0.6766537
1.4360704 0.112793796 -0.80523413 1.3209014 -1.098959 0.22898853 -0.034651943 0.5314017
0.26614857 -0.15068531 0.53436774 -0.9742545 0.6815057 0.11619571 -0.88959056 0.9572857

encoder.1.running_var f4 [32]
00000000: cfd3 963c ecd5 473d ee0a 063d eb19 d93d
00000010: e9cc 8a3c b1b8 893e 4321 c53d 8141 8f3d
00000020: 3976 153d 380f 1a3d be25 493c ac07 453d
00000030: bea0 ed3d 61f0 923d 8b88 1b3d ff0f 593d
00000040: 2651 c73d e8f5 c23c 4b59 853d e8a3 593c
00000050: da50 053d 7745 e23d 1a21 723c 96fe bc3c
00000060: d6cb 423d a387 2a3d 9a47 e83d 880c 8d3c
00000070: b2f2 053d cd3c 1a3d 3261 093d d66c ba3c
0.018411545 0.048787996 0.032725267 0.106006466 0.016943412 0.2689872 0.09625485 0.06994916
0.0364897 0.03761217 0.012277065 0.04810302 0.11602925 0.07174755 0.037972014 0.05299377
0.09732275 0.023798898 0.06511172 0.013283707 0.03254781 0.110484056 0.0147784 0.023070615
0.047557674 0.04163326 0.11341782 0.01721789 0.032702155 0.03765564 0.03353996 0.022756975

encoder.3.weight f4 [16, 32]
00000000: bd2b 06be b61d e4bd 1722 c9bd 9855 8abd
00000010: 597e 3d3e 1d0b a6be 64fb 2abd 6c37 38be
00000020: 6ae6 3b3e 3c35 a93e 5bd3 ccbd 6d91 ff3c
00000030: cac2 05bd c7ea a73d ada5 a3be 5473 1a3e
00000040: afc3 903d 93f1 14bd 0a5c 163d e0e2 02bd
00000050: 59c8 4cbe c7a8 14be 870f 4c3e 1a01 8a3e
00000060: a43c 713e e00b 663d 5c12 603e 1708 843d
00000070: a0c8 1abe 638c aebd 4a44 91bc b1d4 003e
00000080: f4dd 3b3e 21f0 0e3e da2e 67be d478 623b
00000090: b668 ad3a 1629 bb3d 0a2a 213e 1c20 823e
000000a0: 5817 483c 8553 88be 4287 31bd 39bc fcbc
000000b0: 3aaa b63d 7ece 01bd 9342 ccbc d041 93bc
000000c0: e908 24be cf96 f9bd 65c5 8ebe 7108 2bbd
000000d0: 767f 123e c70b 69be 47cf 9bbe 9aac ffba
000000e0: 766a 5fbe 0c2b debc f262 70bd d525 093e
000000f0: b8f1 d63e 12cc 21be 2b77 163e f58f 1b3e
00000100: 0e18 053e 27c0 553e 6e89 da3d aa6f d7bc
00000110: 6c71 743e d1d1 af3e 1590 0bbe 1276 e0bd
00000120: fb57 b93e 86e7 983d b7ca c8be f441 a2bd
00000130: 5e64 e9be 8475 003d a111 8a3d 1737 b53d
00000140: 2fde b13e e35c c5bd 07d2 843e 23f5 00be
00000150: 94f4 b53d e2e3 a3bd 665c 173e fdb0 623e
00000160: 99a5 103d 9658 333e 2ea0 3d3e 1a7d 9f3e
00000170: f771 c9bc cd91 513e a464 513d f81c afbd
00000180: 4a40 153e 1f79 f9bd a4ad 073e fff0 04bb
00000190: 4af1 963e c029 503e a8b3 de3d bef9 20be
000001a0: 61ae 2dbe 2b4c 043e da24 23be 8aeb 893d
000001b0: 47a3 18bd a9c7 8fbe 1303 b53e 417f 37be
000001c0: f0dc 083e b5e0 2ebe 49c3 14bd 3bcf b03e
000001d0: 5a94 9d3d 8935 33bd 6f21 973d b266 87bd
000001e0: 9e9e 33be 13bb b9bd 3fe6 903b 2704 24bd
000001f0: a032 f1bc b270 823e 97a3 ce3e cbd8 57bd
00000200: 9e70 17be 8a54 df3d bb61 8abb b555 20bd
00000210: 01c9 583d 4ff9 b23d a046 31be 5341 3ebe
00000220: 731f aabe 267c 39be e214 f4be cf85 413e
00000230: 7769 53be ec4b 99bd 4870 b4bd 4aba 51be
00000240: 6727 68bc 7bbe cfbb 5105 52be 241e c7bd
00000250: bfe8 cdbd c05b 04bf 9637 2abd eff3 adbd
00000260: 00c8 47be 6647 f1bd e278 1ebe b5ef ac3d
00000270: aac3 c1bd 3006 1cbe dc00 7fbe 3de5 ecbd
00000280: aa2c 8fbd f801 9abc 874b 01be 7dc0 ce3d
00000290: 5f42 d0bd 9e35 53bd 713e 4abe 7e87 d7be
000002a0: c8c8 043e d480 883d 1a45 d1bd 72d7 b43d
000002b0: 3d5d 603e c946 ff3c 3b52 663e 24cd bbbc
000002c0: 2f77 573d d7b8 dabd 8eef 89be 86cf 483e
000002d0: 297a fabe bab5 8a3e b37e 30bb efe6 5b3d
000002e0: 1827 753e cbaf 93bd d59e 523c 7aaa d2bc
000002f0: b90f f4bb c00e 4fbe 7bfa 323e a00e 383e
00000300: 773e 18bc d33a 10be f7fd 5abd e1c5 fabd
00000310: ae64 623e 140a 2abe 6419 09bd 4b23 8e3e
00000320: 4d7b 513e 63a3 f13d 9a80 823d 501d d93e
00000330: 538e 223e 5584 91be 7a5e 99ba 085f 4f3e
00000340: 5377 a03d b16c b6bd d652 923d 9d07 a0be
00000350: 479f c3bd 0464 dfbc 7352 6e3d 88e0 a83e
00000360: b1cb 60bc beae 123d df2a 613e 12d4 3b3d
00000370: df6d 823e 2921 4c3e 152e 043e 5847 283e
00000380: af35 d4bd 970e 2d3e 6504 e9bd d549 c5be
00000390: bb3b 4fbe 5cc6 64bc 79a0 e3bd f768 8f3e
000003a0: 1ce7 d83e 6c88 13be 7683 f33d 5883 babc
000003b0: 65e6 d73d 0c5f 043e 96a2 c2bd ca31 e6bc
000003c0: a254 1f3e 1519 98be a55c be3b 6355 5d3d
000003d0: 459d 6f3d f0a3 8d3e 8e17 453e 4dc4 19be
000003e0: 1c45 be3c 005c e23d e485 68be 2dfe 29bd
000003f0: dfed c0bd 2f44 33bd 1f32 86bd 2ca7 d9bd
-0.13102622 -0.111384794 -0.09820955 -0.06754607 0.18505229 -0.32430354 -0.04174365 -0.17989892
0.18349615 0.33048427 -0.1000125 0.031197274 -0.03265647 0.08199077 -0.31962338 0.15083057
0.07068574 -0.036363196 0.03670887 -0.031954646 -0.19998302 -0.14517508 0.19927798 0.26953965
0.23558289 0.05616367 0.21882004 0.064468555 -0.15115595 -0.085228704 -0.017732758 0.12581135
0.18346387 0.1395879 -0.22576466 0.0034556882 0.0013230059 0.09138696 0.15738693 0.25415123
0.012212597 -0.2662622 -0.043341883 -0.03085147 0.08919187 -0.031691067 -0.024934089 -0.017975718
-0.16019024 -0.121869676 -0.27884975 -0.041756097 0.14306435 -0.22758399 -0.30431578 -0.0019506395
-0.21817955 -0.027120136 -0.05868811 0.13393338 0.41981292 -0.15800503 0.14693896 0.15191634
0.12997457 0.20874082 0.10670744 -0.026298363 0.23871392 0.34339765 -0.13629182 -0.1096002
0.36199936 0.074660346 -0.3921716 -0.07922736 -0.45584387 0.03136207 0.06741644 0.08848398
0.34739825 -0.09636857 0.25941488 -0.12593512 0.0888454 -0.080024496 0.14781341 0.22137828
0.035314176 0.17514262 0.18518135 0.31150132 -0.024590475 0.20465775 0.05112137 -0.08550447
0.14575306 -0.12181305 0.13249832 -0.0020285246 0.29480964 0.20328426 0.108741105 -0.15720269
-0.16961052 0.12919681 -0.15932027 0.06734379 -0.03726509 -0.28082016 0.35353908 -0.17919637
0.13365531 -0.17077906 -0.03631905 0.34533104 0.076943114 -0.043752227 0.07379424 -0.066113845
-0.17540976 -0.09068885 0.0044219787 -0.040043022 -0.029443085 0.25476605 0.40359184 -0.052696984
-0.14789054 0.109047964 -0.004223076 -0.039144237 0.052926067 0.08738958 -0.17312098 -0.18579607
-0.3322712 -0.18113765 -0.47672182 0.188987 -0.206457 -0.07485184 -0.088104784 -0.2048122
-0.0141695505 -0.0063398457 -0.2050984 -0.09722546 -0.100541584 -0.517025 -0.041556917 -0.08493792
-0.19509888 -0.11781196 -0.154758 0.08444158 -0.09461148 -0.15236735 -0.24902672 -0.11567161
-0.06990941 -0.018799767 -0.12626468 0.10095308 -0.10168909 -0.051564805 -0.19750382 -0.4209556
0.12967217 0.06665197 -0.10218258 0.088301554 0.21910568 0.031161683 0.22492306 -0.022924967
0.052603897 -0.10679787 -0.26940578 0.19610414 -0.48921326 0.2709177 -0.0026930987 0.053687032
0.23940694 -0.07211264 0.012855251 -0.025716055 -0.0074481633 -0.2022047 0.17478363 0.17974329
-0.0092922365 -0.1408494 -0.053464856 -0.12244774 0.22108719 -0.16605407 -0.03347148 0.277613
0.20457192 0.11798742 0.06372185 0.42405176 0.15874605 -0.28421274 -0.001170113 0.20251095
0.07835259 -0.0890745 0.07144706 -0.31255808 -0.09551864 -0.02726937 0.0581841 0.32983804
-0.013720439 0.03581118 0.2198901 0.045856543 0.2547445 0.19934525 0.12908204 0.16433465
-0.10361802 0.16900097 -0.11377791 -0.38532892 -0.20237629 -0.013963308 -0.11114592 0.2800977
0.42363822 -0.1440751 0.118903086 -0.022767708 0.10541991 0.12926883 -0.09503667 -0.028099913
0.15559629 -0.29706636 0.005809384 0.05403651 0.058499593 0.27664137 0.19247267 -0.15016289
0.023226313 0.11052704 -0.22707325 -0.041502167 -0.0942037 -0.043766197 -0.065525286 -0.10627589

encoder.3.bias f4 [16]
00000000: 9ab5 763d dfa0 36bd 655b 433b 35d0 fa3d
00000010: 08e3 f8bc dbd7 ad3c fb65 9dbd 7e85 213e
00000020: 7884 023e 3e5f c83d ba95 cabc d1d4 433d
00000030: d960 223e 675a 52bc ce7c e53d 1719 ff3c
0.060231782 -0.044587012 0.0029809114 0.122467436 -0.030381694 0.021221092 -0.07685467 0.1577358
0.12745845 0.09783791 -0.024729598 0.04781038 0.15857257 -0.012838936 0.11205445 0.031139893

encoder.4.weight f4 [16]
00000000: fa01 7d3f 49e6 763f 21a7 8c3f c2a5 8a3f
00000010: 6e4c 883f 8839 553f cd14 703f f7c1 7a3f
00000020: e5fd 743f 806b 6d3f caeb 7b3f 0865 8a3f
00000030: 41a2 643f 4328 5c3f 7ec1 813f 2775 6e3f
0.9883114 0.9644514 1.0988504 1.0831835 1.0648324 0.8329091 0.9378174 0.97952217
0.9569991 0.92742157 0.9840666 1.0812082 0.8931008 0.85998935 1.0137174 0.9314751

encoder.4.bias f4 [16]
00000000: 3abe c4be e116 403d 06a0 183e f29b e6bd
00000010: 6c9f 313d ff9a 9abd ce0e 5bbf 3104 4abd
00000020: d5d4 c7be 8082 5f3e 5ea9 21be 9933 ccbe
00000030: d597 82be 61b3 dbbe 8249 333e e725 20bf
-0.3842638 0.04689682 0.14904794 -0.11260213 0.043364927 -0.075490944 -0.85569465 -0.049320403
-0.39029565 0.21827126 -0.15787265 -0.39883116 -0.25506464 -0.42910293 0.1750851 -0.62557834

encoder.4.running_mean f4 [16]
00000000: 15cc 813d c195 88be ccbc 013f 107e 893e
00000010: f42a 9fbf 14d8 08be bcf4 de3e c172 9c3e
00000020: 7f86 073f d9a6 73be f95e ccbe ad2a 913e
00000030: 0ded d93e ecc8 a53e 464e 80be a8d9 8b3e
0.06337754 -0.26676753 0.50678706 0.2685399 -1.2434983 -0.13363677 0.43546093 0.305563
0.529396 -0.23794116 -0.39916208 0.28352872 0.42563668 0.32379854 -0.25059718 0.27314496

encoder.4.running_var f4 [16]
00000000: 5f53 e43d 7d04 243f 471a b83e 5789 5b3e
00000010: 5148 d13f 9255 c93e 4dc8 f53e 3b5b c93e
00000020: dc53 0a3e ff60 213f 7ba1 993f 92cd 9a3e
00000030: e43e 3e3e 8c37 903e 8544 963e 8b67 483e
0.11148714 0.6406935 0.35957548 0.2143911 1.6350194 0.39323097 0.4800438 0.39327416
0.13508552 0.6303863 1.2002405 0.30234963 0.18578678 0.2816738 0.2934915 0.19570749

encoder.6.weight f4 [4, 16]
00000000: 380c 84be 6b63 bc3e d33f 32be 182a 41be
00000010: 64fb 4ebe ffdc 4d3e b444 243d 0e49 6cbe
00000020: eb30 223e 776a 113e 387a acbe c4ae bdbd
00000030: 65bf 443d 5c9e 463e f61e 8b3e 8449 3a3e
00000040: c277 bdbc a110 4a3e d711 913e 5e72 8cbe
00000050: 36ec bf3d 5d79 f03c 07d1 c13d eb68 903d
00000060: 4f86 b5bd 93bf 8bbe f7ea 00be a61b 80be
00000070: 2e85 c73d da94 09bd 5daa 3bbe d247 62be
00000080: 68b9 cbbe d85b 073d 2593 933d 344c 523e
00000090: c2d9 8a3d 3306 46bd fdeb 05bf 199f f4bd
000000a0: 3a54 14be 829d dbbd bc56 b33b b49e d4be
000000b0: 1d5b 433e 1db1 3d3e 9afa 8fbe 0937 82be
000000c0: 287d eb3d dd36 7d3d 78aa 2fbe 2ba3 a03e
000000d0: 446c b5be 8040 633c 3f69 3a3c 8cff 53be
000000e0: 1537 363e 7b8c 6cbe 5bf0 043e ab2b ccbd
000000f0: e8da 543e 1b90 ffbc 01b5 f93d 5671 243e
-0.25790572 0.367946 -0.1740716 -0.18863714 -0.20213085 0.20103835 0.040104583 -0.23074743
0.15838973 0.1420077 -0.33686996 -0.092618495 0.04803409 0.19396347 0.2717206 0.18192106
-0.023128394 0.19732906 0.28333923 -0.27431005 0.093712255 0.029354746 0.09463697 0.070512615
-0.08863508 -0.27294597 -0.12589632 -0.25021094 0.09742199 -0.03358922 -0.18326707 -0.2209771
-0.3978989 0.033046573 0.072058 0.20536882 0.06779815 -0.048345756 -0.52313215 -0.11944408
-0.14485255 -0.107234016 0.005472986 -0.4152733 0.19077726 0.18524595 -0.2812088 -0.25432613
0.11498481 0.0618199 -0.17154872 0.31374487 -0.35434163 0.0138703585 0.011377632 -0.20702952
0.1779445 -0.23100464 0.12982313 -0.099692665 0.20786631 -0.031196645 0.12192727 0.16058859

encoder.6.bias f4 [4]
00000000: 2496 e1be 4810 f53e f25d a83c 69ff e33d
-0.4405986 0.47863984 0.02055261 0.111327

decoder.0.weight f4 [16, 4]
00000000: 0de5 d43e 31a8 7bbd 9f56 ffbe 7e40 f13e
00000010: 1439 da3e d0b4 0ebf bc7c 3c3e 25e1 563e
00000020: a1ac 1d3f 589d e63d 5826 57be 15b9 82be
00000030: ef2f 70bc b649 bebe 2410 e8bd aacc 1c3f
00000040: 7cd7 3ebe 6564 d9be 47da 7ebe b52c 88bd
00000050: 750f d43d 0dae 29be 4144 28bf 2811 bebe
00000060: cc80 03bf 78ce 663e 5f88 39be 76a1 0abf
00000070: 035e 76be 7b51 e33e 0fa0 9fbc 082e 0b3f
00000080: 0e4e 513e d6ac 77bd 33fa f83e a7d8 823c
00000090: 2912 60be 3d55 3a3e 447c b2be 6489 d73e
000000a0: fafb 363f eb7b 433d 933a 853e cde8 cd3e
000000b0: 3671 f6bd 28d0 b73e 2fe9 053f 97d3 80be
000000c0: 089c 05bf 45f9 81be 36ae cebe a8f1 78be
000000d0: 8c3b a5be c534 cebe c533 3a3d 57d9 bfbe
000000e0: 4202 c0be 195e 7bbd 6f8a a93e 19f5 843e
000000f0: a5be 953d a485 99be 53e5 233f 47cf df3e
0.41581002 -0.061439697 -0.49870774 0.47119516 0.42621672 -0.5574465 0.18406957 0.20984323
0.61591536 0.1126048 -0.2101072 -0.2553183 -0.014659866 -0.37165612 -0.113312036 0.6124979
-0.18636888 -0.42459407 -0.24887954 -0.06649152 0.10354511 -0.16570301 -0.6572915 -0.37122464
-0.51368403 0.22539699 -0.18118428 -0.5415262 -0.240593 0.44398102 -0.019485502 0.54367113
0.20439932 -0.060467564 0.48628387 0.015972449 -0.21881928 0.18196578 -0.34860432 0.42097008
0.71478236 0.0477256 0.2602125 0.40216675 -0.12033312 0.35900998 0.52308935 -0.2516143
-0.5219121 -0.2538549 -0.40367287 -0.24310935 -0.32271993 -0.40274635 0.045459528 -0.37470505
-0.37501723 -0.061369035 0.3311343 0.25968245 0.07311753 -0.29984772 0.64021796 0.43712828

decoder.0.bias f4 [16]
00000000: 6980 a6be 27d8 22bf 9e4a b43d 6104 0a3e
00000010: ad36 883e 92ef adbe b007 a0be c6d1 273f
00000020: 25cc d3be 2379 913d 2998 98be ec08 18be
00000030: b8f1 aebe c832 c5bc 34a2 14be 2618 ac3e
-0.32519844 -0.6361107 0.088032946 0.13478233 0.26604214 -0.3397184 -0.31255865 0.65554464
-0.41366687 0.07103183 -0.2980359 -0.14847153 -0.34168792 -0.024072066 -0.14515 0.33612174

decoder.1.weight f4 [16]
00000000: 7912 833f 797b 643f e791 833f d2c6 5d3f
00000010: dcea 7c3f 3dce 813f 1ac1 733f 540c 753f
00000020: 0ed1 8a3f 5eb4 783f 5329 883f 67e7 8c3f
00000030: c58b 8e3f d4e8 253f b1ca 5f3f 9804 723f
1.0240012 0.89250904 1.0278901 0.866315 0.98795867 1.0141064 0.95216525 0.95721936
1.0845048 0.9715022 1.0637611 1.1008118 1.1136404 0.6480839 0.8741866 0.9453826

decoder.1.bias f4 [16]
00000000: 3dfa febe dfe8 23be 91c8 d9be 1081 033d
00000010: 8d80 08be 7ac9 16bf bc6e c2bd 02ff 56be
00000020: 309d d63d ad82 28bf 8c41 a4be 4b32 fa3e
00000030: 3b1d 35bf a165 823d 4649 d03e 4411 78be
-0.49800292 -0.16006802 -0.42535833 0.032105505 -0.13330288 -0.5890118 -0.09493777 -0.20995715
0.104792 -0.65824395 -0.32081258 0.48866495 -0.7074773 0.063670404 0.40680903 -0.24225336

decoder.1.running_mean f4 [16]
00000000: 64ac f4be c911 87bf cec0 e8bd a185 323c
00000010: eee7 653e f888 b8be 9dcb db3c 0f65 6c3f
00000020: 405f 16bf d32e 8c3e fa96 22bf 9550 e5bc
00000030: ad49 1abe 586a 01bd bb09 43bd 93b3 da3d
-0.47787774 -1.0552303 -0.113648996 0.010896117 0.22451755 -0.36042 0.026830489 0.92341703
-0.5873909 0.27379474 -0.6351162 -0.027992526 -0.15067168 -0.031595558 -0.0476167 0.10678782

decoder.1.running_var f4 [16]
00000000: 5b49 293e 319d d73d 3c31 793d b736 c23d
00000010: 7149 b43d 3589 013e 7444 cf3d abf7 593d
00000020: d3a0 c93d 0f6d b23d 7f03 1d3e b1ef 283e
00000030: 70fe 223e eb2c a83d 2868 133d 6a71 0a3e
0.16531889 0.10528029 0.06083797 0.09483092 0.0880307 0.12649997 0.10120478 0.05321471
0.09845128 0.087122075 0.15333365 0.16497685 0.15917373 0.082116924 0.035988003 0.13519827

decoder.3.weight f4 [32, 16]
00000000: db0f 663e e4e2 34be d0cb ac3e 6fb7 c73d
00000010: 0da5 873e 4f0c 843c 65e0 01bf b3b5 0ebd
00000020: 16e8 c7bd 863f debd db85 a43c 846c 6dbd
00000030: 04f5 b9bd 3411 6d3e cc85 d53d c406 b7bd
00000040: 9e1c 8a3e b3a3 a6bc 896b c8bc 34e2 923d
00000050: 7d89 e63c c503 efbe c4b2 223e 67de 84bd
00000060: 6ed1 e43d 234b f8be f9b2 84be 2891 25be
00000070: 2c25 0dbe 9965 f0bd 4193 ed3c 28e3 afbe
00000080: 6398 8d3e fab1 833e 489a 75be 877d 0cbd
00000090: eba6 fb3d 21f6 df3d fd9e 373e 8afd cfbe
000000a0: 4268 c338 38bd 713e 48e6 d83d 3ee4 453e
000000b0: 561a 9d3d 3dbc d43c 5689 6fbe 81d0 893d
000000c0: fa05 60be 58ff 223e 2e65 18be 45b6 17be
000000d0: 5304 12bf 2630 2cbe c3b2 98be fc57 81bd
000000e0: 466e 09be ea50 15be b51e 19be 9721 543e
000000f0: 5474 5dbe 4a11 3a3e d305 64be acac d0bd
00000100: c3a4 053c 46fe 31bc 072f 993a 4097 ed3c
00000110: b664 c63d f33d 39be 40cb be3e 6934 8bbe
00000120: 8ff7 3cbd 7c0f a13d 1cc8 703e 6cd1 7a3c
00000130: 1855 58bd 3e59 8cbc cf26 97be 0cc1 f6be
00000140: 308c 8dbd 60d9 853e 72b3 713e 8b89 a4bd
00000150: e562 953d ca81 cbbd f2e0 34bd 3d8f 003d
00000160: 2c93 403e 5a82 3a3c fdcc e03e 4051 c1be
00000170: 7a71 f9bc 7327 f2be ea79 df3d 7eae ce3d
00000180: c004 443e c83c 0a3e 8cfe a2bd fdc6 5abe
00000190: 87e8 08be cdf3 c23e b39a 923d de85 713c
000001a0: 366e f63e a73d f63d 2822 babe 57cb e23d
000001b0: b7a9 48bd 9dab 04be 5d01 bbbd 5c6e e5be
000001c0: 29df e0bc f387 423e a8fb 36bd 611f c03c
000001d0: 9d77 823e 2c0f 183e 885a b5bd 1a1c dfbd
000001e0: baaf c0be c38f ce3e 1d2c 313e 2360 943e
000001f0: 70ad 5e3e ee5a 34be 7235 f4bd 0375 2fbb
00000200: 2d1c ca3d 7211 1c3e 82ca 12bf 7d7f 533e
00000210: 5add bd3d fa3b 1bbe 9f04 4c3d 9b47 9639
00000220: 958d 3a3e 989c 93be 2cbb a8be 618e 4ebd
00000230: 1937 c1bd 0eed 2bbd a8f0 403e b401 06be
00000240: f81e b33c 6260 2bbd 33e1 6ebf c4ac dabd
00000250: 53fc cebe 94eb 2bbe ab06 15be 5bab b4bd
00000260: 6d55 dc3d 7497 d83d d927 273e 29d5 483a
00000270: 101f fd3d c684 113d 3f58 383e 77d6 e0bd
00000280: 46e6 933e c08f 63be 1e87 c83e 8565 933d
00000290: ea76 af3c 03f4 353e 8224 8dbd 8ab3 95be
000002a0: e84d efbe b093 183e 0bd6 883c d18a 8c3e
000002b0: a574 44bd c5fc 32be 58ca c93d 8fab 333e
000002c0: 432f a3be d532 51be 967e af3e d13e 773d
000002d0: c784 34be b005 ac3c f94c c8bd c76c 8dbc
000002e0: fbd1 a23c 126f 5cbd 71b3 30bf 935c 09be
000002f0: f65e f9bd 84f3 0b3d 66f9 723e 0d1d 05bf
00000300: 3971 9bbe c4c4 16be 797c 31be 0813 62be
00000310: 1885 b23e 80b5 abbe 2d5e 573d 1b14 9a3e
00000320: 1f54 3ebe 1865 8bbd 1283 f13d 71f8 60be
00000330: c250 84be 0b0f aa3e ee07 8f3d d8ce e63d
00000340: b07a c3be 8ef1 ff3d 6760 433e 9bbc 74bd
00000350: 7ad5 0dbf 9282 63be 7fb6 fdbd e05d 433e
00000360: 582c c13c 9a66 02bf 18d5 c9be 05dc 34bc
00000370: 25fc f7bd 7f61 c8bc b691 353e 0d2c 69be
00000380: c9c8 a43e b2e8 fabb 1285 9f3d 635c 62be
00000390: 7bfb 063e ed4e 63be 0e8d acbe 92f3 a53e
000003a0: d260 95bc 477a a0be 755d 77be 3c38 9fbe
000003b0: c910 393e 38d7 f4bd a0d3 903e e92b ba3d
000003c0: 56eb 273e 90aa 04be f958 b2bd b035 3abe
000003d0: 6b37 19bc 1d7c ebbd 4211 fb3c cc7b f33d
000003e0: b596 533e e6ea 243c 5633 0dbf 5810 503e
000003f0: 3009 153e ade2 363c e00b adbe f337 26be
0.22466986 -0.17664677 0.33749247 0.09751784 0.2649311 0.01611915 -0.50733024 -0.03484125
-0.09761064 -0.1085196 0.020083359 -0.057964817 -0.09079936 0.23151094 0.1042591 -0.08936837
0.26974958 -0.02034173 -0.02446534 0.07172051 0.028141731 -0.46682563 0.15888506 -0.064877324
0.11172758 -0.48494825 -0.25917795 -0.16168654 -0.13783711 -0.11738128 0.02900088 -0.34352994
0.27655324 0.25721723 -0.23984635 -0.0342994 0.122876965 0.10935617 0.17931743 -0.40623122
9.317744e-05 0.23607337 0.10590798 0.19325349 0.07671039 0.025968665 -0.23392233 0.06729222
-0.2187728 0.15917718 -0.14882347 -0.14815624 -0.5703785 -0.16815242 -0.29823884 -0.0631561
-0.13420972 -0.14581648 -0.1495312 0.20715939 -0.21626407 0.18170658 -0.22267847 -0.101891845
0.008156958 -0.010863846 0.0011686989 0.029002786 0.09687178 -0.18090038 0.37264442 -0.27188423
-0.046134528 0.078642815 0.23513836 0.015308719 -0.052815527 -0.017132398 -0.29521796 -0.48194158
-0.06911504 0.26142406 0.23603609 -0.08034047 0.07294253 -0.09936865 -0.044159837 0.031386603
0.18806142 0.011383617 0.43906394 -0.377573 -0.030449618 -0.47295722 0.10911925 0.100918755
0.19142437 0.13499749 -0.07958707 -0.2136497 -0.13369952 0.3807663 0.07158413 0.014741389
0.4813096 0.12023478 -0.36354184 0.1107394 -0.048989978 -0.1295609 -0.091311194 -0.4481076
-0.027450161 0.18997173 -0.04467359 0.023452463 0.25481883 0.14849538 -0.08855158 -0.10894032
-0.3763407 0.40344056 0.17301984 0.28979596 0.21745849 -0.17612812 -0.119242564 -0.0026772625
0.09868655 0.1524103 -0.5734025 0.20654102 0.09270735 -0.15159598 0.049809095 0.0002866358
0.18218072 -0.2883041 -0.329553 -0.05042875 -0.09434337 -0.04197412 0.18841803 -0.13086587
0.021865353 -0.041839965 -0.93312377 -0.10677484 -0.40426883 -0.16789085 -0.14553325 -0.08821746
0.10758481 0.105757624 0.16323794 0.0007661158 0.1235944 0.035527013 0.18002413 -0.10978406
0.28886622 -0.22222805 0.39165586 0.07197098 0.021419007 0.17768864 -0.06891729 -0.2923854
-0.46739125 0.14900088 0.016703626 0.2744966 -0.047962803 -0.17479236 0.09853047 0.17545913
-0.31871995 -0.20429547 0.34276265 0.06036264 -0.17628776 0.020998806 -0.09780306 -0.017263783
0.019875517 -0.053816862 -0.69023806 -0.1341422 -0.121763155 0.03416778 0.2372795 -0.5199745
-0.3035982 -0.14723498 -0.17332639 -0.22077572 0.34867167 -0.3353691 0.052580047 0.30093464
-0.18586777 -0.068063915 0.11792578 -0.21969773 -0.25842863 0.33214602 0.06983934 0.11269921
-0.3817954 0.12497245 0.19079743 -0.05975018 -0.55403864 -0.22217777 -0.12388324 0.19078779
0.023580715 -0.5093781 -0.3942039 -0.011038785 -0.1210864 -0.024460552 0.17731366 -0.2277071
0.32184437 -0.007657134 0.07789053 -0.22105555 0.1318187 -0.22198077 -0.33701366 0.32412392
-0.018234644 -0.3134329 -0.24156745 -0.3109759 0.1807281 -0.11955112 0.28286457 0.090904064
0.16398367 -0.1295569 -0.087083764 -0.18184543 -0.009351592 -0.11498282 0.030647878 0.11888847
0.20662959 0.01006577 -0.5515646 0.20318735 0.14554286 0.011162442 -0.33798122 -0.1623228

decoder.3.bias f4 [32]
00000000: fe3c 7ebd 273c 69be 795d 37be 79fd e23d
00000010: 6e17 8ebd a78f 50bd 89ab 73be 1403 3a3e
00000020: da23 50be cb47 923d 4b0c 8cbe 88ab 91be
00000030: 2c3b 1cbe badb a83d 74d8 a03d fb2b d0bd
00000040: ea7e 19bd 3b88 85be 8cb1 efbd 7da5 8abd
00000050: d026 9a3e 7a78 44bd 3729 bc3d 71e1 813d
00000060: b444 1e3e 3b2e df3c dd0b 033d ab61 823d
00000070: 1eb6 1abe 25fc 5cbe 3b9e 663e d151 8dbe
-0.062069885 -0.22776853 -0.1790675 0.11083502 -0.069380626 -0.050918248 -0.23795904 0.18165237
-0.20326176 0.071426 -0.2735313 -0.2845118 -0.15256947 0.082450345 0.07853785 -0.101646386
-0.03747455 -0.26080498 -0.11703786 -0.06769846 0.30107737 -0.047966458 0.091875486 0.06341828
0.15455896 0.027243724 0.031993736 0.06366285 -0.15108535 -0.2158056 0.22521298 -0.27601483

decoder.4.weight f4 [32]
00000000: 5456 453f f936 903f 4e6a 313f 8f79 843f
00000010: 0aeb 503f 219e 6d3f 52d0 643f 1154 b23f
00000020: c91b 873f e126 873f deba 573f 68ea 7e3f
00000030: fb51 7d3f 2101 b23f 98d9 3b3f fb4a 973f
00000040: 6418 8a3f 3818 923f 41e4 993f ab7f 8b3f
00000050: 8f66 733f c7d4 953f fef8 533f 93c1 753f
00000060: 1a43 903f 27e4 643f 7193 963f 4965 9c3f
00000070: 5370 573f 4186 483f 8448 823f 2e37 873f
0.7708485 1.1266776 0.69302833 1.0349597 0.8160864 0.9281941 0.8938037 1.3931905
1.0555354 1.055874 0.8426951 0.99576426 0.9895322 1.3906595 0.73378897 1.1819757
1.0788693 1.1413641 1.2022783 1.0898336 0.95078367 1.170556 0.82801807 0.95998496
1.1270478 0.8941063 1.1763746 1.221841 0.8415577 0.78329855 1.017838 1.0563715

decoder.4.bias f4 [32]
00000000: 527d 6cbd 4ef5 f9be 077e cbbe 67d0 00bf
00000010: 185d e4be 8b67 32be cfe8 81be aa61 643e
00000020: cf61 aebe 6e73 72be e2b5 123e a6ff f1be
00000030: 9d43 14bf c5e8 0fbf c3b9 c6be 0d00 16bf
00000040: 3bec 11bf edf8 e9be fc9d 1ebf 293c 9bbc
00000050: 6c8e b3be e918 fbbe e995 2abe e533 90be
00000060: fa94 0abf 47d4 0bbf 7f60 ebbe 2143 03bf
00000070: 0e0b 81be a61d bcbe ad96 fbbe 0d01 3fbe
-0.057736702 -0.48819965 -0.3974459 -0.50317997 -0.44602275 -0.17422311 -0.2537293 0.22302881
-0.34058997 -0.23676845 0.14327195 -0.47265357 -0.5791567 -0.56214553 -0.388136 -0.5859383
-0.57001084 -0.45697728 -0.61959815 -0.018949585 -0.35069597 -0.49042442 -0.16658749 -0.28164592
-0.5413357 -0.54620785 -0.45972058 -0.51274306 -0.25203747 -0.3674137 -0.49138394 -0.18652745

decoder.4.running_mean f4 [32]
00000000: fa66 6abd 0eda bdbe 2600 c7bd 83c4 5cbe
00000010: 71bb 5bbe 27d3 1bbe fb01 45be 4df7 683e
00000020: 9627 b0bd 4bf9 6ebd 7129 84be ef55 02bf
00000030: 805d 60be 3e78 adbd 067c 91bd ae9a 65be
00000040: dc91 d5be eaf5 efbd 5025 8cbe 289b 19be
00000050: 3d7e 933d e18c 48be 0cda 9abd 2761 53bc
00000060: 56f7 a7be fcf8 65be 8d4e 903c 3044 36be
00000070: fdbe 44be 515d b7be bf45 853b 296b 09be
-0.057227112 -0.37080425 -0.09716825 -0.21559338 -0.21458222 -0.15217267 -0.19239037 0.22750588
-0.086013004 -0.058343213 -0.25812867 -0.50912374 -0.21910667 -0.084702 -0.07103734 -0.22422287
-0.41712844 -0.11716826 -0.27372217 -0.15000594 0.072018124 -0.19584991 -0.075611204 -0.012901581
-0.3280589 -0.22458261 0.01761558 -0.17799449 -0.19213481 -0.35813382 0.0040671523 -0.13419785

decoder.4.running_var f4 [32]
00000000: 3e1b 493e e187 153e b1fa 083e c62e 493f
00000010: 065c d73d 9ea3 bb3e 7bdd 4f3e a1fb 9b3e
00000020: c27c 763e 5950 083f fdcb 533e 46d6 ce3e
00000030: bfff 443e 4ed7 6b3f 8a75 bf3d b16b a73e
00000040: cf1e 7c3e 4eb5 753f 1c39 793e fa41 6c3e
00000050: af05 d33e e040 8b3e 50d3 083e 675b 153e
00000060: 00bc 8d3e d430 1a3e f93b 9c3e ebcf 2d3f
00000070: 125e 033f ceb7 dd3d 5af6 153e cb3d 833e
0.19639298 0.14602615 0.13376881 0.78586996 0.10515599 0.36648268 0.20299332 0.30465415
0.24071029 0.532476 0.20683284 0.40397853 0.19238184 0.92125404 0.09348591 0.3269935
0.24621128 0.95979774 0.24338192 0.23072043 0.41215274 0.27197933 0.1336186 0.14585648
0.27682495 0.15057689 0.30514506 0.6789538 0.51315415 0.108260736 0.14644757 0.25633082

decoder.6.weight f4 [6, 32]
00000000: 91f0 563d 4277 2abf 52a2 393e 6230 b9be
00000010: d8c6 40bf 68ba 383f 8701 9abd 5b73 523b
00000020: aac8 463f 2efe 203f 8944 713e 745f 8d3f
00000030: e8c9 343f 5c51 90bf 68f8 c8be d998 d83f
00000040: 54d6 bc3e a002 38bf 3f2d 9f3f a8e8 82bd
00000050: 478c c43e 37b2 a23f 663c 833e 4e7a 4abf
00000060: 63ea 453f 816e 213b 4a65 87be c616 73bf
00000070: bd16 e33e 92f3 2abf 4e73 103f 77c1 e5bc
00000080: fd4a 17bf 634d 8d3f 4889 cbbe a13c 29bf
00000090: 768c ee3e 73df 96bc edd0 ea3e 6454 16bd
000000a0: 25d0 84be 3279 cfbe 4bb6 30bf 25c4 c13e
000000b0: f8ca 88be 920f a0be 77a0 af3d cb2c 5cbe
000000c0: bbd4 63bf d88d 393e 741f 94bf 0ce5 323d
000000d0: 252c 073f e9d4 47be a61b 253f bf84 e1bd
000000e0: b334 9abf e764 3d3f c808 963f 2627 4b3e
000000f0: e2d2 b23e 08ad d63e c22e 8a3f f433 bf3e
00000100: 8557 ad3d 1832 56bb 4217 8b3d 39b6 263f
00000110: f823 d43c 14ca c7bb c0bd 04be 7c04 af3e
00000120: 59b6 59be a6bb 34be 10fd 1a3e 4525 3bbe
00000130: 7d16 de3e c3b6 6b3f abe7 da3d c551 0cbf
00000140: bb39 c13e a53c c73e 25c6 f13d b9ea c13e
00000150: c4b4 563e 3e67 bdbe 50d7 e43d 1141 bc3d
00000160: afa5 a93e c507 02bf 6942 77be e6f6 583f
00000170: 6d50 573e cdd6 c3bd c9f5 d83d fefe babe
00000180: 4a76 ca3d 89ca 26be b5a5 203d 47a8 5d3f
00000190: 187f 423e fee6 d4bd f196 cabe 2080 3d3f
000001a0: 8457 a5be 1a4c bbbe 9607 873b acdd 93be
000001b0: dd49 133f 40a3 ca3f 94ba a83e 7d8f fdbe
000001c0: 87e2 223f 206a 4b3f 6cae 193e 4953 043f
000001d0: c698 b73e 519a 8bbe 47e0 d2bc 9c76 b43d
000001e0: a7b7 fc3e 8e39 08bf 986d 1cbd 548c 9b3f
000001f0: 44b1 56be e1b2 47be ca3e 4c3d bd8d dcbe
00000200: 21f9 5fbe b212 063e 1e43 3c3d a88b 6bbf
00000210: 88f7 34be 431a d03d 98b5 a53e ec9d 37bf
00000220: ad07 923e a75e aa3e 0e84 72bc a2d1 683e
00000230: 9630 19bf 56d0 c0bf 193d 82be d410 0c3f
00000240: 950c 22bf c65f 45bf 4119 54be 963a 17bf
00000250: 8aa7 abbe e600 983e 1446 8fbd 2939 8cbd
00000260: 1395 f6be 3b5a 343f 9eeb 423d 9375 a1bf
00000270: b7cc 663e bd0e ea3d 94f9 d8bd 4204 ca3e
00000280: f4eb 3bbe 2090 003f 9605 2cbe 6635 ca3d
00000290: d3c4 0abd eea2 81be 3ebd e6bd fd70 903e
000002a0: 12d1 17be 4f8d 2bbe 1f14 263d 8362 56be
000002b0: d7fd 433e 7c8b fe3d 81ad 7fbc ba0d c9be
000002c0: 6c13 023e b787 3d3f 2e66 0dbe 1a7c 5c3e
000002d0: 8eb6 3b3d 408f 0dbe cfcd ee3d c1ee c13c
000002e0: 614e 4abe 469e 0fbe b82a c53e 6c35 ff3e
000002f0: ad49 b63d 6240 993b 8c49 2c3e 9b92 65be
0.052475516 -0.66588223 0.18128327 -0.36169726 -0.7530341 0.72159433 -0.075198226 0.0032112214
0.7764994 0.6288785 0.235613 1.1044755 0.70620584 -1.1274829 -0.3925202 1.6921645
0.3688227 -0.71879005 1.2435683 -0.06392032 0.38388273 1.2710637 0.25632018 -0.7909287
0.7731077 0.0024632516 -0.26444465 -0.94956625 0.44353285 -0.6677791 0.5642594 -0.028046353
-0.590988 1.1039242 -0.39753175 -0.6610814 0.46591538 -0.018417096 0.45862523 -0.036701575
-0.25940052 -0.40522152 -0.69028157 0.3784496 -0.26717353 -0.3126188 0.08575528 -0.21501462
-0.88996476 0.18120515 -1.1572099 0.043675467 0.52801734 -0.19514813 0.64495313 -0.110116474
-1.2047333 0.7398209 1.172143 0.19839153 0.34926516 0.41928887 1.0795519 0.37344325
0.08463959 -0.0032683667 0.067915455 0.651218 0.025896057 -0.0060970876 -0.12963009 0.3418311
-0.21260966 -0.17649707 0.15135598 -0.18275936 0.43376532 0.9207575 0.106887184 -0.5481227
0.37739357 0.38913456 0.11805371 0.37874392 0.20967394 -0.3699283 0.1117388 0.09192098
0.3313422 -0.50793105 -0.24146427 0.8475174 0.21026774 -0.095624544 0.10593755 -0.3652267
0.09885843 -0.16288199 0.03922053 0.86584896 0.18993795 -0.10395621 -0.39568284 0.7402363
-0.32293332 -0.36581498 0.0041207774 -0.2888006 0.5753458 1.583107 0.32954848 -0.49523535
0.63626903 0.7945881 0.15007943 0.51689583 0.35858744 -0.27266172 -0.02574171 0.088116854
0.49358866 -0.5321282 -0.038190454 1.21522 -0.20966059 -0.1950183 0.049864568 -0.43076888
-0.21872379 0.13093069 0.045962445 -0.92009974 -0.1767255 0.10161259 0.32365108 -0.71725345
0.2852148 0.3327534 -0.014801992 0.22736219 -0.5983976 -1.5063579 -0.2543724 0.5471318
-0.6330045 -0.77099264 -0.20712759 -0.5907377 -0.3352626 0.29688185 -0.06995788 -0.0684684
-0.4816061 0.7045018 0.047587983 -1.2614006 0.2253903 0.11428592 -0.10594478 0.39456373
-0.18351728 0.5021992 -0.16799006 0.09873466 -0.033879112 -0.25319618 -0.11266564 0.28211203
-0.14825848 -0.16753124 0.040546533 -0.20936017 0.19139801 0.12428948 -0.015605331 -0.39268285
0.12702721 0.7403521 -0.1380851 0.21531716 0.045828395 -0.13824177 0.116603486 0.023673417
-0.19756462 -0.1402522 0.38509154 0.49845445 0.08900771 0.0046768645 0.16824931 -0.22419207

decoder.6.bias f4 [6]
00000000: b5c9 8dbd ea92 05bd 7629 56be 665c 6dbe
00000010: 4fbd 9a3e 099e 17be
-0.06923238 -0.03261081 -0.20914254 -0.23179778 0.30222556 -0.1480638
